game_play/cnn_model_4.pth (torch, 85111 bytes, 10 tensors)

conv1.weight f4 [16, 1, 3, 3]
0	0x3d626a14	0.055276945
1	0x3e3e81e0	0.18604231
2	0xbe009976	-0.1255854
3	0x3dc1e0ec	0.094667286
4	0x3d8cc10f	0.068727605
5	0xbd521bd5	-0.051296074
6	0xbe48126b	-0.19538276
7	0x3d931952	0.07182564
8	0xbdb6a764	-0.08918646
9	0x3e42fbad	0.19041319
10	0xbd8bf400	-0.06833649
11	0x3d8f138c	0.0698615
12	0xbeb7ba77	-0.3588445
13	0x3d962c0c	0.0733262
14	0x3e51c87f	0.2048664
15	0x3e871202	0.26380926
16	0xbe56549b	-0.20930712
17	0x3e2ac2ea	0.16675916
18	0x3b6812e4	0.003541165
19	0x3e336157	0.17517601
20	0xbcaae493	-0.020860946
21	0xbcd6a830	-0.026203245
22	0xbdfe6eb9	-0.124234624
23	0xbe4cabfe	-0.19987485
24	0xbcf9191e	-0.030407485
25	0x3e752ebe	0.23943612
26	0xbe6676e0	-0.22506285
27	0x3ca0064d	0.019534254
28	0xbdc6a7b7	-0.09699958
29	0xbe441f5d	-0.19152589
30	0xbe50b9e0	-0.20383406
31	0x3a835b02	0.0010021629
32	0xbea9acae	-0.33139557
33	0x3dc9a7af	0.09846436
34	0xbe7eb2e5	-0.2487293
35	0x3e26e986	0.1630002
36	0xbd3a5347	-0.045489576
37	0xbe726769	-0.2367226
38	0xbdbf02b2	-0.09326686
39	0x3de58f05	0.112089194
40	0x3c1dc61b	0.009629752
41	0x3dc4e4a3	0.096139215
42	0x3b7a0bfa	0.0038154111
43	0x3e411949	0.18857302
44	0x3c05f444	0.008175913
45	0x3cd63b31	0.026151272
46	0x3da6bbb4	0.0814127
47	0xbd3f8321	-0.046755914
48	0xbd900ba6	-0.07033472
49	0x3e2a9558	0.16658533
50	0xbe264473	-0.16237049
51	0xbe07b964	-0.13254315
52	0x3ce7c7f1	0.028293582
53	0xbcb6fbb1	-0.022336813
54	0x3e1a9c9b	0.15098803
55	0xbea94852	-0.3306299
56	0xbd6fdb5e	-0.058558814
57	0xbea551ab	-0.3228887
58	0x3e09aa02	0.13443759
59	0x3e8eb084	0.27869046
60	0x3e19e73f	0.1502962
61	0x3e6dcd57	0.23222862
62	0x3e73422a	0.23755708
63	0x3e6634fc	0.2248115
64	0xbe0fb293	-0.14032964
65	0xbdf2b51a	-0.11850949
66	0xbd16b5de	-0.036794536
67	0x3e843472	0.25821263
68	0xbe4508c2	-0.19241622
69	0x3c62a6c3	0.013833704
70	0x3e0a8924	0.13528877
71	0xbe837341	-0.2567387
72	0x3e124799	0.14285125
73	0x3d1707b7	0.03687259
74	0x3cec9c70	0.028883189
75	0xbe9644aa	-0.29349262
76	0x3e7fa50c	0.24965304
77	0x3e585d4d	0.21129341
78	0xbd6efb0f	-0.058344897
79	0xbe033ca2	-0.12816098
80	0x3a97e966	0.0011589944
81	0xbe220c8e	-0.15825102
82	0x3d3a8219	0.045534227
83	0xbdfce68a	-0.12348659
84	0x3e5d2c85	0.21599014
85	0x3e30d768	0.17269671
86	0xbdf06a3b	-0.11739012
87	0x3cab2eb5	0.020896295
88	0xbe882c51	-0.2659631
89	0xbe4f1ae9	-0.20225109
90	0xbe939c3e	-0.2883014
91	0x3be1e52c	0.0068937745
92	0x3e808c40	0.25107002
93	0xbdb4db41	-0.08830882
94	0x3de60fbc	0.1123347
95	0x3e7530bc	0.23944372
96	0x3e9854e9	0.2975228
97	0x3df1abc3	0.11800339
98	0xbe673d96	-0.22582087
99	0xbe431532	-0.19051054
100	0x3e16cde0	0.14726973
101	0xbceb7ef0	-0.028747052
102	0x3dec4d64	0.115381986
103	0xbe37b6e0	-0.17940855
104	0x3e846406	0.25857562
105	0xbdac46c5	-0.08411936
106	0x3e864a0a	0.26228362
107	0xbcff7b58	-0.031186745
108	0x3e0eeb60	0.13956976
109	0x3ce2cf38	0.0276867
110	0xbe56c044	-0.20971781
111	0x3da178e6	0.07884388
112	0x3dfb3c8e	0.12267409
113	0x3e980590	0.29691744
114	0x3b2f8c66	0.0026786565
115	0xbdf34b1e	-0.11879562
116	0x3e9692ae	0.29408783
117	0xbe229727	-0.15877973
118	0xbea99134	-0.33118594
119	0xbd334409	-0.043766055
120	0xbe6e6dd6	-0.23284087
121	0x3d9a8340	0.07544565
122	0xbe6b35c3	-0.22969727
123	0xbe7a01d5	-0.24414761
124	0xbebae21d	-0.36500636
125	0x3e923153	0.28553256
126	0xbe49771d	-0.19674344
127	0xbdd9ad09	-0.10628707
128	0x3e3f34dd	0.1867251
129	0x3e505514	0.20344955
130	0x3e92d996	0.2868163
131	0xbe1ce520	-0.15321779
132	0x3e206075	0.15661795
133	0x3ddada4f	0.1068617
134	0xbe2621ea	-0.16223875
135	0xbe8f4e27	-0.27989313
136	0x3e90ce5b	0.28282437
137	0xbe852dcb	-0.260115
138	0xbe5f1a81	-0.21787454
139	0xbe444dd6	-0.19170317
140	0x3dc4ce77	0.096096925
141	0xbe99b3b4	-0.30019915
142	0x3d882767	0.066481404
143	0x3df48b78	0.11940664

conv1.bias f4 [16]
0	0xbe1e8b87	-0.15482913
1	0xbd9214b3	-0.07132854
2	0x3e7eeb30	0.24894404
3	0xbea5c4a2	-0.3237658
4	0x3dcf71b1	0.10129107
5	0xbe2d517f	-0.1692562
6	0xbde3e9a5	-0.111285485
7	0x3cf3faef	0.02978274
8	0x3e0c595e	0.13705966
9	0xbe1dba75	-0.15403159
10	0x3e0cd551	0.13753249
11	0xbe83163e	-0.25602907
12	0xbc5446e2	-0.012956353
13	0x3ddb3b14	0.10704628
14	0xbeb4fc6a	-0.35348827
15	0xbd8ae050	-0.067810655

conv2.weight f4 [32, 16, 3, 3]
0	0xbdcee5ee	-0.10102449
1	0xbca88ad2	-0.020574007
2	0x3cc8de2b	0.02452
3	0x3c31cbd7	0.010851822
4	0x3ca7e4ef	0.020494906
5	0xbcce39d5	-0.02517406
6	0xbe0d89f6	-0.13822159
7	0x3d157de6	0.03649702
8	0xbd9ea955	-0.07747141
9	0xbdc684cc	-0.09693298
10	0xbcc9ea82	-0.024647955
11	0xbc11e8e3	-0.008905622
12	0xbde959da	-0.11394091
13	0xbda3a46e	-0.07990347
14	0xbd570cca	-0.05250243
15	0xbdc415e1	-0.095744856
16	0xbd4826a1	-0.048864964
17	0xbddce939	-0.10786671
18	0xb987e13d	-0.00025917022
19	0xbd8696ba	-0.065717176
20	0x3d19f8b2	0.03759069
21	0xbde60550	-0.11231482
22	0x3b8eb806	0.0043554334
23	0x3d2de9af	0.042459186
24	0xbdc431de	-0.09579824
25	0x3ba561b2	0.0050470466
26	0xbcfa58c2	-0.030559901
27	0xbdee3794	-0.116316944
28	0xbdbb6137	-0.09149402
29	0x3ca181e5	0.019715259
30	0x3d06a57c	0.032872662
31	0xbde74dd9	-0.11294145
32	0x3d035016	0.032058798
33	0xbd5a0935	-0.053231437
34	0xbda5099a	-0.08058472
35	0xbdc0d094	-0.09414783
36	0xbe1a9782	-0.15096858
37	0x3d64e5c4	0.055883184
38	0xbda0f926	-0.07860021
39	0xbd5a072b	-0.053229492
40	0x3c07fcd5	0.008300026
41	0x3cf4fb9b	0.029905131
42	0xbd91af08	-0.07113463
43	0xbd01822b	-0.03161828
44	0x3ba709ab	0.005097588
45	0xbd22f310	-0.039782584
46	0xbd58771d	-0.05284797
47	0xbdbe3826	-0.09288053
48	0xbe03c4bd	-0.12868018
49	0xbd8a29f5	-0.06746284
50	0xbcfc1287	-0.030770553
51	0xbe1565bf	-0.14589594
52	0xbdf5effc	-0.12008664
53	0x3ab9b7fc	0.0014169211
54	0xbda5ebef	-0.081016414
55	0x3ce90980	0.028446913
56	0x3cfae1d5	0.030625263
57	0xbd72a22e	-0.059236698
58	0xbda5d1bc	-0.08096644
59	0xbd9e4ba6	-0.077292725
60	0x3da8ef26	0.08248739
61	0xbd3971bb	-0.045274477
62	0x3cebb84f	0.028774409
63	0xbd8788fc	-0.066179246
64	0xbbc62dce	-0.006047941
65	0xbd9ecbca	-0.077537134
66	0xbdcc560c	-0.0997735
67	0xbd850b79	-0.06496329
68	0x3d299b06	0.041407607
69	0x3c40c87c	0.011766549
70	0xbdc8fa80	-0.09813404
71	0xbd8d9346	-0.06912856
72	0x3d029fb5	0.03189059
73	0xbccfdb76	-0.025373202
74	0xbcf3e237	-0.029770954
75	0xbd0451ab	-0.032304447
76	0xbb6064cf	-0.0034239774
77	0x3caf88c6	0.021427523
78	0x3bd88dbf	0.0066086943
79	0x3cf9f085	0.030510196
80	0x3cdf5bd0	0.02726546
81	0xbaa8944d	-0.001286158
82	0x3d0b342d	0.033985306
83	0x3d2a0ba6	0.041515015
84	0x3c5901e4	0.01324508
85	0xbe0376d1	-0.12838294
86	0x3cd8a6d0	0.02644673
87	0x3d10ea68	0.035379797
88	0xbdb16fbc	-0.0866389
89	0x3d254ca3	0.04035629
90	0xbdb3ca65	-0.08778838
91	0x3cdccbe2	0.026952688
92	0x3d9bc852	0.076065674
93	0xbd36933c	-0.044574007
94	0xbc4b3398	-0.012402438
95	0x3d94316e	0.072359905
96	0xbd8a21e8	-0.06744748
97	0x3cb925e3	0.022601074
98	0xbd45cd20	-0.048291326
99	0xbd26790e	-0.04064279
100	0x390068e7	0.0001224611
101	0x3d048194	0.032350138
102	0xbcc2757c	-0.023737662
103	0xbd161588	-0.036641628
104	0x3d1af2eb	0.03782932
105	0x3c9db6bb	0.019252172
106	0xbbf2de89	-0.007411782
107	0xbc908c8d	-0.017645145
108	0x3d3f31be	0.046678297
109	0x3d346da5	0.044049878
110	0xbbe08d72	-0.006852799
111	0xbd535b90	-0.051600993
112	0xbce110e2	-0.02747387
113	0xbc067ead	-0.008208913
114	0xbda9b94d	-0.082872964
115	0xbd999c9d	-0.07500575
116	0xbd7b263c	-0.06131576
117	0xbc4dbdb5	-0.012557437
118	0xbda5d098	-0.08096427
119	0xbd787952	-0.060662575
120	0xbba0008c	-0.0048828777
121	0xbd557572	-0.052113958
122	0x3d6f3d42	0.05840803
123	0x3d468d43	0.04847456
124	0xbb173b7c	-0.0023076227
125	0xbdb76686	-0.08955102
126	0xbd07aa5d	-0.033121455
127	0xbdf847a6	-0.12123041
128	0x3cdfef6e	0.027335849
129	0xbd9d586a	-0.07682879
130	0xbceac0d1	-0.028656395
131	0xbc85cd8f	-0.01633337
132	0xbd7188f6	-0.058968507
133	0xbc260e15	-0.010135193
134	0x3cabbcc2	0.02096403
135	0xbb6c938c	-0.0036098687
136	0xbdce1263	-0.10062101
137	0xbd95f1bd	-0.073214985
138	0xbdd2b235	-0.102878965
139	0xbd97c2c2	-0.07410194
140	0xbd029759	-0.031882618
141	0x3d274f86	0.040847324
142	0xbd307bde	-0.04308688
143	0xbb0844cf	-0.0020792966
144	0xbd0f2ef4	-0.034956887
145	0xbd8e43fd	-0.069465615
146	0x3aadc6ee	0.0013258138
147	0xbde96020	-0.113952875
148	0x3d0176d4	0.031607464
149	0xbd1ad19d	-0.03779756
150	0xbdd37ff8	-0.103271425
151	0xbd70baa1	-0.058771733
152	0xbdbd0055	-0.09228579
153	0xbdb25acc	-0.087087244
154	0x3ce25998	0.027630612
155	0x3d88c636	0.06678431
156	0x3d04148f	0.03224617
157	0xbd9684d6	-0.07349555
158	0xbd2e8e12	-0.042615958
159	0xbd3126b9	-0.04324982
160	0xbdc2d2e5	-0.09512881
161	0x3d66d0ad	0.056351352
162	0xbd9ebf33	-0.07751312
163	0xbd2d9ba7	-0.04238477
164	0xbda1bc0e	-0.07897197
165	0x3d0b7975	0.034051377
166	0xbd87b91e	-0.06627105
167	0x3c7a1347	0.015263385
168	0xbdb2de40	-0.08733797
169	0xbdb738af	-0.089463584
170	0xbcdd3175	-0.027001122
171	0xbdca92fd	-0.09891317
172	0xbc6187d8	-0.013765298
173	0xbd7ee0a8	-0.062225968
174	0x3c73d3fb	0.014882083
175	0xbcaec37e	-0.021333452
176	0x3d29205c	0.041290626
177	0xbdf8db09	-0.12151153
178	0xbda314d3	-0.07962956
179	0xbd84f46f	-0.064919345
180	0xbdbe0803	-0.09278872
181	0x3c96e40d	0.01841929
182	0xbd1921db	-0.037385803
183	0xbd3941aa	-0.045228638
184	0x3d10bda1	0.035337094
185	0x3d1ff5c8	0.039052755
186	0xbc9eb0ab	-0.019371351
187	0xbd0fa756	-0.035071693
188	0xbd71ad32	-0.059003063
189	0xbd29632d	-0.041354347
190	0x3c15862e	0.009126229
191	0xba186728	-0.00058137113
192	0xbc1d8bc5	-0.009615843
193	0xbc5dcbb4	-0.013537336
194	0x3cf25f0a	0.029586334
195	0xbd410937	-0.04712793
196	0xbd4b92b4	-0.049700454
197	0xbd79001b	-0.060791116
198	0xbd7afbfb	-0.061275464
199	0x3d45f916	0.04833325
200	0x3cfbef1c	0.030753665
201	0xbcd2017a	-0.02563547
202	0xbda3ad78	-0.07992071
203	0xbc9a429f	-0.018830596
204	0x3cbde193	0.023178851
205	0xbc888d06	-0.016668808
206	0xbdb85e9b	-0.090024196
207	0xbdf2f368	-0.11862832
208	0xbcc69dd3	-0.024245178
209	0x3b2e406a	0.0026588687
210	0xbdc1c647	-0.094616465
211	0xbdb7dbfd	-0.08977506
212	0xbd06f7d8	-0.032951206
213	0xbce1666d	-0.02751466
214	0xbd7b1acc	-0.061304852
215	0x3d3cd07d	0.046097267
216	0xbd8e9542	-0.069620624
217	0xbd260bb2	-0.040538497
218	0xbd3c763c	-0.046011195
219	0xbc8cf6a3	-0.01720745
220	0xbd90013f	-0.07031488
221	0xbe02c0ff	-0.12768935
222	0xbbabd1ad	-0.005243501
223	0x3d8de9a4	0.06929329
224	0xbe0ab46e	-0.13545391
225	0xbd0ac8f8	-0.033883065
226	0xbd1cf95a	-0.038323738
227	0x3c49c7b2	0.0123156775
228	0xbda5221b	-0.08063146
229	0xbbb55d20	-0.005534783
230	0x3c1ea280	0.009682298
231	0xbd873352	-0.066015854
232	0x3d25c7bc	0.040473685
233	0xbd6e42cb	-0.058169167
234	0xbcf6780e	-0.030086543
235	0xbc223e63	-0.009902569
236	0xbb7fb3e2	-0.003901713
237	0xbca2b313	-0.01986078
238	0x3d02c065	0.031921763
239	0x3c47e0a6	0.012199556
240	0xb9d58ba0	-0.00040730555
241	0x3d07195b	0.032983165
242	0xbb447f9d	-0.002998329
243	0xbc48322a	-0.012218991
244	0xbd86b170	-0.06576812
245	0x3c62c06c	0.013839822
246	0x3d2936d0	0.04131204
247	0x3c4d623a	0.012535626
248	0x3ca4f18a	0.020134706
249	0xbdfd675f	-0.12373232
250	0x3cdde2f9	0.027085768
251	0xbde9c4c4	-0.11414483
252	0x3c2f0040	0.010681212
253	0xbbde5d13	-0.0067859977
254	0x3da9798a	0.08275135
255	0xbdb36f20	-0.0876143

conv2.bias f4 [32]
0	0xbdb770a4	-0.08957031
1	0x3c8aba24	0.016934462
2	0xbd8c9734	-0.06864777
3	0xbd733f28	-0.059386402
4	0x3d04992b	0.032372635
5	0xbdba5a62	-0.090992704
6	0x3cd4d17c	0.025978796
7	0x3cffa099	0.031204509
8	0x3d2869a2	0.041116364
9	0x3bfe8db2	0.0077683562
10	0xbc4f5f70	-0.012657031
11	0xbda1787b	-0.07884308
12	0xbd797033	-0.060898017
13	0x3c4b86fd	0.01242232
14	0x3cc73fad	0.024322355
15	0x3b811ffc	0.0039405804
16	0x3d627b63	0.055293452
17	0xbc04b306	-0.008099323
18	0xbe12ac06	-0.14323434
19	0xbd7116f6	-0.058859788
20	0xbcfa1c53	-0.030531084
21	0xbdd31e13	-0.103084706
22	0xbcbb500d	-0.02286532
23	0x3dbb6ac5	0.09151224
24	0xbb00f4e2	-0.0019677212
25	0xbdd65bcd	-0.10466728
26	0xbd4b4030	-0.04962176
27	0xbddd145d	-0.107948996
28	0x3d550cc9	0.052014146
29	0x3c3128e5	0.010812973
30	0x3d483edc	0.048888072
31	0xbde38fba	-0.11111398

fc1.weight f4 [96, 128]
0	0x3dbc98ea	0.092088535
1	0xbda1b71c	-0.078962535
2	0xbd106352	-0.03525097
3	0xbd9a1f7c	-0.075255364
4	0x3be70ed8	0.00705133
5	0x3d16d7c5	0.036826868
6	0xbd7fce8c	-0.062452838
7	0x3d1a46ea	0.037665285
8	0x3d0d3908	0.034478217
9	0xbddc7bb5	-0.10765783
10	0xbd385304	-0.045001045
11	0xbdcb0ec1	-0.099149235
12	0xbdb652eb	-0.08902534
13	0xbdd0a41e	-0.10187553
14	0xbb13dd86	-0.0022562458
15	0x3ccb39f7	0.024807913
16	0xbdce470a	-0.100721434
17	0xbc72e8ec	-0.014826041
18	0x3d029124	0.031876698
19	0xbc3fc907	-0.0117056435
20	0xbc1beb7c	-0.009516593
21	0xbd3988ee	-0.045296602
22	0xbd9de769	-0.077101536
23	0xbcdd9079	-0.027046429
24	0x3c4c8212	0.012482183
25	0xbcc54b38	-0.024083719
26	0xbc93c779	-0.018039452
27	0x3d18b0fc	0.03727816
28	0xbd8b9d6e	-0.06817137
29	0x3d0d7a1c	0.03454028
30	0xbb322957	-0.0027185285
31	0xbc6b2455	-0.014351924
32	0xbda6d7fa	-0.08146663
33	0x3d26894e	0.040658288
34	0x3d5fbe1c	0.05462466
35	0x3aa0308c	0.0012221499
36	0xbdd904bb	-0.105966054
37	0xbd70b162	-0.058762915
38	0x3d05c1fd	0.032655705
39	0xbdcbe311	-0.09955419
40	0xbdbf31fb	-0.09335705
41	0x3d657b34	0.0560257
42	0xbdec1a2c	-0.115284294
43	0x3b6decfc	0.0036304584
44	0xbd005875	-0.03133436
45	0xbcb7d0ff	-0.022438524
46	0xbd7410ff	-0.05958652
47	0x3cad1403	0.021127706
48	0xbdf45420	-0.11930108
49	0xbda2b4c5	-0.07944635
50	0x3d23ed27	0.040021088
51	0x3cadd4e3	0.021219676
52	0x3b892c53	0.004186192
53	0x3d4c7a51	0.049921338
54	0x3d657c1e	0.05602657
55	0xbad393a7	-0.0016142026
56	0xbc2a4a6e	-0.010393722
57	0x3c90ca20	0.017674506
58	0xbd435ccb	-0.047695916
59	0xbd458ea3	-0.048231732
60	0xbd9cd803	-0.076583885
61	0xbde02dd6	-0.109462425
62	0x3d7df061	0.06199682
63	0xbcd39f30	-0.025832742
64	0x3bb47136	0.00550666
65	0xbd036644	-0.03207995
66	0x3c9991e6	0.018746328
67	0x3c9377b0	0.018001407
68	0x3c93aa80	0.018025637
69	0x3d53a9b8	0.05167553
70	0x3dd81bbc	0.10552165
71	0xbda65981	-0.0812254
72	0x3d926257	0.07147663
73	0xbd299271	-0.041399423
74	0x3c105c75	0.008811106
75	0xbdce639c	-0.10077593
76	0x3c161040	0.009159148
77	0xbdf9405e	-0.1217048
78	0xbdecba4f	-0.11558973
79	0xbc922112	-0.017838035
80	0x3d6a2e32	0.05717296
81	0xbdd52bc4	-0.10408738
82	0x3c1859e6	0.009298777
83	0x3d25cd5c	0.04047905
84	0x3d951737	0.072798185
85	0x3d2fd5b5	0.042928416
86	0x3d826995	0.063677944
87	0x3d2910d3	0.04127581
88	0x3d2bff27	0.04199138
89	0xbdd9f8ab	-0.10643133
90	0xbd14d507	-0.03633597
91	0xbb45bca0	-0.0030172244
92	0xbc81f425	-0.015863487
93	0xbb9753c4	-0.00461814
94	0x3dce5221	0.100742586
95	0x3d3bdced	0.045864988
96	0xbd934a81	-0.07191945
97	0xbd8ffb49	-0.07030351
98	0x3d22dcd1	0.03976137
99	0xbd019c7d	-0.03164338
100	0x3d3e200d	0.046417285
101	0xbd42ee15	-0.047590334
102	0xbd1dfff9	-0.038574193
103	0xbb2ba348	-0.0026189853
104	0xbd4c18a1	-0.049828175
105	0x3cbc1ad0	0.022962004
106	0x3d8b7ff1	0.06811512
107	0xbde9dca8	-0.1141904
108	0x3d66229b	0.056185346
109	0xbd517d10	-0.05114466
110	0xbcf37a10	-0.02972129
111	0xbc3d3736	-0.011548808
112	0xbca07fcc	-0.019592188
113	0xbdb92ae5	-0.090413846
114	0xbc957031	-0.018241974
115	0xbd1af6d5	-0.037833054
116	0xbd6f2d4a	-0.0583928
117	0xbde96b3a	-0.11397405
118	0xbc9373cf	-0.017999558
119	0xbd9e69b5	-0.07735006
120	0xbdbd4e4b	-0.09243449
121	0x3d3e3120	0.046433568
122	0x3c1f828e	0.0097357165
123	0xbd8adf83	-0.06780913
124	0xbd99f933	-0.07518234
125	0x3cdcce00	0.026953697
126	0xbd0da370	-0.034579694
127	0x3bc885ce	0.0061194664
128	0xbd2a4256	-0.04156717
129	0xbd75e0cb	-0.060028832
130	0x3b9c74a4	0.004774647
131	0x3c99efa8	0.018791035
132	0xbc1e8ba0	-0.009676844
133	0xbd2a7a52	-0.04162056
134	0xbc3f5cb6	-0.011679819
135	0xbb4fd0ac	-0.0031710071
136	0x3d9c029c	0.07617685
137	0xbe12a747	-0.14321624
138	0xbd88100d	-0.066436864
139	0xbcf6ce62	-0.030127708
140	0xbd9b2db4	-0.075770766
141	0xbc7a668c	-0.015283238
142	0xbcf7953d	-0.03022253
143	0xbd9a061c	-0.075206965
144	0x3d364a00	0.044504166
145	0xbe156d3b	-0.1459245
146	0xbd50283b	-0.050819617
147	0xbe2f1fd4	-0.17101985
148	0xbc83e248	-0.01609911
149	0x3db7c554	0.08973184
150	0xbb7c9ed1	-0.003854681
151	0xbd712d9f	-0.0588814
152	0xbde35b05	-0.11101345
153	0xbc960d13	-0.018316781
154	0xbcbcac2b	-0.023031315
155	0xbd23f28d	-0.040026236
156	0x3c0d4b3a	0.008623892
157	0xbde7c427	-0.1131671
158	0x3d4086d9	0.0470036
159	0x3c70d5c8	0.014699407
160	0xbc34f199	-0.0110439295
161	0xbd1ce5be	-0.038305037
162	0x3d07e387	0.03317597
163	0xbc76f25b	-0.0150724305
164	0xbe0c7ac5	-0.13718708
165	0x3cb76643	0.02238763
166	0x3e317c6a	0.17332616
167	0xbe11bf8e	-0.14233229
168	0x3c16c980	0.009203315
169	0x3e6e0e40	0.23247623
170	0xbda727e8	-0.081619084
171	0xbe230fdd	-0.1592402
172	0x3dca60e5	0.098817624
173	0x3d35fff0	0.044433534
174	0x3bd0638a	0.006359522
175	0x3b689afa	0.0035492764
176	0xbdb291a0	-0.08719182
177	0x3e0acbec	0.13554353
178	0xbe0b287c	-0.13589662
179	0x3e87859b	0.2646912
180	0x3d0730d8	0.033005565
181	0x3e023ae3	0.12717776
182	0xbd8f6ce4	-0.07003191
183	0x3dc7c84b	0.09755
184	0x3d24ff57	0.040282574
185	0x3d408f70	0.047011793
186	0x3d9501e4	0.07275751
187	0x3bdfbd91	0.006828018
188	0xbdc217de	-0.094772086
189	0xbdfae2c9	-0.12250287
190	0xbd8305b7	-0.063975744
191	0xbd74f48d	-0.059803534
192	0x3df0aff6	0.11752312
193	0x3e8cc52c	0.2749418
194	0x3d9fd2a7	0.078038506
195	0xbd02b742	-0.03191305
196	0x3b60f9a4	0.0034328485
197	0xbd0f8817	-0.035041895
198	0x3cd74ab5	0.02628074
199	0x3c11db71	0.008902417
200	0xbc545361	-0.012959332
201	0xbd5303a3	-0.05151714
202	0xbd103664	-0.03520812
203	0x3c6ff04b	0.014644693
204	0x3d2d4f75	0.042312104
205	0xbd66f45a	-0.056385376
206	0x3d8b8909	0.06813247
207	0xbe14bb94	-0.1452468
208	0xbe584f98	-0.21124113
209	0xbe455273	-0.19269733
210	0xbec0d8d2	-0.3766542
211	0xbe0f67a0	-0.14004374
212	0x3d698c00	0.05701828
213	0x3d817223	0.06320598
214	0x3d8f4c91	0.06997026
215	0xbe2ecd99	-0.17070617
216	0x3d55ac5a	0.05216632
217	0xbd68573e	-0.056723826
218	0x3d0bab24	0.03409876
219	0x3d50f2d4	0.05101283
220	0x3da78f21	0.081815965
221	0x3d8ee36a	0.069769695
222	0x3d8fa232	0.07013358
223	0x3d316294	0.043306902
224	0xbc82fe49	-0.015990393
225	0x3dc3c2e8	0.0955866
226	0xbdde14e6	-0.1084383
227	0x3c369499	0.011143827
228	0xbdd34250	-0.103153825
229	0xbd6dbe84	-0.058043018
230	0xbb7f0030	-0.0038910024
231	0x3db174ff	0.08664893
232	0x3bba32c0	0.0056823194
233	0xbd508149	-0.050904546
234	0x3db3c2bb	0.08777376
235	0xbd83a2ce	-0.06427537
236	0xbdb8eb7b	-0.09029289
237	0xbd810ac2	-0.0630088
238	0xbdea4b33	-0.11440124
239	0x3d8371c1	0.06418181
240	0xbe3f10b5	-0.18658717
241	0xbe0291c3	-0.12750916
242	0x3da323d9	0.07965822
243	0xbda78348	-0.08179337
244	0xbe4f5a83	-0.20249371
245	0xbd59a005	-0.053131122
246	0x3da2c673	0.079480074
247	0xbe21f7d7	-0.158172
248	0xbc773b2b	-0.01508979
249	0xbd9bc9a5	-0.0760682
250	0xbd1fc66a	-0.03900758
251	0x3ce55ce9	0.027998405
252	0xbd87dcc5	-0.06633905
253	0x3db0bb02	0.08629419
254	0xbc4e260d	-0.012582314
255	0x3df44745	0.11927656

fc1.bias f4 [96]
0	0x3d9135c0	0.0709033
1	0xbd81ecdc	-0.063440055
2	0xbd9dbebb	-0.077023946
3	0xbdddf55d	-0.10837815
4	0xbdf007f7	-0.11720269
5	0xbc1314ec	-0.008977156
6	0xbcdca320	-0.026933253
7	0xbdaf42d5	-0.08557669
8	0xbc7bf9c8	-0.015379377
9	0xbd48e9d1	-0.04905111
10	0xbd85a739	-0.06526036
11	0xbdb05cda	-0.0861146
12	0xbd1bb6fd	-0.038016308
13	0x3c81640a	0.015794773
14	0x3cb7e3ae	0.022447433
15	0xbde80949	-0.11329896
16	0x3d0ded18	0.03464994
17	0xbda64d79	-0.081202455
18	0x3d992e42	0.07479526
19	0xbd57b503	-0.05266286
20	0x3a169f48	0.00057457807
21	0x3da36461	0.0797813
22	0x3c31ba07	0.010847575
23	0x3d034942	0.032052286
24	0xbc2d61c3	-0.01058239
25	0x3d37908e	0.044815592
26	0xbd536942	-0.051614054
27	0xbd86e11c	-0.06585905
28	0x3cd74dc0	0.026282191
29	0x3bb2f3b2	0.0054611797
30	0x3dd9e29c	0.106389254
31	0xbd6f5abc	-0.05843614
32	0xbe2a70bc	-0.16644567
33	0xbd33ba8d	-0.04387908
34	0xbdfa8b1f	-0.122335665
35	0xbd8225e4	-0.06354883
36	0xbd4af475	-0.04954954
37	0xbc8b0e2f	-0.016974537
38	0xbceecd94	-0.029150762
39	0xbd80b185	-0.06283859
40	0x38e03d41	0.00010692562
41	0xbd72b5f3	-0.05925555
42	0x3dbbcbc4	0.091697246
43	0xbd528231	-0.05139369
44	0xbd8cb7e4	-0.06871012
45	0x3b977f13	0.0046233027
46	0xbc4c935e	-0.012486307
47	0x3d560bd5	0.052257378
48	0x3c93cfff	0.018043516
49	0xbd890fbc	-0.06692454
50	0xbd2dcbef	-0.042430814
51	0xbd8f2ad7	-0.06990593
52	0x3c659122	0.014011653
53	0xbbca62f8	-0.006176349
54	0xbdcaf6d7	-0.09910362
55	0xbd8d1202	-0.068882
56	0xbda9817f	-0.082766525
57	0x3da8ebf4	0.082481295
58	0xbd2e52cb	-0.042559426
59	0xbd5760d4	-0.052582577
60	0x3d9fc1fd	0.07800672
61	0xbd7eb222	-0.0621816
62	0x3d6430bf	0.05571055
63	0xbcfc2ae2	-0.030782167
64	0xbb77e14c	-0.0037823496
65	0xbc742488	-0.014901288
66	0x3dce62da	0.10077448
67	0x3ade829a	0.0016976178
68	0xbba7201f	-0.0051002647
69	0xbdc89445	-0.09793905
70	0xbca1d53f	-0.019755004
71	0xbdb42b8b	-0.08797368
72	0xbdc6442a	-0.0968097
73	0xbcc68531	-0.024233432
74	0xbd08a8f2	-0.033364244
75	0xbd9758a9	-0.073899575
76	0x3d7be46d	0.06149714
77	0x3c2951d3	0.01033445
78	0x3b145bc6	0.002263771
79	0x3caa20c4	0.020767577
80	0x3e48f138	0.19623268
81	0xba3f97a1	-0.0007308666
82	0x3d6117ed	0.054954458
83	0xbdac1b6a	-0.08403666
84	0x3d698d1f	0.05701935
85	0xbe115610	-0.14192986
86	0xbca1c83a	-0.019748796
87	0xbc1e3d64	-0.009658191
88	0x3c8f783f	0.017513392
89	0xbd38e259	-0.045137737
90	0xbd39edf2	-0.045392938
91	0xbda16e41	-0.078823574
92	0xbd671c06	-0.05642321
93	0xbd7cc013	-0.061706614
94	0x3da7d2df	0.08194517
95	0xbd43675d	-0.047705997

fc2.weight f4 [32, 96]
0	0xbd9570d6	-0.07296912
1	0xbe92ef9e	-0.28698438
2	0x3d0f6eb3	0.03501768
3	0xbd2501f3	-0.040285062
4	0xbd3dbef6	-0.046324693
5	0xbe0f5a60	-0.13999319
6	0xbd581a7f	-0.052759644
7	0xbd66d5b7	-0.056356158
8	0x3c2317c0	0.009954393
9	0xbdb5f135	-0.08883897
10	0x3adbe2dd	0.0016775985
11	0x3d267555	0.04063924
12	0x3d5ea8d2	0.05436022
13	0xbc86f8e9	-0.016476111
14	0x3cb0487d	0.02151894
15	0xbd7ec6e0	-0.06220138
16	0xbc53d240	-0.0129285455
17	0xbdbec57d	-0.09315012
18	0xbdb85ecc	-0.09002456
19	0xbd8ab24d	-0.067722894
20	0x3ce5e1c7	0.02806176
21	0x3dc967c0	0.09834242
22	0xbdb9ec31	-0.09078253
23	0x3ce5a7fe	0.028034206
24	0x3c6ee956	0.014581999
25	0xbdf78e8c	-0.120877355
26	0xbb86b99d	-0.0041114823
27	0xbc679621	-0.014134915
28	0x3cdc48d4	0.026890196
29	0x3d50844f	0.05090743
30	0xbc30dcf5	-0.010794868
31	0x3bea5938	0.007151749
32	0x3d05ac67	0.03263512
33	0x3c7670a9	0.015041509
34	0xbd69b6ff	-0.057059284
35	0x3c978e64	0.018500514
36	0x3d5f4cd3	0.054516625
37	0xbd3d66fe	-0.0462408
38	0x3d741424	0.05958952
39	0xbdaf1400	-0.085487366
40	0xbd5cddde	-0.053922527
41	0x3d81af5e	0.06332277
42	0xbd00c262	-0.031435378
43	0xbd1df1e2	-0.038560756
44	0xbcd364e1	-0.025804939
45	0x3dd086c7	0.10181957
46	0x3d102e7a	0.035200574
47	0xbde0f781	-0.109847076
48	0xbc44749a	-0.011990691
49	0xbde8be80	-0.1136446
50	0x3d367207	0.04454234
51	0x3d17b5b6	0.037038527
52	0x3ca7f2c2	0.020501498
53	0xbc9750e7	-0.018471194
54	0x3d1e5c25	0.038662095
55	0xbde88ea5	-0.11355332
56	0x3d4c0d0a	0.049817123
57	0xbc7adc28	-0.015311278
58	0x3daf105d	0.08548043
59	0x3bde3ea5	0.00678237
60	0x3d3c15ae	0.045919113
61	0xbd490fb0	-0.049087226
62	0x3bb7d6ae	0.0056103086
63	0xbe087db9	-0.1332921
64	0x3c69574f	0.014242007
65	0xbd5ccf3d	-0.053908575
66	0xbd9ff1ec	-0.07809815
67	0xbe166ce2	-0.14689973
68	0x3dacf738	0.08445591
69	0xbd87f7b8	-0.066390455
70	0xbdbce6ef	-0.092237346
71	0x3d62d48c	0.05537848
72	0x3ac10729	0.0014726865
73	0xbde8199e	-0.11333011
74	0xbe12e46d	-0.1434495
75	0xbcc78ba0	-0.02435857
76	0xbd167867	-0.03673592
77	0xbdac2fed	-0.084075786
78	0xbd0389cf	-0.032113846
79	0xbd568472	-0.052372403
80	0xbd2fa371	-0.04288048
81	0x3cc4da32	0.024029825
82	0xbcf0f547	-0.029413832
83	0xbcba549e	-0.022745427
84	0x3d43ffdc	0.04785143
85	0xbe0351f9	-0.12824239
86	0xbc7c6304	-0.015404467
87	0x3db5745e	0.08860086
88	0xbd7bb0e1	-0.06144798
89	0x3c3886c5	0.0112626
90	0xbcdd1d82	-0.02699161
91	0xbda2a49f	-0.07941555
92	0x3da07e5f	0.078366034
93	0x3b8e5590	0.004343696
94	0x3d7a22a7	0.061068203
95	0xbcd73f7c	-0.026275389
96	0xbc14ee82	-0.009090068
97	0xbb9b8135	-0.0047456273
98	0x3d018ba2	0.031627305
99	0x3d949ac7	0.07256084
100	0x3d33b29f	0.04387152
101	0x3d8983bc	0.067145795
102	0x3d17e4c4	0.037083402
103	0xbd96ae07	-0.07357412
104	0xbd3a09e3	-0.045419585
105	0x3ca9f16a	0.020744998
106	0x3e021114	0.12701827
107	0xbd20bc1f	-0.039241906
108	0x3d861d61	0.06548572
109	0x3c8724ab	0.016496977
110	0x3d9ae4d5	0.075631775
111	0x3dc4a39d	0.09601519
112	0x3c587008	0.013210304
113	0xbc7cf378	-0.015438907
114	0x3d6ec604	0.05829431
115	0x3d421ca9	0.047390614
116	0x3d9d94dc	0.07694408
117	0xbd4ab26e	-0.04948657
118	0xbd6dd98e	-0.058068804
119	0xbd423aa7	-0.047419216
120	0xbdc02389	-0.09381778
121	0xbdac8eac	-0.0842565
122	0x3d8200fa	0.063478425
123	0xbd6821fc	-0.056673035
124	0xbcae9435	-0.021310905
125	0xbe11dde3	-0.142448
126	0x3cae7067	0.021293832
127	0x3d1c59fd	0.038171757
128	0xbda19f5a	-0.07891722
129	0xbc99099c	-0.01868134
130	0xbd15e203	-0.036592495
131	0x3c272dee	0.010203822
132	0x3d349b63	0.0440935
133	0xbddb468d	-0.10706816
134	0x3d14799a	0.03624878
135	0xbce1e650	-0.027575642
136	0x3cd0d67b	0.025492897
137	0x3d91f6ba	0.071271375
138	0xbc8dd91c	-0.01731544
139	0xbda90280	-0.0825243
140	0x3d26bc87	0.040707137
141	0xbbcee66b	-0.006314089
142	0x3d9669f9	0.073444314
143	0x3d53d6a7	0.05171838
144	0xbd8e6faf	-0.06954896
145	0xbc99a6da	-0.018756319
146	0x3d361f9b	0.044463735
147	0xbe040ba2	-0.12895063
148	0xbda415fd	-0.080120064
149	0xbcfddf56	-0.030990284
150	0x3dbb53ab	0.09146818
151	0x3e01d7c2	0.12679961
152	0xbd96be59	-0.07360525
153	0x3b6b7e71	0.003593352
154	0x3cd7163f	0.026255725
155	0xbde88583	-0.1135359
156	0x3d57bd96	0.052671038
157	0xbd505818	-0.050865263
158	0x3dcf30da	0.101167396
159	0x3dc4d0f9	0.09610171
160	0x3d76c214	0.06024368
161	0xbd4226a1	-0.04740012
162	0xbdf665b9	-0.12031121
163	0xbe0a63fe	-0.13514706
164	0x3cdd7aa0	0.027036011
165	0x3a0eb12f	0.00054432725
166	0xbb392d33	-0.00282557
167	0xbdca6173	-0.09881868
168	0x3c921986	0.017834436
169	0x3da67e47	0.08129554
170	0xbac8ce6a	-0.0015320305
171	0xbd4f9729	-0.050681267
172	0x3cfe3d90	0.031035215
173	0x3d0ce8a9	0.03440157
174	0x3d9b60e6	0.07586841
175	0x3d13e95c	0.03611122
176	0xbe0a1221	-0.13483478
177	0xbcd0b448	-0.02547659
178	0x3d0b6ba8	0.034038216
179	0xbd0a13cc	-0.033710286
180	0xbb918a33	-0.0044415235
181	0xbd4f378c	-0.050590083
182	0x3b12cc79	0.0022399707
183	0x3dab5776	0.08366291
184	0x3db85a5d	0.090016104
185	0x3b8875f6	0.0041644527
186	0xbb80809e	-0.0039215824
187	0xbd91d9e7	-0.0712164
188	0xbd1a6d88	-0.037702113
189	0x3bf24eb0	0.007394634
190	0xbd0e2c4f	-0.034710225
191	0x3d0e0c41	0.034679655
192	0x3d5c1298	0.05372867
193	0x3dc8c406	0.098030135
194	0xbd796bb9	-0.060893748
195	0xbdcbe89e	-0.099564776
196	0x3c8dd88c	0.017315172
197	0xbce93b3c	-0.028470628
198	0xbd94dcec	-0.072687
199	0xbd983e3c	-0.07433745
200	0x3d5a5d87	0.05331185
201	0xbc488223	-0.012238058
202	0x3d129170	0.03578323
203	0x3d52a428	0.051426083
204	0x3cf6f2c3	0.030145055
205	0xbe041209	-0.12897505
206	0xbd1ca9e3	-0.038247954
207	0xbe0ffcd8	-0.14061296
208	0xbdbe53ee	-0.09293352
209	0x3cd683f7	0.026185973
210	0x3da6faac	0.081532806
211	0xbd5d7fc1	-0.054076914
212	0xbdf4c313	-0.1195127
213	0xbdd8e870	-0.10591209
214	0x3d0a3b77	0.033748116
215	0xbc8d136b	-0.017221173
216	0x3d05b87b	0.032646637
217	0xbe0da5e2	-0.1383281
218	0x3a9a493d	0.0011771094
219	0x3cf10ec9	0.029425995
220	0xbdaae6b3	-0.08344784
221	0x3dbfa04a	0.093567446
222	0x3cb8f7c4	0.022579081
223	0xbca230c7	-0.01979865
224	0xbe2f82e8	-0.1713978
225	0xbcb00f7e	-0.021491762
226	0xbd7647c5	-0.06012704
227	0x3dcd29fa	0.10017772
228	0x3dd757d4	0.10514799
229	0xbd04ac84	-0.032391086
230	0xbd64b814	-0.055839613
231	0xbcd9c83c	-0.026584737
232	0xbe0cf055	-0.13763554
233	0xbd4fa220	-0.050691724
234	0x3d092d96	0.03349074
235	0xba5df252	-0.00084665895
236	0x3d346a1b	0.044046503
237	0xbca22dd5	-0.019797245
238	0xbb09c577	-0.002102224
239	0x3dd73ca8	0.10509616
240	0xbdab6b9f	-0.083701365
241	0xbe2a31f4	-0.16620618
242	0xbe0a5e5b	-0.13512556
243	0xbcb43c91	-0.022001537
244	0xbcb9000c	-0.02258303
245	0x3ddc811a	0.10766812
246	0xbd0e7cc2	-0.034786947
247	0xbd1df5ba	-0.03856442
248	0x3dda5e8b	0.10662564
249	0xbd89911e	-0.06717132
250	0xbd1ed676	-0.038778745
251	0xbd0ed79b	-0.034873586
252	0x3ce2fbcf	0.027707962
253	0xbd2ce641	-0.042211775
254	0xbd47d089	-0.04878286
255	0x3da1e274	0.07904521

fc2.bias f4 [32]
0	0xbde8fe81	-0.11376668
1	0xbd387bdc	-0.045039997
2	0xbd057f91	-0.03259236
3	0xbcc597c7	-0.024120225
4	0x3bce9287	0.0063040885
5	0x3b647d76	0.003486482
6	0xba9b61fd	-0.0011854764
7	0x3c7abe63	0.015304181
8	0x3d2936f0	0.041312158
9	0xbcebd8be	-0.028789874
10	0xbc5d4256	-0.013504585
11	0x3c780c4f	0.015139653
12	0xbda59b9b	-0.0808632
13	0xbe0f19ac	-0.13974637
14	0xbde3e996	-0.11128537
15	0xbcd2f1fd	-0.025750155
16	0xbab5791e	-0.00138453
17	0xbde09a57	-0.10966938
18	0x3d20d867	0.039268877
19	0x3dc89351	0.097937234
20	0xbe23037c	-0.15919298
21	0xbd6eb20b	-0.058275264
22	0xbe061997	-0.13095699
23	0x3ce9bda4	0.02853281
24	0xbd2a416a	-0.04156629
25	0x3dd45ca8	0.10369235
26	0xbc870d3f	-0.016485808
27	0xbbe73539	-0.007055905
28	0x3cd3b584	0.02584339
29	0xbd55dcc6	-0.0522125
30	0xbcda92d1	-0.026681336
31	0xbd1809c1	-0.037118677

fc3.weight f4 [5, 32]
0	0xbe0d561e	-0.13802382
1	0xbc0d659f	-0.008630185
2	0x3e49da13	0.19712095
3	0x3e56a17d	0.2096004
4	0xbcae7c41	-0.021299483
5	0x3d413e62	0.047178634
6	0x3d6102dc	0.054934368
7	0x3d937766	0.07200508
8	0xbd01cca1	-0.03168929
9	0xbdab3238	-0.08359188
10	0xbd03db7a	-0.03219173
11	0xbdccc6a9	-0.09998829
12	0xbe131612	-0.14363888
13	0xbe35a771	-0.17739655
14	0xbe32afdc	-0.17449898
15	0xbe00fe67	-0.12597047
16	0xbe026394	-0.12733299
17	0x3cdf55de	0.027262624
18	0xbd572e99	-0.052534673
19	0xbdcd3775	-0.10020343
20	0xbd08dbd4	-0.03341277
21	0xbe7e9541	-0.24861623
22	0xbda07687	-0.07835107
23	0x3e033593	0.12813406
24	0x3cae5001	0.021278383
25	0x3d4f4f1c	0.050612554
26	0x3e03adea	0.12859312
27	0x3d0e7152	0.03477604
28	0xbd2a21ba	-0.04153607
29	0xba879d72	-0.0010346605
30	0x3cfb0f0a	0.03064682
31	0x3e33eedc	0.17571586
32	0xbdaa33f8	-0.083106935
33	0x3bc38290	0.005966492
34	0xbdde9eef	-0.10870158
35	0xbe15378f	-0.14571975
36	0x3df9978b	0.12187108
37	0xbca485d6	-0.02008335
38	0xbde0cf39	-0.109770246
39	0x3d9e0b00	0.07716942
40	0xbcf4b124	-0.029869623
41	0xbde864b0	-0.113473296
42	0xbc3414f5	-0.010991325
43	0xbcf34dd0	-0.02970019
44	0x3df92ea1	0.12167097
45	0xbe56964f	-0.20955776
46	0x3d8b71d9	0.06808824
47	0x3cf6809f	0.030090628
48	0x3d5c74df	0.053822394
49	0xbd11189e	-0.035423867
50	0x3db4f6be	0.08836125
51	0x3e09fec4	0.13476092
52	0xbe15ab0e	-0.14616033
53	0x3d8e9356	0.06961696
54	0x3ccaa786	0.024738085
55	0x3d97340a	0.073829725
56	0xbd6ccd2d	-0.05781286
57	0xbe37e11a	-0.17956963
58	0xbde199b1	-0.110156424
59	0x3c598388	0.013275988
60	0x3d7dbcaf	0.06194752
61	0x3e0184ed	0.12648363
62	0x3d9aafb8	0.07553047
63	0x3c8410b1	0.01612124
64	0xbbb90a19	-0.0056469557
65	0x3db61b6b	0.08891948
66	0xbd3024ff	-0.043004032
67	0xbd39842b	-0.04529206
68	0xbdf0c320	-0.11755967
69	0x3dcbaff7	0.09945672
70	0xbe1d5574	-0.15364629
71	0xbe06dba3	-0.13169722
72	0xbb8f35f0	-0.0043704435
73	0xbb993537	-0.004675533
74	0x3d484a8e	0.048899226
75	0xbe32be5d	-0.1745543
76	0x3e0e32c9	0.1388656
77	0x3c6392c5	0.013889973
78	0x3e06a5ca	0.13149181
79	0x3ad39130	0.0016141292
80	0xbe627183	-0.22113614
81	0xbd1378bb	-0.03600381
82	0x3d476852	0.048683472
83	0xbe024a2e	-0.1272361
84	0x3e0c7342	0.13715842
85	0x3dda8c07	0.10671239
86	0x3c35e98c	0.011103045
87	0x3dc78624	0.09742382
88	0xbddd90b9	-0.10818619
89	0x3d505166	0.050858878
90	0xbdfb265f	-0.12263178
91	0xbd7f8d90	-0.062390864
92	0xbcf3f073	-0.029777741
93	0xbda92949	-0.08259828
94	0x3e017f9b	0.12646334
95	0x3dfe0e22	0.12405039
96	0xbe382269	-0.17981876
97	0x3d82f9fb	0.06395336
98	0x3cab2d63	0.020895666
99	0xbe84190c	-0.2580036
100	0x3df68fa8	0.12039119
101	0x3e117adb	0.14207022
102	0x3d7824ab	0.060581844
103	0xbe1ab320	-0.15107393
104	0xbdd2d283	-0.10294058
105	0xbdecd861	-0.115647085
106	0x3da7597f	0.08171367
107	0xbd229cd1	-0.039700333
108	0x3d82bec6	0.063840434
109	0xbcd31977	-0.025768979
110	0xbd7d980c	-0.06191258
111	0x3c163238	0.0091672465
112	0x3d4a20f3	0.04934783
113	0xbe0b324e	-0.13593408
114	0x3e05ffe2	0.13085893
115	0x3b30f30b	0.0027000334
116	0xbd0a413d	-0.033753622
117	0x3dd10456	0.10205905
118	0xbdb7c680	-0.08973408
119	0x3de89e6d	0.11358342
120	0xbd0efd9d	-0.034909833
121	0x3db14dce	0.08657418
122	0x3d42acd4	0.047528103
123	0x3bb8471e	0.005623712
124	0xbc8a452a	-0.016878683
125	0x3e20a2fb	0.15687172
126	0xbd706c29	-0.0586969
127	0xbdfdb2b0	-0.123875976
128	0x3da349c9	0.07973058
129	0x3db986e5	0.09058932
130	0xbdeb2bc3	-0.11482956
131	0xbe08f37d	-0.13374133
132	0xbd56cda6	-0.052442215
133	0x3c034d59	0.008014047
134	0xbd580940	-0.052743196
135	0xbdbd032c	-0.092291206
136	0x3d20fbbf	0.039302584
137	0x3db85f8c	0.09002599
138	0xbdc0fdbf	-0.09423398
139	0xbd554918	-0.05207166
140	0xbccb8421	-0.024843277
141	0xbd6972fa	-0.056994416
142	0xbcd65d43	-0.026167518
143	0x3de9beff	0.11413383
144	0x3df1660f	0.11787044
145	0xbc414cca	-0.011798093
146	0x3d4e52d8	0.050371975
147	0x3e182d35	0.14860995
148	0xbd394526	-0.04523196
149	0x3defc8df	0.11708235
150	0x3c8f1aff	0.017468927
151	0x3dba115e	0.09085344
152	0xbd4f6697	-0.050634947
153	0x3d6fec79	0.058575127
154	0xbdd51430	-0.10404241
155	0x3bedd791	0.0072583635
156	0xbe229547	-0.15877257
157	0x3ad653ec	0.0016351915
158	0xbd8b4e36	-0.06802027
159	0xbda800ae	-0.08203255

fc3.bias f4 [5]
0	0xbd977697	-0.07395666
1	0xbdc3a574	-0.09553042
2	0xbe27366d	-0.16329356
3	0x3df271ed	0.11838136
4	0x3e02a808	0.12759411
