game_play/cnn_model_2.pth (torch, 84983 bytes, 10 tensors)

conv1.weight f4 [16, 1, 3, 3]
0.03954135 -0.00665724 0.010825466 0.13320726 -0.12628527 0.075914 0.27638602 -0.24158432
0.12602466 0.13492247 0.09173052 -0.04891328 -0.29029772 -0.30767635 -0.27437815 -0.11749089
-0.18239938 -0.15431105 0.29621428 -0.3086873 -0.1413433 0.068914056 -0.037356537 -0.062670395
-0.052713063 -0.3252393 0.016704133 -0.24979582 -0.04155266 0.26206493 -0.037591755 0.24284708
-0.1634615 0.16863427 0.045034893 -0.28846097 -0.08561258 0.01915921 -0.23080534 -0.2755884
0.2637251 -0.26751602 -0.15686786 0.17088667 -0.0727098 -0.17834762 0.1657601 -0.2735674
-0.2363244 0.22280945 -0.08756321 0.10309441 -0.23410188 -0.03838565 -0.25777707 -0.100198485
-0.09933274 0.22042389 0.30768612 -0.23591183 -0.06732619 0.007496164 0.26987106 -0.2535532
0.17484687 0.10772807 -0.021036692 -0.09464364 -0.05958793 -0.047826614 0.013295314 0.1426099
-0.25627756 -0.20643677 0.04197036 -0.24544044 -0.09913182 -0.26913974 -0.2525507 0.29064435
0.23803088 0.09110324 -0.12064778 0.31010097 0.008934043 0.0058495062 0.152915 0.09001964
-0.011545056 -0.28245547 0.29369646 0.2748597 0.09848202 -0.1306798 -0.3164603 -0.27261662
-0.0035846962 0.22422999 -0.32058933 -0.13938406 -0.03368494 0.043285258 -0.20019355 -0.2018989
-0.31800717 -0.042508107 0.15719517 -0.09349053 0.11438602 0.13426782 0.16201727 -0.008667707
0.1323628 0.3263405 0.2728797 0.18644007 0.32589027 0.0842989 0.08910451 0.18101496
0.13565122 0.098384835 0.2888564 0.26575103 -0.17405207 -0.23048662 0.22495289 0.28553152
-0.2334732 0.29213515 0.060729016 0.09377913 0.03712663 0.04781069 0.10660446 0.28541046
0.11772668 -0.22568421 -0.07903553 0.21176626 -0.012658533 -0.18939084 -0.058595475 0.13340898
00000000: 1cf6 213d fa24 dabb 4c5d 313c 7c67 083e
00000010: ed50 01be cd78 9b3d 7882 8d3e e161 77be
00000020: 9c0c 013e 1e29 0a3e 36dd bb3d 4b59 48bd
00000030: e7a1 94be c187 9dbe 4b7b 8cbe 109f f0bd
00000040: e7c6 3abe b703 1ebe 66a9 973e 430c 9ebe
00000050: 4cbc 10be d022 8d3d 2b03 19bd 5659 80bd
00000060: a7e9 57bd c485 a6be 1bd7 883c 7aca 7fbe
00000070: 1f33 2abd 602d 863e d0f9 19bd e8ac 783e
00000080: 7462 27be 76ae 2c3e 8276 383d 28b1 93be
00000090: a655 afbd c7f3 9c3c 3c58 6cbe ec19 8dbe
000000a0: fa06 873e dcf7 88be f8a1 20be eafc 2e3e
000000b0: e0e8 94bd c2a0 36be 04bd 293e 0711 8cbe
000000c0: 06ff 71be 2928 643e 5754 b3bd 2923 d33d
000000d0: 67b8 6fbe 453a 1dbd 5bfb 83be dd34 cdbd
000000e0: f76e cbbd cdb6 613e 0989 9d3e df92 71be
000000f0: 50e2 89bd 62a2 f53b 8a2c 8a3e bad1 81be
00000100: 0f0b 333e 89a0 dc3d 2455 acbc 86d4 c1bd
00000110: 7912 74bd d7e5 43bd 97d4 593c 5408 123e
00000120: d036 83be 2964 53be 1de9 2b3d bd54 7bbe
00000130: a005 cbbd afcc 89be 534e 81be 56cf 943e
00000140: 5ebe 733e 5694 ba3d 2f16 f7bd 8ec5 9e3e
00000150: 1860 123c 37ad bf3b c095 1c3e 385c b83d
00000160: 7927 3dbc 019e 90be 625f 963e 69ba 8c3e
00000170: f1b0 c93d edd0 05be 1607 a2be 6894 8bbe
00000180: 39ed 6abb 8c9c 653e 4924 a4be b2ba 0ebe
00000190: 38f9 09bd e24b 313d 8aff 4cbe 96be 4ebe
000001a0: d6d1 a2be fb1c 2ebd c5f7 203e f777 bfbd
000001b0: 3843 ea3d 817d 093e dbe7 253e 0003 0ebc
000001c0: 1d8a 073e 1a16 a73e e3b6 8b3e 25ea 3e3e
000001d0: 17db a63e e7a4 ac3d 6d7c b63d fc5b 393e
000001e0: 27e8 0a3e fd7d c93d fce4 933e 8510 883e
000001f0: b53a 32be af04 6cbe 0d5a 663e 3031 923e
00000200: 9913 6fbe bd92 953e fdbe 783d 460f c03d
00000210: 1812 183d 24d5 433d 7053 da3d 5221 923e
00000220: b01a f13d c319 67be 61dd a1bd 41d9 583e
00000230: bc65 4fbc acef 41be cf01 70bd 5d9c 083e

conv1.bias f4 [16]
0.19732967 0.22171454 0.09096509 -0.05239974 0.29906622 -0.114781596 0.25402904 0.30246377
-0.21232663 -0.0050733685 0.2983711 0.33219206 0.1027457 -0.24259621 -0.32371747 0.18333222
00000000: ca10 4a3e 2309 633e e84b ba3d 1ca1 56bd
00000010: 351f 993e 9d12 ebbd 1810 823e 88dc 9a3e
00000020: 276c 59be 803e a6bb 19c4 983e 1415 aa3e
00000030: 566c d23d 246b 78be 4cbe a5be 71bb 3b3e

conv2.weight f4 [32, 16, 3, 3]
-0.045551345 -0.016997354 -0.031685483 -0.0011279226 0.010604091 -0.008841897 0.026186697 -0.07772088
-0.054958805 -0.023263158 0.022972146 0.058646575 0.05993302 -0.04242944 -0.026810454 -0.04264558
-0.08635683 -0.08434708 0.0043489877 0.03341014 0.011042184 -0.0023616764 -0.06352345 -0.021025859
-0.00036483165 -0.050823957 0.0055802832 0.084084734 0.017272789 0.00498717 0.02261425 0.052697644
0.0057121743 -0.025738271 0.011155921 0.028900908 -0.00051886035 -0.056851957 -0.008041593 0.04065461
-0.08458553 0.041818757 -0.0032139474 0.06135032 0.006785716 -0.0092500355 0.06457151 0.00808844
-0.0671016 -0.036753196 0.027632207 -0.08396183 0.029435491 0.01172801 -0.062192746 0.075778484
-0.0031889358 0.008745377 0.064720236 -0.06608052 -0.07732211 0.05458768 -0.0060234107 0.063945055
-0.06261331 0.026867526 0.038730055 -0.0102319075 -0.008236248 0.034913305 -0.01519776 0.011730145
-0.015000216 -0.04917626 -0.077000275 -0.03381514 -0.016513322 -0.039560933 0.0270206 -0.08889128
-0.0671322 0.08152548 0.07917991 -0.031111402 0.054667488 0.029496107 -0.0297506 0.028848104
0.022186482 -0.03646826 -0.08198776 0.07650272 -0.06470475 0.07332669 0.061408512 0.005611128
-0.07916518 0.06691717 -0.035607502 0.06825269 -0.02866296 -0.011640846 0.020912739 -0.048430305
0.018352732 0.01238845 -0.08637735 0.06865431 -0.069704026 -0.00859248 0.06807586 0.048760384
-0.08986884 0.013899938 -0.023765447 0.0108255055 -0.021724496 0.042323597 -0.027295467 0.03857231
0.0056144404 -0.08611959 -0.064389125 -0.07388194 -0.047222167 0.02955775 -0.08176483 0.017382462
-0.063557096 0.033453725 0.06377587 -0.017715229 -0.010073113 0.016226672 -0.04654545 -0.06366399
-0.053334318 0.03306246 -0.045263965 -0.0009598476 0.04884248 0.06847447 -0.023781063 -0.08324308
-0.072996505 0.04472594 -0.04370458 -0.040946405 0.076810576 -0.016355535 -0.012031038 -0.07554833
-0.064815156 0.037393287 -0.048616655 0.06765493 -0.06725265 -0.01721347 0.0034561818 -0.087451935
-0.0036125316 0.08177466 0.074155286 0.0707338 -0.039439935 -0.02096569 0.0031515057 0.049216427
0.05721057 -0.05210313 -0.022449778 -0.036384117 -0.027726373 -0.05937872 -0.009405321 0.01540767
0.025704952 -0.01845436 0.03546055 0.09343813 -0.04050416 -0.0657147 -0.034285255 -0.05083347
0.062201682 -0.06067406 0.027811704 -0.07019626 -0.005310923 -0.020089332 -0.025525212 0.0013647393
-0.07619142 -0.07983663 0.08449485 -0.012668264 -0.05924725 -0.023053873 0.006354991 -0.002251901
0.022043062 0.026107308 0.025245277 0.07338069 0.04157814 -0.025790973 0.037194107 0.072395675
0.043428533 -0.060311347 -0.06325501 0.07526033 -0.04383405 0.043622136 0.025228662 0.04667115
-0.025290748 -0.08672691 0.005022032 -0.045025464 0.06298342 0.0026695607 -0.073932804 0.07085961
0.031503927 -0.023075582 0.030958317 0.06635081 -0.04569671 0.010560396 0.037421644 0.06870265
-0.042874124 0.046342786 0.06036426 -0.014731755 0.035981715 0.020509215 -0.027309328 -0.058355823
-0.007860244 -0.011878721 0.060329814 0.059811186 -0.04176824 -0.019020326 0.061622173 -0.070421875
0.102264345 -0.029243898 -0.05431754 -0.011082103 0.07574356 -0.057527274 -0.038792994 0.07886744
00000000: 0c94 3abd 093e 8bbc a3c8 01bd cdd6 93ba
00000010: c8bc 2d3c 9bdd 10bc 7c85 d63c 202c 9fbd
00000020: 7c1c 61bd 6192 bebc 1530 bc3c 6437 703d
00000030: 547c 753d 7eca 2dbd 99a1 dbbc 22ad 2ebd
00000040: dadb b0bd 29be acbd f481 8e3b 12d9 083d
00000050: 47ea 343c 5bc6 1abb 9518 82bd 6c3e acbc
00000060: e046 bfb9 c82c 50bd cfda b63b 9e34 ac3d
00000070: aa7f 8d3c 6a6b a33b 8541 b93c 7cd9 573d
00000080: 312d bb3b 11d9 d2bc 53c7 363c 99c1 ec3c
00000090: 2104 08ba 99dd 68bd e3c0 03bc 7385 263d
000000a0: 2e3b adbd 254a 2b3d 17a1 52bb 794a 7b3d
000000b0: b65a de3b 768d 17bc 113e 843d 6085 043c
000000c0: 906c 89bd 858a 16bd f05c e23c 2ef4 abbd
000000d0: b322 f13c d726 403c d2bd 7ebd c031 9b3d
000000e0: 77fd 50bb c548 0f3c 0b8c 843d 3955 87bd
000000f0: 0e5b 9ebd 5597 5f3d 0860 c5bb a0f5 823d
00000100: 683b 80bd 4919 dc3c 68a3 1e3d bba3 27bc
00000110: 54f1 06bc 4101 0f3d 0700 79bc cb2f 403c
00000120: 77c3 75bc 0c6d 49bd 52b2 9dbd bf81 0abd
00000130: f246 87bc a50a 22bd 4e5a dd3c a20c b6bd
00000140: 9b7c 89bd d5f6 a63d 1429 a23d 57dd febc
00000150: 04eb 5f3d d2a1 f13c 88b7 f3bc dc52 ec3c
00000160: 6dc0 b53c be5f 15bd 33e9 a7bd 75ad 9c3d
00000170: ed83 84bd 4e2c 963d 7e87 7b3d 8edd b73b
00000180: 5b21 a2bd df0b 893d 2cd9 11bd 11c8 8b3d
00000190: 95ce eabc 3fb9 3ebc 3151 ab3c db5e 46bd
000001a0: 7858 963c edf8 4a3c 9ce6 b0bd a29a 8c3d
000001b0: fcc0 8ebd 79c7 0cbc 5b6b 8b3d f8b8 473d
000001c0: 280d b8bd 91bc 633c c1af c2bc 765d 313c
000001d0: 92f7 b1bc 825b 2d3d be9a dfbc 00fe 1d3d
000001e0: 57f9 b73b 785f b0bd 72de 83bd 6a4f 97bd
000001f0: 086c 41bd 1823 f23c 5274 a7bd aa65 8e3c
00000200: 392a 82bd c606 093d ec9c 823d 871f 91bc
00000210: b309 25bc cced 843c 71a6 3ebd 4462 82bd
00000220: 1675 5abd 816c 073d b566 39bd 489e 7bba
00000230: 0d0f 483d 583c 8c3d 81d0 c2bc 597b aabd
00000240: 317f 95bd 8c32 373d 9303 33bd 6bb7 27bd
00000250: dd4e 9d3d 0bfc 85bc d51d 45bc 15b9 9abd
00000260: cfbd 84bd b429 193d 4222 47bd ab8e 8a3d
00000270: c2bb 89bd 4303 8dbc 1c81 623b 001a b3bd
00000280: 39c0 6cbb 7979 a73d bade 973d e2dc 903d
00000290: c58b 21bd 3dc0 abbc 7e89 4e3b 2a97 493d
000002a0: a155 6a3d 176a 55bd 99e8 b7bc 8307 15bd
000002b0: 6b22 e3bc 1a37 73bd c718 1abc 7470 7c3c
000002c0: 3193 d23c 992d 97bc 153f 113d 7e5c bf3d
000002d0: b1e7 25bd 6e95 86bd b26e 0cbd c236 50bd
000002e0: 31c7 7e3d 5d85 78bd 5fd5 e33c 0fc3 8fbd
000002f0: 4007 aebb 6292 a4bc 401a d1bc 0de1 b23a
00000300: 3f0a 9cbd 6381 a3bd a30b ad3d 8d8e 4fbc
00000310: 3fad 72bd 7adb bcbc 873d d03b a194 13bb
00000320: a793 b43c fede d53c 2fcf ce3c 9d48 963d
00000330: d74d 2a3d 9747 d3bc d958 183d 2f44 943d
00000340: 1ee2 313d 0809 77bd d88b 81bd 1722 9a3d
00000350: 558b 33bd 20ad 323d 57ac ce3c 3f2a 3f3d
00000360: 8b2e cfbc e19d b1bd dc8f a43b 9f6c 38bd
00000370: 74fd 803d ccf3 2e3b 156a 97bd d81e 913d
00000380: 430a 013d 0109 bdbc 4c9c fd3c efe2 873d
00000390: 792c 3bbd 8305 2d3c 7047 193d fab3 8c3d
000003a0: c79c 2fbd efd1 3d3d 8440 773d 755d 71bc
000003b0: 9061 133d f102 a83c d0b7 dfbc 8406 6fbd
000003c0: 41c8 00bc f89e 42bc 651c 773d 93fc 743d
000003d0: 2d15 2bbd 84d0 9bbc 8867 7c3d 5839 90bd
000003e0: f86f d13d e690 efbc 127c 5ebd b591 35bc
000003f0: 711f 9b3d b8a1 6bbd 67e5 1ebd 4185 a13d

conv2.bias f4 [32]
-0.04257988 -0.010614862 0.06582049 -0.010363389 0.009462232 -0.009751184 0.0019802265 0.042257637
0.07760935 -0.079112425 -0.008698093 0.019432908 0.04447734 -0.014750904 0.080843754 0.039055128
0.011689609 -0.042377446 -0.02589554 0.041670628 -0.07047068 -0.01737326 -0.0067093447 -0.077335335
-0.080002956 -0.07491792 -0.05782924 -0.0002481043 -0.07723726 0.022798285 0.062396 -0.043363553
00000000: 3e68 2ebd f5e9 2dbc e5cc 863d 34cb 29bc
00000010: 7a07 1b3c 6ec3 1fbc b0c6 013b 5816 2d3d
00000020: a7f1 9e3d b205 a2bd 7282 0ebc c331 9f3c
00000030: df2d 363d c7ad 71bc 6991 a53d 45f8 1f3d
00000040: c685 3f3c f993 2dbd e222 d4bc d2ae 2a3d
00000050: ef52 90bd 5e52 8ebc 10da dbbb fd61 9ebd
00000060: 97d8 a3bd 916e 99bd 5ade 6cbd ff13 82b9
00000070: 922e 9ebd 78c3 ba3c f392 7f3d fb9d 31bd

fc1.weight f4 [96, 128]
-0.013375175 0.009035577 0.003746135 0.0189902 -0.068766125 0.0154509675 -0.08355823 0.0054494063
-0.01653883 -0.024073325 0.073312186 0.01428758 -0.052268103 -0.027703753 -0.07224213 -0.042048868
-0.05863617 -0.041434385 -0.050783284 -0.045831643 -0.057977054 -0.003165565 -0.05584597 -0.018678479
0.0012917281 -0.08547395 -0.0083457725 -0.0831104 0.018987706 -0.005732917 -0.049002167 0.071767926
-0.018153392 0.036625735 0.06388826 0.038998798 0.063125186 0.067712665 -0.041297853 0.014753421
-0.047054596 -0.084301285 -0.076709464 0.012469438 0.03940473 0.07398183 -0.017515875 -0.008183616
0.060958795 -0.08020251 -0.00050254044 0.04917943 -0.013185955 0.029134458 0.035080884 0.0764397
0.032495078 -0.0885297 -0.011793176 0.04785224 -0.08905149 -0.08105566 -0.04208137 0.046622578
-0.074643455 0.023873506 0.061181318 -0.08953163 0.020653894 0.0653389 0.04601372 0.070860304
-0.009158143 -0.09295348 -0.09634666 0.009083998 -0.058265362 0.078270555 0.022365673 -0.054990567
-0.062088586 0.085080825 0.033648163 -0.013042296 0.044593547 -0.050291136 -0.034072947 0.02001694
-0.00024392059 0.0030631498 -0.010461845 0.07409262 -0.06919957 -0.07592015 -0.042229034 0.04255959
0.003732464 -0.08514056 -0.076293066 -0.08872556 -0.04979065 0.0077778655 0.035509285 -0.018547863
0.04971516 0.031417724 0.036841497 -0.056050137 -0.09263859 0.059753615 0.07419276 -0.05852202
0.035898104 0.06302158 0.06081113 0.0028134906 0.049641714 0.028819762 -0.09127044 -0.05658153
-0.041738696 0.032439746 -0.091035455 -0.050511792 0.03129873 -0.068532 -0.08057321 -0.09003124
0.035864517 -0.07209184 0.07882254 -0.02790812 -0.020143742 -0.025121555 0.06302496 0.087478384
-0.084098615 0.05141078 -0.037042215 0.08208256 -0.04059632 -0.01864442 -0.043101028 -0.060612906
0.043734808 0.06168127 0.08681551 0.06264064 -0.08242692 -0.06718024 -0.08192547 -0.04204417
0.006147746 -0.015281719 0.036421355 -0.008593227 -0.033979982 -0.013430803 -0.0515207 -0.018185321
-0.07417294 0.038128767 0.008871895 -0.08803639 -0.02109555 0.08702675 0.07491573 -0.0693757
0.04053029 -0.012322297 -0.01894656 0.02483879 0.077840395 -0.010151329 -0.053367995 0.028986622
-0.0769767 0.009642638 -0.03487535 0.07421951 -0.0304329 0.0039910856 -0.07007901 -0.0505408
0.034315344 -0.06478127 0.07180622 -0.05783378 0.08204919 -0.038597148 0.02090453 -0.021314545
-0.050531074 0.008896555 0.037631016 -0.026497146 -0.068484254 -0.041887224 -0.07223212 0.051756077
0.05155164 -0.03808838 0.09705808 -0.08955294 -0.021200694 -0.06747887 0.037861332 0.036720414
-0.005776106 0.057213876 -0.0061599878 -0.013740764 -0.0045665163 -0.0030211094 0.004486399 -0.06641229
0.035255797 0.04055802 -0.056617722 0.088572375 -0.015199671 -0.06960524 0.0042875754 0.055348516
-0.0030531553 -0.06060573 0.08043042 -0.033388898 0.0118978275 -0.050643906 0.040301796 -0.07581382
0.013378835 0.047735114 0.052623674 0.05232449 0.049998466 -0.034528032 0.0497137 0.0005160971
0.06613131 -0.0028382717 -0.03464527 0.018261002 0.034617655 -0.02753957 -0.0799521 -0.052175328
0.035605345 0.019104619 0.019947316 0.038696613 0.074599765 0.0078786835 0.041998584 -0.06062048
00000000: 8d23 5bbc f509 143c b781 753b 5691 9b3c
00000010: 41d5 8cbd 0e26 7d3c 9420 abbd ef90 b23b
00000020: 717c 87bc 6c35 c5bc b324 963d 7416 6a3c
00000030: 1417 56bd fbf2 e2bc aff3 93bd 6f3b 2cbd
00000040: 7b2c 70bd 1ab7 29bd 2202 50bd f6b9 3bbd
00000050: 5979 6dbd 5e75 4fbb bebe 64bd 9c03 99bc
00000060: 344f a93a f70c afbd b5bc 08bc c935 aabd
00000070: 1b8c 9b3c 32db bbbb 7fb6 48bd 10fb 923d
00000080: 6cb6 94bc de04 163d d9d7 823d 34bd 1f3d
00000090: c747 813d f0ac 8a3d f027 29bd 55b8 713c
000000a0: 52bc 40bd 27a6 acbd da19 9dbd 9d4c 4c3c
000000b0: db66 213d c983 973d 747d 8fbc 9314 06bc
000000c0: eeaf 793d 3741 a4bd ebbc 03ba 5f70 493d
000000d0: e709 58bc 63ab ee3c f9b0 0f3d 6b8c 9c3d
000000e0: 8f19 053d 0f4f b5bd 2a38 41bc b600 443d
000000f0: a160 b6bd 8300 a6bd 845d 2cbd 51f7 3e3d
00000100: abde 98bd 5f92 c33c 4399 7a3d 5c5c b7bd
00000110: 5b32 a93c 67d0 853d e278 3c3d 351f 913d
00000120: 090c 16bc 655e bebd 6651 c5bd 0dd5 143c
00000130: a9a7 6ebd 504c a03d 3738 b73c ca3d 61bd
00000140: 9a50 7ebd db3e ae3d a8d2 093d 5baf 55bc
00000150: b9a7 363d 14fe 4dbd 1390 0bbd 91fa a33c
00000160: efc4 7fb9 20bf 483b 2968 2bbc dfbd 973d
00000170: 81b8 8dbd 067c 9bbd 5af8 2cbd f752 2e3d
00000180: 5b9c 743b 2d5e aebd 8a3f 9cbd bfb5 b5bd
00000190: 48f1 4bbd 77dd fe3b 2f72 113d b0f1 97bc
000001a0: 20a2 4b3d dfaf 003d 1ce7 163d d494 65bd
000001b0: 4db9 bdbd 35c0 743d 60f2 973d c9b4 6fbd
000001c0: e409 133d 7511 813d 1715 793d 8a62 383b
000001d0: 1c55 4b3d 6c17 ec3c ffeb babd 09c2 67bd
000001e0: 32f6 2abd 8adf 043d cc70 babd 74e5 4ebd
000001f0: 1933 003d 815a 8cbd 9103 a5bd 4c62 b8bd
00000200: ace6 123d e3a4 93bd b66d a13d 929f e4bc
00000210: 7d04 a5bc b8cb cdbc 3b13 813d de27 b33d
00000220: e53b acbd 1c94 523d 94b9 17bd e71a a83d
00000230: 5448 26bd 2fbc 98bc b48a 30bd 3d45 78bd
00000240: 4523 333d 80a5 7c3d 55cc b13d bc49 803d
00000250: 72cf a8bd cb95 89bd 8ac8 a7bd 8236 2cbd
00000260: 0873 c93b 2d60 7abc 8f2e 153d 9bca 0cbc
00000270: 982e 0bbd df0c 5cbc 5f07 53bd 62f9 94bc
00000280: fbe7 97bd e92c 1c3d 6d5b 113c 6c4c b4bd
00000290: 93d0 acbc 153b b23d 6b6d 993d d914 8ebd
000002a0: 1703 263d 76e3 49bc d135 9bbc b87a cb3c
000002b0: c96a 9f3d c351 26bc 6698 5abd 5a75 ed3c
000002c0: f6a5 9dbd 28fc 1d3c 74d9 0ebd 6600 983d
000002d0: 6b4e f9bc a7c7 823b 9685 8fbd df03 4fbd
000002e0: 3f8e 0c3d 0bac 84bd 240f 933d 1de3 6cbd
000002f0: 6809 a83d 0b18 1ebd fa3f ab3c d79b aebc
00000300: acf9 4ebd dbc2 113c fb22 1a3d 8b10 d9bc
00000310: 7941 8cbd f091 2bbd 6fee 93bd 2efe 533d
00000320: d027 533d 9002 1cbd 63c6 c63d 8867 b7bd
00000330: 14ad adbc 5d32 8abd 7c14 1b3d 2568 163d
00000340: 7d45 bdbb 1959 6a3d b9d9 c9bb f120 61bc
00000350: b7a2 95bb cefd 45bb a402 933b 2b03 88bd
00000360: 6268 103d 2b20 263d fce7 67bd 6f65 b53d
00000370: 0a08 79bc 318d 8ebd ca7e 8c3b 20b5 623d
00000380: 7217 48bb b73d 78bd b4b8 a43d ccc2 08bd
00000390: 1bef 423c fc6f 4fbd 7f13 253d 4744 9bbd
000003a0: e732 5b3c e585 433d ec8b 573d 3452 563d
000003b0: 31cb 4c3d 446d 0dbd 98a0 4b3d b14a 073a
000003c0: da6f 873d 4c02 3abb 33e8 0dbd 1998 953c
000003d0: 3ecb 0d3d aa9a e1bc edbd a3bd ccb5 55bd
000003e0: e9d6 113d 4a81 9c3c 8e68 a33c 5780 1e3d
000003f0: c3c7 983d 9815 013c b506 2c3d 2e4d 78bd

fc1.bias f4 [96]
-0.07370877 -0.07331926 -0.06358381 -0.083223775 0.0037812449 0.086149506 0.00973947 -0.023267323
0.051990055 0.06506537 -0.045374773 0.03538439 0.04584913 -0.05676597 -0.01798524 0.078561634
-0.08536083 0.0070185894 -0.106954925 -0.066618204 0.047887005 0.040572453 -0.078079864 -0.08441628
-0.05008677 -0.080749005 0.016114485 -0.03367012 -0.0357353 -0.038700435 -0.08476365 -0.077465355
0.034600735 -0.06806808 0.02673051 0.013649362 0.06711997 -0.018295888 0.03880578 0.02088867
-0.06604114 0.019041065 -0.03319695 -0.07723361 -0.052722722 0.08174217 -0.018524349 0.026831921
-0.0813038 0.035717733 -0.02672826 0.019527229 0.015551721 -0.02440717 0.055413634 0.027320711
-0.010959947 -8.292687e-05 0.07526274 0.08120028 0.07730548 0.025733657 -0.009404992 0.028259091
-0.014869975 0.07503667 -0.06760958 -0.0096580405 -0.014415951 -0.021884412 -0.05951748 -0.06259211
0.070087194 0.08798802 -0.033276346 0.005023568 0.07351147 -0.080710255 -0.010789492 -0.024926705
0.048907317 -0.046110038 -0.07660009 0.008809001 -0.021062296 0.04305343 0.05566817 0.024176555
0.043312643 -0.05695186 0.046040963 -0.034057718 0.04661468 -0.0580168 -0.047524244 0.080354646
00000000: a0f4 96bd 6828 96bd 3b38 82bd 3a71 aabd
00000010: c3ce 773b 276f b03d 4c92 1f3c 1d9b bebc
00000020: 86f3 543d fe40 853d e6da 39bd 39ef 103d
00000030: 4ccc 3b3d 6f83 68bd c855 93bc ece4 a03d
00000040: a9d1 aebd 32fc e53b 2f0b dbbd 206f 88bd
00000050: 2a25 443d 4d2f 263d 56e8 9fbd 71e2 acbd
00000060: c927 4dbd bc5f a5bd 8602 843c aee9 09bd
00000070: 2e5f 12bd 5984 1ebd 9198 adbd 28a6 9ebd
00000080: 80b9 0d3d 4767 8bbd f1f9 da3c 93a1 5f3c
00000090: 3276 893d 42e1 95bc cff2 1e3d b71e ab3c
000000a0: 9440 87bd 02fc 9b3c 86f9 07bd a82c 9ebd
000000b0: c8f3 57bd 7068 a73d 60c0 97bc 9ece db3c
000000c0: 9b82 a6bd c24c 123d 39f5 dabc 91f7 9f3c
000000d0: a5cc 7e3c 8cf1 c7bc 68f9 623d afcf df3c
000000e0: 5991 33bc 06e9 adb8 5a23 9a3d 554c a63d
000000f0: 5652 9e3d 64cf d23c 6517 1abc 9c7f e73c
00000100: 32a1 73bc d3ac 993d e476 8abd c23c 1ebc
00000110: e230 6cbc f046 b3bc 9ac8 73bd 4b30 80bd
00000120: e089 8f3d 1033 b43d c74c 08bd be9c a43b
00000130: 2e8d 963d 6b4b a5bd 69c6 30bc 1733 ccbc
00000140: 0a53 483d e1dd 3cbd 82e0 9cbd a153 103c
00000150: d68a acbc cb58 303d 4f04 643d e90d c63c
00000160: 9968 313d 5b46 69bd 7395 3c3d 1b80 0bbd
00000170: 09ef 3e3d 06a3 6dbd c8a8 42bd fa90 a43d

fc2.weight f4 [32, 96]
0.0893078 0.09887993 0.00878532 0.031961367 0.09290997 -0.04510119 0.054373313 0.075475976
0.011383737 -0.07886478 0.013207596 0.04390963 -0.09872627 0.02413935 0.043045513 -0.0374516
0.051613346 0.049942303 0.039045986 0.039934043 0.061245505 -0.025267478 -0.05265237 0.02040356
0.10284884 0.078356564 -0.004620577 -0.014114349 0.019535195 -0.026638027 -0.09108902 -0.07004007
0.04610493 0.05094804 0.06547562 -0.013028313 0.09116932 -0.07807966 -0.057888743 -0.012021308
0.03837368 -0.0067962254 -0.100824885 0.083732665 -0.090037614 0.028764253 -0.04437361 0.0037866437
0.08896386 0.063092194 -0.10643481 -0.01294072 -0.06576264 -0.054831967 0.09533034 -0.045648694
-0.028431844 -0.0054699266 -0.07970407 0.06336308 -0.016355818 0.05675 0.047032643 0.09823546
-0.0042630252 0.002521247 0.035205383 0.013816767 -0.03676816 -0.05357664 0.088957585 0.019866157
-0.014541898 -0.04045732 -0.012502693 0.08046642 -0.06587327 0.056455355 -0.07459101 0.0061968137
-0.08367787 -0.05712744 -0.046757594 -0.052208178 0.02604464 -0.009551646 0.06200072 0.046375275
0.07899781 -0.015515118 -0.0041605528 -0.0053019375 0.03166227 0.07750864 0.052065242 0.08730702
0.025533304 -0.04155987 -0.0019104311 -0.033700675 -0.08189911 -0.089400046 0.09202016 -0.06198827
-0.040991224 -0.101322316 0.09549937 -0.043615405 0.026948106 -0.08868911 0.017397575 0.010245815
-0.058932856 0.09589084 0.024402127 0.002717041 0.09506387 0.08621613 0.07644172 0.06469611
0.037496157 -0.04875983 0.039398454 -0.07812736 -0.09567347 -0.038027585 -0.035814576 0.08911204
-0.06551833 -0.043217562 0.014689173 0.021018371 0.09531326 -0.08115227 -0.0314877 0.056324765
0.015430979 0.0148039535 -0.009136904 -0.096453086 -0.017495573 -0.053370632 -0.030254655 0.02796139
0.038782142 -0.013304183 0.060756236 -0.057752218 0.10139994 -0.051134065 0.008477178 -0.10086226
-0.03168142 0.05375215 0.056790322 -0.058131453 -0.083008535 -0.039476007 0.04916337 -0.006396875
-0.017489593 -0.018458948 0.055034313 -0.09432213 0.007005848 0.0062070074 0.034058347 0.032971576
0.007132269 -0.07487348 -0.06262605 -0.09819845 0.058860958 -0.06310038 -0.042213567 0.037163764
0.04450012 -0.03866849 0.03284979 0.0145012885 0.052016187 -0.055830937 -0.030664496 0.07342298
-0.057435934 -0.0827104 -0.07711529 0.0049736947 -0.103692956 0.06155892 -0.06148759 0.05961424
0.013387829 0.008495976 -0.046966646 -0.08464437 0.09068238 -0.035496615 0.09509986 0.049578644
-0.0056276377 -0.07079961 0.03668708 -0.088620976 0.0001610684 0.11783957 0.07806324 -0.029281221
-0.044701543 0.09511721 -0.09685875 0.01144953 0.013480305 -0.1317913 -0.016581245 0.030645015
0.004684396 0.04576353 0.016548976 -0.010871466 -0.10210231 0.01723597 -0.04952429 0.07028891
-0.046446797 0.01626028 -0.036207747 -0.0057933703 -0.06759339 -0.07606664 0.010305179 0.09623225
-0.07585885 -0.13149421 -0.05604599 -0.0165556 0.0038973128 0.044470992 0.05402283 -0.046761137
0.03991997 0.03240976 0.00820961 0.20317023 0.07919927 -0.05886308 -0.042912666 -0.046916492
-0.031544045 -0.069705 -0.060309615 0.011552631 -0.07293425 -0.08852443 -0.035571788 0.054627195
00000000: 02e7 b63d 9081 ca3d 4ef0 0f3c ece9 023d
00000010: 9547 be3d 07bc 38bd 8db6 5e3d 2693 9a3d
00000020: db82 3a3c dc83 a1bd ac64 583c 96da 333d
00000030: 0031 cabd e3bf c53c 7e50 303d d966 19bd
00000040: 8468 533d 4d90 4c3d afee 1f3d e191 233d
00000050: 91dc 7a3d befd cebc 03aa 57bd 5e25 a73c
00000060: 6aa2 d23d 6879 a03d 3668 97bb df3f 67bc
00000070: 4608 a03c fe37 dabc e18c babd 2b71 8fbd
00000080: 86d8 3c3d e4ae 503d 1518 863d b574 55bc
00000090: fbb6 ba3d 3be8 9fbd bf1c 6dbd 05f5 44bc
000000a0: b82d 1d3d dfb2 debb 477d cebd 087c ab3d
000000b0: a465 b8bd 03a3 eb3c 1ac1 35bd 5729 783b
000000c0: af32 b63d 7b36 813d 7efa d9bd 5005 54bc
000000d0: 90ae 86bd 7c97 60bd 8e3c c33d 20fa 3abd
000000e0: e6e9 e8bc 123d b3bb e33b a3bd 81c4 813d
000000f0: a3fc 85bc b072 683d 4da5 403d ac2f c93d
00000100: d9b0 8bbb 813b 253b 8533 103d b95f 623c
00000110: 369a 16bd 2e73 5bbd 652f b63d 5abe a23c
00000120: 2441 6ebc 93b6 25bd 18d8 4cbc 94cb a43d
00000130: 91e8 86bd bb3d 673d 2cc3 98bd a40e cb3b
00000140: 4e5f abbd 76fe 69bd e484 3fbd 3ed8 55bd
00000150: 925b d53c 827e 1cbc 78f4 7d3d 00f4 3d3d
00000160: 9bc9 a13d 1f33 7ebc 3f55 88bb e0bb adbb
00000170: 4cb0 013d dabc 9e3d 5d42 553d 06ce b23d
00000180: 382b d13c af3a 2abd 6e67 faba b809 0abd
00000190: b8ba a7bd 5f17 b7bd 1175 bc3d 6ae7 7dbd
000001a0: 6ae6 27bd 1382 cfbd 2c95 c33d 11a6 32bd
000001b0: 46c2 dc3c a3a2 b5bd 5c85 8e3c 10de 273c
000001c0: 9463 71bd 6b62 c43d f8e6 c73c 6210 323b
000001d0: d9b0 c23d 1592 b03d 7a8d 9c3d 657f 843d
000001e0: 9295 193d 63b8 47bd 4660 213d 3d01 a0bd
000001f0: 74f0 c3bd d0c2 1bbd 4eb2 12bd 6080 b63d
00000200: 792e 86bd e604 31bd dbaa 703c b82e ac3c
00000210: 9933 c33d 2933 a6bd 3ff9 00bd ccb4 663d
00000220: 38d2 7c3c 488c 723c f4b2 15bc 3289 c5bd
00000230: e052 8fbc 2a9b 5abd 9cd8 f7bc 490f e53c
00000240: 06da 1e3d caf9 59bc 88db 783d 978d 6cbd
00000250: c6aa cf3d f471 51bd dde3 0a3c df90 cebd
00000260: 60c4 01bd 372b 5c3d f89c 683d 3f1b 6ebd
00000270: 6100 aabd 98b1 21bd 885f 493d e09c d1bb
00000280: 5646 8fbc 3837 97bc a96b 613d f62b c1bd
00000290: 5091 e53b 2764 cb3b c480 0b3d 340d 073d
000002a0: cfb5 e93b 4457 99bd 1642 80bd 451c c9bd
000002b0: 3018 713d c63a 81bd 22e8 2cbd 0839 183d
000002c0: c245 363d da62 1ebd 808d 063d d096 6d3c
000002d0: ed0e 553d fbae 64bd 1c34 fbbc ca5e 963d
000002e0: f141 6bbd 1264 a9bd 9fee 9dbd 60fa a23b
000002f0: f95c d4bd 3525 7c3d 69da 7bbd 102e 743d
00000300: a058 5b3c b532 0b3c 1960 40bd 075a adbd
00000310: afb7 b93d e664 11bd b7c3 c23d fa12 4b3d
00000320: 0c68 b8bb 63ff 90bd 3145 163d ea7e b5bd
00000330: 78e4 2839 df55 f13d 9fdf 9f3d 2cdf efbc
00000340: f718 37bd d0cc c23d e15d c6bd cf96 3b3c
00000350: 7fdc 5c3c 4cf4 06be 64d5 87bc 410b fb3c
00000360: 907f 993b 8a72 3b3d b891 873c 3c1e 32bc
00000370: 041b d1bd 7332 8d3c fbd9 4abd a2f3 8f3d
00000380: ff3e 3ebd 4734 853c 934e 14bd 50d6 bdbb
00000390: 676e 8abd d4c8 9bbd 0ed7 283c 6a15 c53d
000003a0: e25b 9bbd 6ba6 06be 7b90 65bd 9c9f 87bc
000003b0: 0f6a 7f3b 3727 363d 0b47 5d3d 9b88 3fbd
000003c0: 1f83 233d 19c0 043d 9a81 063c db0b 503e
000003d0: 3a33 a23d 6a1a 71bd 31c5 2fbd 822b 40bd
000003e0: 5434 01bd 7fc1 8ebd 3707 77bd 3f47 3d3c
000003f0: 8d5e 95bd 4c4c b5bd b9b3 11bd c4c0 5f3d

fc2.bias f4 [32]
0.07175468 0.026152706 0.0015666598 -0.07257602 0.05091471 0.003636965 -0.031189606 -0.05747777
0.007899313 -0.055305406 -0.08433425 0.06771027 0.060582645 0.039590877 -0.008780965 0.02608749
0.01868628 -0.08458737 0.02352048 -0.08599969 -0.0869526 0.01884471 -0.07905124 0.028898397
-0.07790717 -0.096938506 0.07422254 -0.032315228 -0.050350714 0.017878788 -0.033626165 0.06559627
00000000: 1ef4 923d 333e d63c 6158 cd3a bda2 94bd
00000010: f18b 503d 265a 6e3b 5881 ffbc cf6d 6bbd
00000020: 1f6c 013c ec87 62bd 6fb7 acbd afab 8a3d
00000030: 8225 783d 0b2a 223d 09de 0fbc 6fb5 d53c
00000040: f813 993c 253c adbd 06ae c03c 9b20 b0bd
00000050: 3414 b2bd 3960 9a3c 9ee5 a1bd 55bc ec3c
00000060: cb8d 9fbd b287 c6bd fd01 983d f95c 04bd
00000070: 8d3c 4ebd 8976 923c 97bb 09bd 5657 863d

fc3.weight f4 [4, 32]
-0.15191165 0.1618982 -0.25026664 -0.09029651 -0.11000615 -0.10752948 -0.06131523 0.088182926
0.019262638 0.07670379 -0.1707952 -0.068197496 -0.16995612 0.016989607 0.03608882 0.10267719
0.025328843 0.065746635 0.0938007 0.01591817 0.14207675 0.034571346 -0.011535623 0.13867779
0.07129906 -0.08821929 -0.091123916 -0.076775424 0.12240473 -0.12124824 0.081225835 0.09035589
0.046258993 -0.033347867 0.23493114 -0.15514348 0.08928709 0.074718595 -0.16582645 0.10259239
0.028276367 -0.091617696 0.0262821 -0.07688741 -0.07772144 -0.016559228 -0.06213125 0.11801785
0.1111807 -0.0863509 -0.16524857 0.13236079 0.03927204 -0.036829542 0.16790228 0.023521556
-0.10804536 0.17087118 -0.06701442 0.025896916 0.033988167 -0.050161634 0.05981155 -0.11087543
-0.14793538 -0.03539576 -0.013020546 -0.021611359 -0.03810027 0.13137199 0.15005244 -0.09423892
0.043810897 0.13498601 -0.13600905 0.014739857 0.10692475 0.1377661 0.13050938 -0.06384666
-0.155398 0.11310381 0.21274793 -0.07185618 -0.022202024 -0.05799996 0.083016664 0.17356244
-0.057236638 -0.053397927 -0.03332084 -0.0041434593 -0.044600863 0.12830096 -0.14808051 -0.13527718
-0.14884418 -0.06092257 0.08485864 0.10005695 0.03674837 0.033176802 0.16286658 0.0039541638
-0.014605686 0.06515089 -0.07180711 -0.075784184 0.06413743 0.0893111 -0.019611062 0.121684104
0.14878587 -0.030541487 -0.12649848 -0.15089107 0.06002512 -0.004501757 0.071610294 -0.026745258
0.10436479 -0.15899667 -0.08727156 0.14589056 -0.094060086 0.033684287 0.15404238 0.13475873
00000000: ba8e 1bbe a4c8 253e f322 80be 60ed b8bd
00000010: e84a e1bd 6a38 dcbd ae25 7bbd 4099 b43d
00000020: aecc 9d3c e016 9d3d f0e4 2ebe 21ab 8bbd
00000030: fa08 2ebe ca2d 8b3c dfd1 133d 6b48 d23d
00000040: 6f7e cf3c 2ca6 863d 951a c03d d266 823c
00000050: 917c 113e af9a 0d3d e9ff 3cbc 8d01 0e3e
00000060: 3e05 923d 51ac b4bd 2d9f babd 6f3c 9dbd
00000070: 55af fa3d ff50 f8bd bb59 a63d 820c b93d
00000080: 127a 3d3d c697 08bd ca91 703e efdd 1ebe
00000090: 26dc b63d 1006 993d 69ce 29be f51b d23d
000000a0: d7a3 e73c 0fa2 bbbd 8f4d d73c 2577 9dbd
000000b0: 6b2c 9fbd 38a7 87bc 567d 7ebd 58b3 f13d
000000c0: b5b2 e33d bed8 b0bd ec36 29be 9689 073e
000000d0: b8db 203d 93da 16bd 93ee 2b3e 47b0 c03c
000000e0: e346 ddbd dbf8 2e3e db3e 89bd c525 d43c
000000f0: 2d37 0b3d 4976 4dbd f5fc 743d a812 e3bd
00000100: 5f7c 17be 25fb 10bd 2154 55bc 4e0a b1bc
00000110: 070f 1cbd 6186 063e 59a7 193e 5600 c1bd
00000120: 0e73 333d c639 0a3e f545 0bbe 717f 713c
00000130: 5dfb da3d 8e12 0d3e 40a4 053e 0ac2 82bd
00000140: a720 1fbe f8a2 e73d 98da 593e 5529 93bd
00000150: 05e1 b5bc 5e91 6dbd a404 aa3d 5aba 313e
00000160: f770 6abd c9b7 5abd 6f7b 08bd dbc5 87bb
00000170: 65af 36bd 5461 033e 6ba2 17be 1a86 0abe
00000180: 9c6a 18be f289 79bd 5eca ad3d a8ea cc3d
00000190: 7585 163d 66e4 073d 7fc6 263e ee91 813b
000001a0: b04c 6fbc d46d 853d 9b0f 93bd bd34 9bbd
000001b0: 7c5a 833d bde8 b63d 61a7 a0bc 8435 f93d
000001c0: 535b 183e 2432 fabc d188 01be 3083 1abe
000001d0: e6dc 753d 7a83 93bb 6ba8 923d df18 dbbc
000001e0: 35bd d53d 06d0 22be 6fbb b2bd 5664 153e
000001f0: 93a2 c0bd 89f8 093d 49bd 1d3e 31fe 093e

fc3.bias f4 [4]
0.002030096 -0.10741482 0.16351743 0.081697375
00000000: 5c0b 053b 4dfc dbbd 1d71 273e f450 a73d
