game_play/cnn_model_5.pth (torch, 85111 bytes, 10 tensors)

conv1.weight f4 [16, 1, 3, 3]
000000 d5 a3 97 be 26 7c ae 3d d6 2f 79 be d3 cf 4e 3e
       -0.2961718 0.08519773 -0.24334654 0.20196466
000010 34 0c 5a be e4 fe 49 bd 4c d9 33 be 2c 53 85 bd
       -0.21293718 -0.04931535 -0.17563361 -0.065100044
000020 72 c1 35 be 02 09 57 3d d6 80 de 3d 4b 81 8a 3d
       -0.17749575 0.052498825 0.10864417 0.06762942
000030 95 08 a0 3e a0 2a 2c bd 2d 33 58 bd af f9 24 be
       0.31256548 -0.042032838 -0.05278318 -0.16110872
000040 36 b4 03 be 9c 6f a2 bd 9a d0 46 bd 5c 6f 1e 3e
       -0.12861714 -0.07931444 -0.04853878 0.15472168
000050 c6 91 6f be 92 42 33 bd 79 f0 37 3d 4c 5f b7 bc
       -0.23395452 -0.04376466 0.044907067 -0.022384308
000060 ea 4b 42 be b4 e7 75 3e 63 da e0 3d f0 26 00 be
       -0.18974271 0.24014169 0.10979154 -0.12514853
000070 b0 41 70 bd ca 7d 83 3e 36 6e 63 3e c6 e3 92 3d
       -0.058656394 0.25681907 0.22210011 0.071723506
000080 70 ca 4a 3e 58 a0 00 3e e7 d8 4e 3d d5 e1 8f 3e
       0.19803786 0.12561166 0.050499823 0.28101984
000090 6b b4 0e be 98 64 7e 3e dd 55 03 be ae 92 81 3e
       -0.13936011 0.24843061 -0.12825723 0.2530722
0000a0 0b a0 ce 3d 8a 78 bc 3d 3b c8 3d 3e a0 c9 9e be
       0.100891195 0.092026785 0.18533413 -0.31013203
0000b0 ea e7 a0 be a2 24 8d 3e 73 87 93 be 9d 3b d7 bd
       -0.31426936 0.2756701 -0.28814277 -0.10509417
0000c0 09 6f a8 bd d1 16 08 3b cc c0 d8 bd 6a c7 fb 3c
       -0.08224303 0.0020765553 -0.10583648 0.030734736
0000d0 de ad be bd 53 96 11 be a5 b0 a2 be 66 79 1d be
       -0.09310506 -0.142175 -0.31775394 -0.15378341
0000e0 b8 cf c5 3c 64 65 36 3d ff 69 78 be c6 7c 28 bd
       0.0241469 0.044530287 -0.24259184 -0.04113462
0000f0 e5 e9 ca 3d 77 93 21 3d 0e fd b0 bd 27 9d d7 bb
       0.09907893 0.039447274 -0.08642016 -0.0065800133
000100 ee 34 15 be e3 ca 32 3c f0 ec 82 3e 32 86 31 3e
       -0.14570972 0.01091263 0.25571394 0.17336348
000110 48 a8 52 be 49 75 7c 3e 86 4a 9b 3e 78 93 9e be
       -0.20572007 0.24654116 0.30330294 -0.30971885
000120 ab d0 99 be e8 4d 74 3d 6e 99 21 3d 70 90 0d 3e
       -0.30042014 0.05964461 0.039452963 0.1382463
000130 81 6a 8d 3e db b2 33 3e c0 63 9c 3e 7d f7 41 be
       0.2762032 0.17548697 0.30544853 -0.18942066
000140 02 60 f0 3d 6c 28 1c bd 46 0c ef bd 74 98 33 3e
       0.11737062 -0.038124487 -0.11672263 0.17538625
000150 c3 30 92 3e 39 4c 59 be 71 bf ad 3e 00 99 31 bd
       0.28552827 -0.21220483 0.3393512 -0.043358803
000160 b2 58 ae 3d d0 e5 fa bc 5d 21 1a 3c 58 f4 3d be
       0.08513011 -0.030627161 0.0094073685 -0.18550241
000170 d9 bd 1f 3e ed f1 8e be 68 c7 82 3e 0a e8 78 be
       0.15599765 -0.2791895 0.2554276 -0.24307266
000180 d5 73 8b 3e c8 9e 07 be b6 b8 9d bd ce 83 df 3c
       0.2723681 -0.13244164 -0.077012464 0.027284529
000190 33 f3 8e 3e 98 5d 07 be b3 d0 0d be fb eb 8f 3e
       0.2791992 -0.13219297 -0.13849144 0.28109726
0001a0 18 30 90 be 3e 07 a8 3c db d6 9e be e4 7e 13 be
       -0.28161693 0.020511266 -0.31023297 -0.14403874
0001b0 05 78 b2 3d c4 40 3d be 36 af 1d be 17 2e 89 bd
       0.08714298 -0.18481737 -0.15398869 -0.06698244
0001c0 0c d8 d3 3c 21 44 d5 3c 4d 72 33 3e 8d d3 13 3e
       0.025859855 0.026033463 0.17524071 0.14436169
0001d0 22 eb 64 be 78 f1 9a be 04 60 11 3e 9c 65 2a be
       -0.22355321 -0.3026235 0.14196783 -0.16640323
0001e0 09 5a 25 3e 44 6d e5 bd 97 b6 08 3d 79 6b 83 3e
       0.16147627 -0.112024814 0.033377256 0.25667933
0001f0 fe 4d 22 be f0 e2 84 be be 1b 9c be 0c 82 8f 3e
       -0.15850064 -0.2595439 -0.30489916 0.28028905
000200 a1 48 a0 be 13 c9 1f 3e 96 8d 45 be ab c9 69 bd
       -0.3130541 0.15604047 -0.19292292 -0.05707709
000210 a4 01 34 3e 36 c9 4d bd e1 cd 5e 3e b2 69 81 be
       0.17578751 -0.050240718 0.21758224 -0.25275952
000220 28 93 56 be 95 17 52 be 74 97 3c be 6b d6 7e 3d
       -0.20954573 -0.20516808 -0.1841715 0.062216204
000230 8a da 4c 3e 21 d6 d2 bc 2d c8 21 3e 9c 30 a1 3e
       0.20005241 -0.02573687 0.15799017 0.314824

conv1.bias f4 [16]
000000 70 37 0e 3e 3b e3 3b be 65 b1 34 be d1 09 76 be
       0.13888335 -0.183484 -0.17645796 -0.24027182
000010 72 ea 00 3e 0c ac ca bd d9 d0 83 bc 98 17 96 be
       0.12589434 -0.098960966 -0.016090797 -0.29314876
000020 ee 8f ba bd 72 49 ac bc e4 02 54 3e d4 44 57 be
       -0.09109484 -0.021031115 0.20704228 -0.2102235
000030 f3 3c 21 be 2f f7 f9 3d 40 8a 8f bc 29 91 55 be
       -0.15745907 0.1220535 -0.017521977 -0.20856155

conv2.weight f4 [32, 16, 3, 3]
000000 62 fa 7d 3d f9 3e a9 bd 5e 9c 13 bd 98 07 55 3d
       0.06200636 -0.08263964 -0.036037795 0.052009195
000010 e3 70 76 3a 78 3f 72 3d ae f3 0e bd 35 54 2b 3d
       0.00094009767 0.05914256 -0.03490036 0.041828353
000020 e5 d4 83 bd 02 63 9b 3d 4a 42 6f bd 73 6f 01 3c
       -0.06437091 0.075872436 -0.058412828 0.007900107
000030 58 b1 ae bd e0 64 ef 3c a5 35 95 3d d4 2f cf 3c
       -0.085299194 0.029222906 0.072856225 0.02529136
000040 fe 4b 80 3d d6 24 dc 3c cb 93 7f bc f6 ea 09 bd
       0.06264494 0.026873033 -0.015599201 -0.03367134
000050 c7 8f 1b 3c ce 73 25 3d b3 78 4a bb 67 cc 42 3c
       0.009494728 0.040393643 -0.0030894696 0.011889554
000060 a6 4d 05 bd b3 92 7c bd 80 24 22 bd 28 56 4a 3d
       -0.032544754 -0.06166334 -0.03958559 0.04939857
000070 97 50 89 bd 29 bb 0b 3d d4 c2 80 bd a5 a7 06 bd
       -0.067048244 0.034114037 -0.062871605 -0.032874722
000080 58 00 14 bc 37 b2 a0 bd 67 16 46 3d af 6a 4b 3d
       -0.009033285 -0.07846492 0.04836121 0.04966229
000090 86 81 81 3d ec 2b 27 bc 06 8a e4 3c bc ea 5e bc
       0.06323533 -0.010203343 0.027897846 -0.01360577
0000a0 39 4d b2 3b 66 16 80 3d d9 fc 3c bd 37 83 6a bd
       0.0054413346 0.06254272 -0.04613957 -0.057254042
0000b0 8e 51 13 3d 77 7f 1e bd 9c 5b f7 bc b6 60 44 3c
       0.03596645 -0.03869578 -0.03019505 0.011985948
0000c0 56 3f ee 3c fa 86 69 bd 86 7d 2f bd f6 61 5c bd
       0.029082935 -0.05701349 -0.042844318 -0.05380436
0000d0 f9 d0 86 3d 50 76 35 3c e1 00 46 bd 12 d7 51 3b
       0.06582827 0.011075571 -0.048340682 0.003201906
0000e0 28 c9 e2 3c 9d eb 85 3d 99 e6 26 3d 6d 93 2b 3d
       0.02768381 0.0653908 0.04074726 0.041888643
0000f0 74 7f 0f bd fe 86 0a bd 60 00 a3 3d c4 fa 6f 3d
       -0.03503366 -0.033820145 0.07959056 0.058588758
000100 b2 fc 26 bc 01 5e 57 bc b9 8e 4a 3d f8 c9 53 3c
       -0.010192083 -0.013144971 0.049452517 0.012926571
000110 9e ac 8b bd a7 0d 3a bc b7 6f 8e 3d e8 93 78 3c
       -0.068200335 -0.011355794 0.06954902 0.015171982
000120 7c bf b6 bd f2 b0 86 bb 5f 45 66 bc 58 e3 27 3d
       -0.089232415 -0.004110449 -0.014054625 0.040988296
000130 89 0b e5 3c 00 e1 47 3d f4 04 33 bc 7b 72 29 bd
       0.027959602 0.04879856 -0.010926474 -0.041368943
000140 64 43 5c bd 18 4b 90 3d 0c 76 ff bb 70 fd 7b 3c
       -0.053775206 0.07045573 -0.0077960547 0.015380248
000150 81 15 4e bd 8b 3c b9 3c b2 da 81 bd 10 ea 90 3d
       -0.050313476 0.022611877 -0.06340541 0.07075894
000160 0c fc 46 3d 73 13 7b 3b 11 8a 8d 3d cf 9c 60 bb
       0.048580214 0.0038311153 0.069111 -0.0034273153
000170 e1 6a 59 bc a9 46 8c bd df ba 6b 3c 2d 39 d7 3c
       -0.013270111 -0.06849415 0.014387815 0.02627238
000180 5a 1a 94 bd 74 2f 90 3d 76 db ec bc 7d b3 59 3d
       -0.07231589 0.07040301 -0.02891324 0.05314969
000190 22 2e 04 3d 98 93 99 bd 4e c3 75 3d 9c 29 88 3d
       0.03227056 -0.074988544 0.06000071 0.06648561
0001a0 88 79 84 3c 92 26 a5 3d 41 3b a3 3c 24 7f e6 3b
       0.016171232 0.08063997 0.019925715 0.0070341993
0001b0 00 35 16 bd 84 e2 83 bd 5c cb e1 bc 9c 7f 32 3d
       -0.03667164 -0.06439689 -0.02756279 0.04357873
0001c0 7f 6d 99 bd 20 fd 87 3b b4 25 9d 3d 9f f5 98 3d
       -0.07491588 0.004150048 0.07673207 0.074687235
0001d0 89 80 6d bd c4 93 31 bc 4c bf 61 bd 79 07 8c 3d
       -0.05798391 -0.010838453 -0.055114076 0.06837363
0001e0 7a c4 9c bd da 47 a5 3c 4c 64 4b bd 41 97 6c 3d
       -0.076546624 0.020175863 -0.049656197 0.057761434
0001f0 15 68 11 3c 1a 52 a7 bd 34 f7 d6 bb 13 82 20 3d
       0.008874913 -0.081699565 -0.0065602306 0.03918655
000200 73 81 2e bd 74 69 80 bd e3 09 42 3c 75 cf ed bb
       -0.04260392 -0.062701136 0.0118431775 -0.007257397
000210 f2 f4 97 3d ea 04 d6 3b d5 07 53 3c 54 52 6b 3d
       0.074197665 0.0065313475 0.012880285 0.05745156
000220 b7 64 86 bd ee 78 3e bc ea 19 b2 bd b5 c3 7f 3d
       -0.065621786 -0.011625512 -0.08696349 0.0624425
000230 0e 61 ed 3c 34 d9 aa bd a8 5f 8c 3d 73 06 2f bd
       0.028976943 -0.083422095 0.068541825 -0.04273076
000240 25 b3 fb bc 66 2e 7d 3d a0 34 3c bd 2d e2 43 bd
       -0.030725071 0.061811827 -0.045948625 -0.04782312
000250 04 85 1f bd 7f 83 ec bc 3e f4 52 bd 79 ba cb 3c
       -0.038945213 -0.028871296 -0.05150246 0.02486919
000260 33 d5 75 bd 9a 0b 06 bd 32 dd ad 3a 52 f3 98 3c
       -0.060017776 -0.032725908 0.0013264774 0.018670712
000270 e9 c7 b4 bc 4b 84 b5 bb 0e 7f c0 3d c3 fc 18 3d
       -0.02206798 -0.005539452 0.09399234 0.037350427
000280 ea 33 7b 3d 13 c8 a0 3d a5 b7 85 3d ba 85 8b 3d
       0.061328806 0.07850661 0.06529168 0.06812616
000290 41 96 8c bd d6 0a 3f bd 18 27 c5 bc 0e 80 2b bd
       -0.06864596 -0.046641193 -0.024066493 -0.04187017
0002a0 97 18 79 3d e5 2f 0b 3d cc 14 ef 3c 7b ac 45 bd
       0.060814466 0.033981223 0.029184721 -0.048260193
0002b0 51 98 e2 bc bd 8a 3e bd 68 dd 19 bd 9f 65 a4 3d
       -0.02766052 -0.04651903 -0.037564665 0.08027195
0002c0 7d 43 b4 3d ba b7 08 bd 64 9f da 3d ca ae 66 3d
       0.08801935 -0.03337834 0.106749326 0.056319036
0002d0 84 eb ee 3b 46 ff 07 3c db da ff bc 4e 7b 8a 3d
       0.0072912592 0.008300608 -0.031232288 0.067618
0002e0 d6 8e 2d 3d a5 1b e3 3c 0f 49 9d 3d 38 8b f2 bc
       0.042372547 0.027723143 0.076799504 -0.0296074
0002f0 b8 45 7c bc 1d 79 48 bd 2e 05 8e 3c c7 bf 5c 3d
       -0.015397482 -0.048943628 0.017336454 0.05389383
000300 da dc 7f bd d2 7e ef bc df 78 ff bc 94 5c 29 3d
       -0.06246648 -0.029235277 -0.031185566 0.041348055
000310 57 0a af 3c 12 42 40 3b 6c bd 5f bc a8 d2 27 3d
       0.021367235 0.0029336256 -0.013656002 0.04097238
000320 af 36 d8 3c 7d 7b e3 bc da 9b 16 3c d2 d5 24 bd
       0.026393263 -0.027768845 0.009192431 -0.040242977
000330 be dc 7e bd a8 cf 36 bd 17 c6 5e 3b 07 30 bd bc
       -0.062222235 -0.04463163 0.0033992582 -0.02309419
000340 5a 48 83 bc 64 a7 1c bb b7 b5 73 bd 45 0c 59 bd
       -0.01602571 -0.0023903484 -0.05949947 -0.052990217
000350 d8 90 90 3d b4 c1 48 3d 03 b5 85 3d e3 fe e9 3c
       0.07058877 0.049012855 0.06528666 0.028563922
000360 00 b8 6a 3d ec 21 da bc 64 a0 cc 3c cf 99 25 bd
       0.057304382 -0.026627503 0.024978824 -0.040429886
000370 0b 1b 8b bd df 62 cb 3b 2a 9b 75 3c c3 2a 2e 3d
       -0.067922674 0.0062068547 0.014990607 0.04252125
000380 b2 9e de bc cc 5d 1f 3c 29 06 17 bd 3e 9e 52 3d
       -0.027175281 0.009726953 -0.03687111 0.051420443
000390 2c 13 31 bd 6b 74 3d 3d d6 96 c0 ba 8a 6b e5 bd
       -0.043231174 0.046253603 -0.001469339 -0.11202152
0003a0 95 ee 02 3d 52 85 b1 3d 0f 57 a4 3d fc f7 a5 3d
       0.03196581 0.08668007 0.080244176 0.0810394
0003b0 fc 9e d9 bc e4 45 40 3d 42 80 ee 3c 54 6f 8d 3d
       -0.026565067 0.046941653 0.029113892 0.06906
0003c0 6d e2 1a 3d 01 cf 73 3d f0 8d 21 ba 69 f1 af bc
       0.037813593 0.059523586 -0.0006162813 -0.021477418
0003d0 6a 99 72 3d b1 d8 63 bd 40 22 14 bd 7c 93 01 3d
       0.05922834 -0.055626575 -0.036165476 0.031634793
0003e0 9c 01 9b 3d 71 16 68 3d 6c 62 5f 3d 1b 1f 83 bd
       0.07568666 0.056662027 0.05453722 -0.06402417
0003f0 75 d4 20 3d c5 f7 82 3a f0 d6 79 bd e5 e8 bd bd
       0.039265115 0.0009992054 -0.060995996 -0.09272937

conv2.bias f4 [32]
000000 38 d8 4a bd 39 01 e3 3c bd b4 25 bd 95 75 26 bd
       -0.04952261 0.027710544 -0.04045557 -0.04063948
000010 12 a2 c3 bd 0e 29 97 3c 4c de 8f bd bb 5a 44 3c
       -0.09552397 0.018452194 -0.07024822 0.011984522
000020 68 48 8c 3d bc d5 e3 3c 72 02 3e 3d 76 dc 78 3c
       0.06849748 0.027811877 0.04638905 0.015189281
000030 0c c9 86 3d ce 65 b1 bd db 53 5e 3d d5 1c 0c bc
       0.065813154 -0.08661996 0.05427919 -0.008551796
000040 12 2c 42 3d dc 91 62 bd 36 6f 7c 3d bd b2 a2 bd
       0.04740531 -0.055314884 0.061629497 -0.07944248
000050 a4 b6 8b 3c bc f0 fa 3c 5f c6 a7 bc 6b f7 a0 bd
       0.017054863 0.03063237 -0.020480333 -0.07859691
000060 7a 59 1d bd dc 6c f8 bc 75 37 bb bb 96 e3 74 3d
       -0.03841541 -0.030325346 -0.005713398 0.059787355
000070 ad a0 0c bd 80 45 0f 3d f8 30 16 bd 67 45 91 3d
       -0.03433292 0.03497839 -0.036667794 0.070933156

fc1.weight f4 [96, 128]
000000 7f a3 cf bb 21 dc 05 3d d9 ea 3b bc 34 61 a5 bd
       -0.006336629 0.032680634 -0.011469566 -0.08075181
000010 b6 08 a1 bd 1b e0 79 bd a3 46 cc 3b 26 99 15 3d
       -0.078629896 -0.06100474 0.0062340065 0.036523007
000020 31 a6 46 3d 0b f6 60 bd 67 46 ee 3b e6 3e 4b bd
       0.048498336 -0.054922145 0.007271576 -0.04962053
000030 8b 4b 1b 3d 97 14 66 bd 1b cb 7b 3d 85 db 10 bd
       0.03791384 -0.05617198 0.061472993 -0.0353656
000040 86 89 ed bc fd 31 ed bc 18 8c a8 3c f2 ba 5d bd
       -0.02899624 -0.0289545 0.020574614 -0.054133363
000050 ca 51 ca bc 7e d0 95 3d c3 72 3f 3c 69 80 b4 bd
       -0.024697203 0.07315157 0.011685076 -0.08813555
000060 49 9f 4b 3d 9c 7e 65 bd 2a 7f 86 3d 1c 0f 26 bd
       0.049712453 -0.056028947 0.06567223 -0.040541753
000070 48 90 1c bc 95 ae 8c bc 9d b8 4f bd 20 8a 24 bd
       -0.009555884 -0.017173091 -0.05071317 -0.04017079
000080 13 39 c7 3c 04 f0 16 3d b1 47 f5 3c be 2e 88 bd
       0.024319207 0.03684999 0.029941412 -0.0664954
000090 70 a6 63 bd 29 e6 a7 3c a3 4f 2e 3c 54 6a aa 3c
       -0.05557865 0.020495491 0.010639104 0.020802654
0000a0 fb ed 4c bc 0a 7a 80 3d 56 71 0d bd dc 80 5a 3d
       -0.012507911 0.06273277 -0.034531914 0.053345546
0000b0 40 c3 19 bd 5c 14 f5 bc fc a8 88 bd 52 49 b9 3a
       -0.03753972 -0.029916935 -0.06672856 0.0014136231
0000c0 26 aa 87 bd df 0d 2c 3d a8 fa a6 bd 3d 51 aa 3c
       -0.0662425 0.042005416 -0.08153278 0.02079069
0000d0 a0 e2 9f bd d3 a3 80 bd 0a ef 2a bc 4d 9a a8 3d
       -0.07806897 -0.06281247 -0.010432968 0.082325555
0000e0 9e 42 1e 3d cc 21 8b bd b5 5d 6f bc d0 8c 69 3d
       0.03863775 -0.067935556 -0.014609744 0.057019055
0000f0 c2 93 ae bd 02 19 7e bd e3 a3 f1 3c 96 8b 4d 3d
       -0.08524276 -0.062035568 0.029497093 0.050181948
000100 27 da 1e 3d 54 37 ff bb cd b2 2e bd 1f 1f bd bc
       0.038782265 -0.007788578 -0.042650986 -0.023086129
000110 00 7e a4 3c 3e 8e 79 3d 08 a8 09 bc 19 5d 8d 3d
       0.020079613 0.06092667 -0.008401878 0.069025226
000120 b4 35 a3 bc c0 b4 23 3c 63 f8 8e 3d c8 8c 72 3d
       -0.019923069 0.009991825 0.0698097 0.05921629
000130 93 5c 35 bc eb 6f f5 3b 81 ec a5 b8 f9 4d 6f bd
       -0.011069435 0.0074901483 -7.9118654e-05 -0.05842397
000140 67 80 ca bd e9 d9 16 3c ff cd 1b 3c f6 0e 13 3d
       -0.09887772 0.009207227 0.0095095625 0.03590294
000150 be ed 90 3d 00 46 9f bd 2c a1 e5 3c d3 0f 5c bd
       0.07076596 -0.07777023 0.028030954 -0.05372603
000160 98 a4 21 bd 9d 5f 84 3c bf 7a 37 3d 9a 35 b9 bd
       -0.03946361 0.016158873 0.044794794 -0.09043427
000170 d4 2b ad 3c 34 73 1e bd b3 88 b0 bd 38 b4 31 bd
       0.021139063 -0.038684085 -0.08619823 -0.04338476
000180 44 8a b1 3c b3 93 b4 3d 09 58 09 bd b6 8f 5f 3d
       0.021672376 0.08817234 -0.033531222 0.054580413
000190 64 c7 81 bd 90 d6 f4 bd 05 b1 29 3b cc 10 db bb
       -0.06336859 -0.11954987 0.0025892865 -0.006685352
0001a0 ad 3b 4a 3d af ff b1 3d 47 fc 47 3d c1 7f 3c 3c
       0.049373318 0.08691346 0.048824575 0.011505068
0001b0 11 9f 07 3d 97 f8 6b bd e5 77 78 bd 47 e4 af bd
       0.033110682 -0.05761012 -0.060661215 -0.08588462
0001c0 c4 0b ff 3c da a9 6e 3d 52 18 59 3d d2 45 2b 3d
       0.03113354 0.05826745 0.05300171 0.041814633
0001d0 c3 5a d4 bb f0 d4 a1 3c 80 e4 7c 3d c5 1e 72 3d
       -0.006480546 0.019754857 0.061741352 0.059111375
0001e0 b7 af 04 bd 0e 3d d6 bc c1 54 19 3c d0 55 1c 3c
       -0.032394137 -0.02615216 0.009358586 0.009541944
0001f0 fd b8 11 3d 1f b4 61 bd 99 a8 2f 3c 40 32 ef 3c
       0.03557681 -0.055103417 0.010721349 0.029198766
000200 8e 01 9b 3d 58 d5 db bc c1 e6 24 bd f8 a4 fc bc
       0.07568656 -0.026835129 -0.040259127 -0.030840382
000210 39 99 99 bc 55 31 f0 3c 48 64 84 bd 29 bf 9b 3d
       -0.01874982 0.029320398 -0.0646444 0.0760482
000220 34 da 91 3d 4e 75 2f 3d 62 39 be 3d 93 f9 9f 3d
       0.07121697 0.04283648 0.09288289 0.078112744
000230 d5 93 02 3d 6f ea d2 3d 24 1e 90 bd 93 58 b7 ba
       0.031879265 0.10298621 -0.07036999 -0.0013988189
000240 59 5c 27 3c 5a 87 a1 bd 49 37 98 3d 21 db ba bc
       0.0102148885 -0.078871444 0.0743242 -0.022809567
000250 23 7c 1f 3d fa 0c 9a bd 18 3f e3 bc 77 f3 b3 3d
       0.038936745 -0.07522006 -0.027740046 0.087866716
000260 19 ab 20 bc 11 48 12 3c 7e a7 58 3c 59 b5 99 3d
       -0.009806418 0.008928315 0.013223527 0.075052924
000270 9e b9 2d 3d bf 93 5e 3d be ee 8b 3d 2d 9a 5a bc
       0.042413346 0.05434012 0.06832646 -0.013342422
000280 00 56 4d 3b 71 8d 46 3d a8 b9 bd bd 21 5b 64 bd
       0.0031331778 0.048474733 -0.09263927 -0.05575097
000290 fa 8c 84 3d 10 94 d0 bb f6 6f 3c bc bb 6f ff bc
       0.06472202 -0.0063653067 -0.011501303 -0.031181207
0002a0 00 34 aa 3d 15 ed 98 3d 93 74 94 bd 33 78 d7 3d
       0.083106995 0.07467095 -0.07248797 0.10520973
0002b0 75 2b 0b 3d 5e 57 35 bd 14 ab ee bc ab f8 76 bd
       0.03397699 -0.044272773 -0.02913431 -0.060295742
0002c0 ef c7 a6 bd e2 21 f5 3c d5 e0 6c 3d 7d ef 05 bd
       -0.08143603 0.029923383 0.057831604 -0.032699097
0002d0 99 3a 5e 3c f1 d6 21 bd bc a2 c0 bd db c5 14 3d
       0.013563775 -0.039511625 -0.09406039 0.036321502
0002e0 09 9f 31 bd 25 c6 7e 3d 23 52 38 bd 2d ca 89 bb
       -0.04336456 0.062200684 -0.045000207 -0.0042050094
0002f0 c8 d6 4d bc 0d 39 11 3d 1a c1 89 3d 83 52 66 3d
       -0.012563415 0.0354548 0.06726284 0.056231033
000300 ba 60 22 bd 81 0e ba bd 26 69 39 bd e0 49 8b bd
       -0.039643027 -0.09084798 -0.045266293 -0.068012
000310 af 30 97 bd 85 11 cc 3c 09 f2 d1 bd 95 95 39 3d
       -0.073823325 0.024910698 -0.10251243 0.04530867
000320 0c 8a 7b 3d 0c 71 99 3c 32 f9 76 bc c6 e5 b3 bd
       0.06141095 0.018730663 -0.015074061 -0.0878406
000330 68 c4 a5 3d fc dd 74 bd 6c 58 7e 3d 64 bc 57 3d
       0.08094102 -0.059782013 0.062096044 0.052669898
000340 50 c6 85 bb 09 fb c5 bc dc f0 0b bd db 6e 1c 3c
       -0.0040824786 -0.024167554 -0.03416525 0.009547914
000350 74 ed f9 bc 27 39 26 3d c2 4e 2c 3d 1b 21 bc 3c
       -0.030508734 0.04058185 0.042067297 0.022965005
000360 ca d9 70 3c 39 91 d5 bb 8a b3 8e bd 04 47 b8 3d
       0.014700362 -0.006517556 -0.06967838 0.0899792
000370 a0 bd 92 3d d1 7a 62 bd 98 25 f8 bc 88 ec 4e 3d
       0.07165074 -0.055292908 -0.030291364 0.050518543
000380 ef 95 7e 3d 89 f2 84 3d 05 11 0c 3d 3d a1 5d bd
       0.062154707 0.064915724 0.03419592 -0.054108847
000390 6c 02 43 bd d4 aa 9f bd 13 27 4f ba 2d b2 cb bd
       -0.04760973 -0.07796255 -0.0007902246 -0.09946094
0003a0 2c bf 54 bd e5 45 a4 3d 26 83 87 bc 71 b6 9c 3d
       -0.05194013 0.08021144 -0.016542029 0.076519854
0003b0 65 04 3c bd 53 87 95 b8 84 e6 3a 3d 86 17 37 bc
       -0.04590263 -7.13008e-05 0.045629993 -0.011175042
0003c0 a1 30 61 3d 1a 4b ab 3d 11 d2 93 bd 37 33 34 bc
       0.054978017 0.08363934 -0.07217801 -0.010998539
0003d0 18 4d 9f 3c 07 6d 00 3c 89 2b b9 3b b5 af c8 3c
       0.01944594 0.007838494 0.0056509417 0.024497846
0003e0 c9 48 5b 3d be 08 2b bd f8 92 71 3b 8a 43 98 3c
       0.05353621 -0.041756384 0.0036861282 0.018586893
0003f0 38 b7 05 bc ed 60 4a bd 33 92 ef 3c 88 db 25 3d
       -0.008161359 -0.049408842 0.029244518 0.040492564

fc1.bias f4 [96]
000000 1d 82 21 3d c4 f3 8d 3d 54 6a 09 bc 7b b5 2c bd
       0.039430726 0.0693126 -0.008387167 -0.04216526
000010 68 00 59 3d 9b 83 ba 3d 3b af 2f 3d c0 d7 f0 3b
       0.052978903 0.09107133 0.042891722 0.007349938
000020 a1 7c 25 bd 6f 1d 89 3d d9 95 17 bd 95 93 bb 3c
       -0.04040206 0.06695067 -0.03700814 0.022897521
000030 63 4d 8f 3d 65 65 73 3d c2 ac 7a bd bc 8e 9b bd
       0.06997182 0.05942287 -0.06119991 -0.07595584
000040 8e 0c 88 3c c8 f2 5a bd 6f 20 cd bd 90 82 a1 ba
       0.016607549 -0.05345419 -0.10015952 -0.0012322236
000050 44 c9 2d bc 56 e4 83 bd ba 51 e3 bc c4 05 73 3d
       -0.0106070675 -0.06440036 -0.027748931 0.05933167
000060 c0 38 07 3c a3 b4 ae bd 87 58 3c bd cc 02 d8 3b
       0.008253276 -0.085305475 -0.045982864 0.0065921303
000070 21 5f 47 bc 8e 54 8c bd 8c 70 25 bd 8c 80 2a bd
       -0.012168677 -0.06852065 -0.040390536 -0.041626498
000080 e2 3e 93 3d bd 78 a5 3c 91 e7 7d 3d 2f 70 12 3c
       0.07189728 0.020199174 0.061988417 0.008937879
000090 f8 42 a2 3d ec 2f 9f 3d 12 ec 98 bd ef c0 dd 3c
       0.079229295 0.07772812 -0.07466902 0.027069537
0000a0 59 9e 42 3d 46 1b ae 3c c7 e7 19 3d 32 9a 0d bd
       0.047514293 0.02125324 0.037574556 -0.03457088
0000b0 36 8a 6b bd 8d 69 29 bd 13 24 2f 38 94 6e db 3b
       -0.057504855 -0.041360427 4.1756848e-05 0.0066965315
0000c0 0f ce ec 3a aa 0d 87 3d 10 56 c5 3d c9 70 70 bd
       0.0018066781 0.06594403 0.09635556 -0.05870131
0000d0 f0 6e 48 3b f4 79 83 bb cc 35 c6 3d 41 7e 95 bd
       0.0030583702 -0.0040123407 0.0967823 -0.07299472
0000e0 ca e2 a1 bb 20 a1 21 bc 1c 01 42 bd 14 61 0e bc
       -0.0049403654 -0.009865075 -0.04736434 -0.008690137
0000f0 db f9 c5 bd 03 59 0b 3c de 45 1d 3c f2 c6 5e 3c
       -0.09666797 0.008505109 0.009599177 0.013597237
000100 55 7f 5d bd 7a 57 07 bd 4f a3 52 bd ca 19 21 3d
       -0.05407651 -0.03304241 -0.051425274 0.039331235
000110 f6 63 ac 3d 3b fd 90 3d 50 c4 30 3d 49 7f dc bc
       0.084175035 0.0707955 0.04315597 -0.026916163
000120 e8 87 ab 3c 20 fc e8 3c 4e 17 56 3d 34 0d 86 bd
       0.020938829 0.028440535 0.05226832 -0.06545487
000130 eb b1 50 bd 22 2e ac bd 1f fb d7 3c 23 66 84 bc
       -0.050950926 -0.08407237 0.026364861 -0.016161984
000140 32 de f2 bc fe 58 85 3d 09 8c 37 bd 1d 2e 80 3d
       -0.029646967 0.065111145 -0.044811282 0.062587954
000150 6f 85 85 bc f8 09 ae bd 51 df 2b bd 9c d1 90 3d
       -0.016298978 -0.08497995 -0.041961018 0.0707123
000160 a1 4b bc 3d 2a e7 df bc 6a 2b 98 3c c9 92 44 3c
       0.091941126 -0.027331907 0.018575389 0.011997887
000170 f8 61 49 3b 80 2d 96 bd 25 96 30 3d de d9 a6 bd
       0.003072856 -0.07332897 0.04311194 -0.081470236

fc2.weight f4 [32, 96]
000000 c8 69 7c bd 90 2d 42 bd 32 78 44 bd 93 8c c4 3d
       -0.06162432 -0.047406733 -0.04796619 0.09597125
000010 bb ca aa bd 9f 31 26 bd fd 05 be bd e8 15 26 3d
       -0.08339449 -0.040574666 -0.09278486 0.040548235
000020 03 cd b9 bd 79 23 c2 bc 84 5b 1e 3c 3b e4 18 3d
       -0.09072306 -0.023698555 0.009665374 0.037327033
000030 47 5c c7 bd aa 25 99 3d f4 3d bb 3d 92 2c 6d 3a
       -0.097343974 0.07477887 0.09142676 0.0009047474
000040 e4 b4 56 3b 47 b6 84 3d b5 02 a2 bd 04 13 b9 3d
       0.0032761628 0.06480079 -0.079106726 0.0903683
000050 c1 f3 8b bd ad 6c 89 bd 46 3f 18 3d 66 48 9d 3c
       -0.06833602 -0.067101814 0.037169717 0.019199561
000060 d0 4c 07 bd 37 83 19 3b 1d 8a 82 3c d5 2c 0e bc
       -0.03303224 0.0023424157 0.015934998 -0.008677681
000070 b1 ed b3 bd ef 75 a6 bd 58 de 99 bd 7e 70 bf bd
       -0.087855704 -0.08127963 -0.07513112 -0.09347628
000080 ab 43 99 3d cc ee 82 bc 41 c4 92 3d 09 6d c5 bd
       0.0748361 -0.015983008 0.07166339 -0.096399374
000090 d0 b8 1d bc 45 c2 e7 bb 0b 87 06 3d f9 bf 4e 3d
       -0.009626582 -0.0070727193 0.03284363 0.05047605
0000a0 97 29 6b bd b7 0f a7 bd 29 e8 59 3d 15 bb 84 3b
       -0.05741271 -0.08157294 0.05319992 0.004050622
0000b0 2b a6 99 bd 72 3d 1c 3d 5a 40 29 bb e2 10 8f bb
       -0.07502397 0.038144536 -0.002582571 -0.0043660263
0000c0 a3 66 b4 3d 2c 84 ef bc a9 39 4e 3d 20 9b 49 bd
       0.08808639 -0.02923783 0.050347958 -0.049220204
0000d0 21 19 eb bc 88 f8 e8 bd cf 15 10 3d ea 60 6c 3d
       -0.028698506 -0.113755286 0.03517705 0.057709612
0000e0 50 76 0c 3d a9 3d 57 3d 6a 3c 11 3d 80 9d be 3c
       0.03429252 0.052549038 0.035458006 0.023268461
0000f0 dc 65 71 bc 87 98 bb 3d 91 bd 09 bd 1e 0b 33 3d
       -0.014733758 0.09159952 -0.03362805 0.043711774
000100 6f c5 5e 3d 55 da 21 bc 6c b0 23 3d ae 94 98 bc
       0.054387506 -0.009878715 0.03996317 -0.018625583
000110 f2 53 83 3d ce 1e 1f bd f7 98 52 3d 86 7c ca 3c
       0.06412496 -0.038847737 0.05141541 0.02471758
000120 60 b4 5d bd 25 a1 71 3d 5e 2d e9 bc 0c bd 81 3d
       -0.054127097 0.05899157 -0.028464016 0.06334886
000130 b5 d0 ad bd 68 e8 60 bd 69 45 80 bc bd 46 47 3d
       -0.08487073 -0.05490914 -0.015658097 0.048651446
000140 2d f4 dd bd fa a0 d2 3c 45 34 56 bd 79 ec fd 3b
       -0.108375885 0.025711525 -0.05229594 0.007749137
000150 1f 34 4c 3d f3 cc ea b8 42 1a 56 3c 78 43 c7 3d
       0.049854394 -0.00011196164 0.013067784 0.097296655
000160 0e 1a 9d 3d 42 89 6f bc ea 60 37 bd 83 38 a1 3d
       0.07670985 -0.014620127 -0.04477016 0.07872107
000170 95 ba d3 3d 93 0a 26 bd 8e 43 55 bd 7a bf b0 3d
       0.10338322 -0.040537428 -0.05206638 0.08630271
000180 82 f6 6e 3d d3 35 0c 3d 96 99 5f 3d 29 f2 2c bd
       0.058340557 0.03423102 0.05458983 -0.04222313
000190 7f da 61 bc f0 78 f9 bc 34 c7 ac 3d 56 2f 98 3d
       -0.013785004 -0.030453175 0.084364325 0.074309036
0001a0 a7 84 85 3c 08 18 c9 3c c9 9f 79 3c 48 f8 2d 3c
       0.016298605 0.024547592 0.01523585 0.010618277
0001b0 2b 85 2f bc 3f 92 58 bd c2 b6 e1 ba e0 bb 80 bb
       -0.010712902 -0.052873846 -0.0017220604 -0.0039286464
0001c0 db f2 9b bc 79 a6 04 bc f0 e8 05 3b 10 16 be 3b
       -0.019036701 -0.008096331 0.002043303 0.00580097
0001d0 1b d5 2a 3d ac 41 c6 bd 95 fa 01 3c 4d e1 32 3d
       0.04170714 -0.09680495 0.007933279 0.043671895
0001e0 15 43 0a 3c 20 02 95 3d 21 ed 9b bd 9e 09 cc bb
       0.008438845 0.07275796 -0.07613588 -0.0062267324
0001f0 f6 bc 95 3d 14 91 7a 3d c6 57 0d bd 06 ba 5f 3c
       0.07311432 0.061173514 -0.034507535 0.013655191
000200 45 cd 9e bd 4c e0 4f 3d 77 f3 90 bd 90 19 c6 3c
       -0.07753996 0.050751016 -0.07077687 0.024182111
000210 44 ea 82 bd 95 95 78 bd fc 22 98 bc 93 58 e1 bd
       -0.06392339 -0.060689528 -0.01857137 -0.11003222
000220 3d b0 28 bd 08 c2 58 bd d0 1a a2 3d 21 1f a1 3d
       -0.0411837 -0.052919418 0.0791527 0.078672655
000230 cd af 3b 3d 1c e6 b2 bd fb fb 0b 3c d3 19 be 3c
       0.045821954 -0.08735296 0.008543964 0.023205673
000240 33 ff 39 bd 05 23 6a 3c 70 80 a3 bd ec 0b 8e 3c
       -0.045409393 0.014290576 -0.07983482 0.01733967
000250 62 78 f8 3c 44 7f 72 bd b7 66 2d bd 20 07 8b 3d
       0.03033084 -0.0592034 -0.042334285 0.06788468
000260 f5 7e 94 3d f9 f3 c8 bd 55 6c 8e 3d b0 c5 ea bb
       0.07250778 -0.09812159 0.069542564 -0.0071646795
000270 6c 12 07 bd 5a e9 c5 bd 5a 7f 76 3d 50 fc 84 bd
       -0.032976553 -0.09663649 0.060180046 -0.06493437
000280 88 fe 77 3b fb f4 86 3d 4c 62 9d bc 27 06 c2 bb
       0.0037840921 0.06589695 -0.01921191 -0.0059211436
000290 b4 0f 8c 3d 97 ea d1 bd 1c 34 84 bd 42 2b bd 3c
       0.06838933 -0.102498226 -0.064552516 0.023091916
0002a0 aa 5d 92 3d b5 16 a2 bd 4b 3d 5d bc ac b3 32 bd
       0.07146771 -0.07914487 -0.013503383 -0.04362838
0002b0 f4 06 67 3d 59 f0 8e 3d 51 4b e7 bc 58 78 43 bd
       0.056403115 0.069794364 -0.028234156 -0.04772219
0002c0 c0 41 9b 3d 36 74 97 bd 33 4f 2f bd 8c 0c 41 bd
       0.075809 -0.07395212 -0.04280014 -0.047131106
0002d0 45 f6 b5 bd 86 d5 a7 3d 32 40 61 bd 9c 22 2e bd
       -0.08884863 0.08195023 -0.054992862 -0.042513475
0002e0 2e 59 ba 3d 00 b2 33 3a 26 a4 a6 3d fd b0 bc 3d
       0.09099041 0.0006854832 0.081367776 0.09213445
0002f0 a5 30 88 bc 5c 40 85 bd db cb ce bc bb ff ad bc
       -0.016624758 -0.06506416 -0.02524369 -0.021240106
000300 80 d3 e3 ba c9 23 ad bc af e7 83 3d e4 d5 7a bd
       -0.0017381757 -0.021135228 0.064406745 -0.06123914
000310 af d3 b8 bb 83 d4 43 3c 40 71 9a ba b0 9a ba 3c
       -0.005640469 0.011952522 -0.0011783019 0.022778839
000320 8f 24 a5 bd db 16 81 3c 78 39 f8 bc ff 0d a4 3d
       -0.080636136 0.015757969 -0.03030084 0.08010482
000330 d7 d6 b7 3d da 44 2f bd a8 b4 98 3d bc 48 f0 bc
       0.08976524 -0.04279027 0.074563324 -0.029331557
000340 78 62 dc bd fa 05 aa bd 49 0b 83 bd 0a eb 0a bd
       -0.10760969 -0.08301921 -0.06398637 -0.033915557
000350 ab 25 55 3d 8e 6a 3c 3d 01 df 96 bd 17 01 20 bc
       0.052037876 0.046000056 -0.07366753 -0.009765885
000360 2c 53 3b bd 57 e2 e7 bc ea 4a c9 3d b6 e4 3f 3d
       -0.045733616 -0.02830617 0.09828742 0.046848975
000370 9a 7d 77 bd 68 80 46 bc d0 47 3b bc 17 75 99 bd
       -0.060422517 -0.012115575 -0.011430696 -0.07493036
000380 94 b1 48 3c 80 a7 89 3b 07 ec 9b 3d e2 52 d9 3c
       0.012249369 0.0042008758 0.07613378 0.02652878
000390 3e 53 63 3c b4 56 03 3c 2f 5e 09 3c 4d 82 2d 3c
       0.013874827 0.008016277 0.0083842715 0.010590148
0003a0 82 ff d9 bd 39 e4 6f b9 fd 08 5a 3c bc a0 2a 3d
       -0.106444374 -0.00022877836 0.013307807 0.041657194
0003b0 45 2d 59 bd 5b 69 70 bd e3 ff 02 3c fd e8 a9 bd
       -0.053021688 -0.058694225 0.007995578 -0.08296392
0003c0 e9 70 dc 3b a6 49 ed 3c 71 9c 85 bd 7b bf 54 3c
       0.006727327 0.028965782 -0.065239795 0.012985106
0003d0 c8 88 11 bd 9d 45 81 bd 37 ef ba bb ef a9 ba 3d
       -0.035530835 -0.06312106 -0.005704786 0.091144435
0003e0 d1 7c 82 bd 64 7d 9a 3d 1a bb ae bd 00 59 e9 3c
       -0.06371463 0.075434476 -0.085317805 0.028484821
0003f0 4b 9d a1 3d ac f1 6d bc ee 20 1d 3d 9d f0 53 bd
       0.078913294 -0.014522951 0.038361482 -0.05174314

fc2.bias f4 [32]
000000 f9 f7 4c bd 07 46 7c bd 39 ae 6f 3d 54 02 38 3d
       -0.050041173 -0.06159022 0.05851576 0.044924095
000010 bd 2b a6 3c 46 7c 11 bd b9 75 b2 3c f1 a0 f8 bc
       0.020284528 -0.035518907 0.02178465 -0.03035018
000020 29 a5 cb ba 06 3a a7 3d 1a 5d 81 bb bf 1e b6 bb
       -0.0015536892 0.08165364 -0.003947866 -0.0055578644
000030 09 30 c5 3d e6 fc f0 3d 64 e1 7c 3d 4f 1d d7 3c
       0.096283026 0.117669865 0.061738387 0.026259093
000040 d0 dd 20 bd ee 57 3a 3d 7a a6 dc 3b b5 48 b1 3d
       -0.039274037 0.045494013 0.0067337127 0.08656446
000050 30 9a 70 3d de fe 90 bd 52 98 7d bd 6a 75 be bd
       0.058740795 -0.07079862 -0.061912842 -0.09299739
000060 df 3a d2 bd 2e 0b 15 3d e2 7f 6b 3c ee 66 82 3d
       -0.10265135 0.036387615 0.014373751 0.063672885
000070 5d 2e 9c bd aa 01 11 bd 5a fb be 3d 8e bd 82 3d
       -0.076260306 -0.035401978 0.09325285 0.06383811

fc3.weight f4 [5, 32]
000000 88 eb a9 bd ab 60 14 3e e9 66 6d 3d d4 8c f2 39
       -0.08296877 0.14490001 0.05795947 0.00046262762
000010 ff 00 20 be 68 97 08 3d 02 ae 81 be a4 83 74 bd
       -0.1562538 0.033347517 -0.2532807 -0.059695855
000020 19 38 98 3d dd 9e b0 3d 84 a3 31 be ee 49 26 3e
       0.07432575 0.08624051 -0.17347533 0.1623914
000030 55 7a ae 3d d1 07 18 be c2 ae bc bc 17 db 8b 3b
       0.08519427 -0.14846732 -0.02303255 0.004268061
000040 36 b7 d7 bb 58 01 d0 bc e0 9c 20 be b9 77 08 3e
       -0.0065831197 -0.025391266 -0.15684843 0.1332692
000050 27 81 0d be c0 6e 0b 3b 64 d2 2b be 17 e6 c7 3b
       -0.13818799 0.002127573 -0.16779476 0.006100427
000060 94 33 d3 3d 75 4c b5 3c 52 83 12 3a 2f 75 93 3d
       0.10312572 0.022131184 0.0005589026 0.07200085
000070 94 3c 3a be 62 35 8a bd f8 78 85 bc 34 0f 30 bd
       -0.18187171 -0.06748463 -0.016293034 -0.04298325
000080 7e 4d 88 3c e2 99 42 bc 8c 51 d5 bd fa 5a 0f be
       0.016638514 -0.011877509 -0.104159445 -0.13999549
000090 83 d4 2f 3e f4 23 4a bd 6e d9 c7 be 15 b9 24 3e
       0.1717091 -0.049350694 -0.39033073 0.16086228
0000a0 3a 92 a6 bd fc 99 3c 3e c3 74 aa bd c0 85 12 be
       -0.08133359 0.18418115 -0.08323052 -0.14308834
0000b0 c6 13 cf bc ce 83 23 bd a0 1b 3a be 6a ad 3f 3d
       -0.025277983 -0.03992062 -0.181746 0.04679624
0000c0 b0 e6 27 bd fd af 9f bd af 8c 20 be 71 ba 63 3d
       -0.040991485 -0.07797239 -0.15678667 0.055597726
0000d0 ff b7 0e 3e 9e fa 0c be 2f 99 ee 3c 03 83 2f be
       0.13937376 -0.13767478 0.029125778 -0.17139821
0000e0 65 53 05 be be ea 2a 3e 76 90 98 39 3e 56 2b 3e
       -0.13020094 0.1669111 0.0002909933 0.16732118
0000f0 6f 28 df bc e0 21 27 3d b7 c1 48 bd 54 da df 3a
       -0.02724096 0.04080379 -0.049012866 0.0017078617
000100 05 1b 93 3d 95 12 04 3e a2 17 02 3e 4d ca b6 3d
       0.07182888 0.12897713 0.12704328 0.089253046
000110 4a d2 04 3e ac bf 02 be f7 aa 20 3d 63 ef dc bd
       0.12970844 -0.1276843 0.039225545 -0.10787847
000120 12 d5 02 3e 89 0f 8d 3d 3c fb ce 3d 72 b1 ae 3d
       0.12776592 0.06887729 0.10106513 0.08529939
000130 79 d2 f3 3d 92 96 d2 bd b8 8d 02 be 43 02 e0 3d
       0.11905379 -0.10282625 -0.12749374 0.109379314
000140 b8 65 37 be e7 83 d2 bd 34 59 f6 bd 5e 78 29 be
       -0.17909896 -0.102790646 -0.12028733 -0.16549823
000150 80 a8 6a 3d ab 75 01 be 9c 55 14 be 2b 6d 11 3e
       0.0572896 -0.12642543 -0.14485782 0.142018
000160 ac 29 fe bc 18 16 d7 3d 26 c9 b3 3b 6a 94 46 bd
       -0.03102573 0.10502261 0.0054866252 -0.048481382
000170 79 d5 2e 3d 46 34 a3 bc 1c 7a dd bd 7c 63 64 3d
       0.042684052 -0.019922387 -0.10814306 0.05575894
000180 69 1e 2d be 50 5b b8 3d 11 4c 38 3e 53 41 1e be
       -0.16906132 0.090017915 0.17997767 -0.15454607
000190 bf 56 06 be 1e 89 eb 3d 3a ef c7 bc 76 c5 1b 3c
       -0.13119029 0.115007624 -0.024406064 0.009507528
0001a0 3d ff 31 3e 16 b9 f7 bd 28 fe 22 3e 83 6c fa 3d
       0.17382522 -0.12095849 0.15917265 0.12227728
0001b0 25 d0 1f be 7d ff 38 bd b3 48 4a bc 30 7e b4 bd
       -0.15606745 -0.045165528 -0.012346434 -0.08813131
0001c0 8f b9 d8 bd a1 54 27 bd e4 39 d5 3c 54 ff 1e bc
       -0.105822675 -0.040852193 0.026028581 -0.00970443
0001d0 4b 14 ca bd 68 de 0a be 58 12 a9 3c 22 ac 69 bc
       -0.09867152 -0.13561404 0.02063863 -0.014262231
0001e0 a7 e3 d1 3d 0c 0a cc bd 19 c4 11 3d 10 7f f2 bc
       0.10248499 -0.09962854 0.035587404 -0.029601604
0001f0 77 a2 17 3e 68 6a 26 3d df 26 22 bd 59 f2 77 bd
       0.14808069 0.04062882 -0.03958785 -0.060533855
000200 fc 7c 93 3d 61 d6 ee 3d 02 ed 13 3e 0f 1c c5 3d
       0.07201573 0.11661983 0.1444588 0.096244924
000210 ce b5 c7 bd e0 d3 78 3c b8 2a 54 3e 48 f1 ed 3d
       -0.09751473 0.015187234 0.20719421 0.11618286
000220 75 a4 26 3e ce 91 0b be 47 22 32 bd 4d 8a 42 be
       0.16273673 -0.13629839 -0.04348972 -0.1899807
000230 6a cb 03 3e e8 e5 94 3d 12 df b8 bc 55 df 0b be
       0.12870565 0.07270414 -0.022567306 -0.13659413
000240 b8 ee ba 3c d2 12 d1 3d 72 54 4e 3d 9c 5b db 3c
       0.022818908 0.10208668 0.050373502 0.026777081
000250 bf 69 24 3d 68 95 8d 3d a6 c8 86 bd 5e d2 f6 3d
       0.04013991 0.069132626 -0.065812394 0.12051843
000260 10 f8 06 bc 30 67 53 bd 78 cb 17 be 69 19 42 bd
       -0.008237854 -0.05161208 -0.14823711 -0.047387514
000270 da 1a 84 3d 08 18 a0 bd 64 09 f8 3d 2c b1 7c bb
       0.06450434 -0.078170836 0.12111166 -0.003855775

fc3.bias f4 [5]
000000 60 c2 17 be 5a c1 b2 3a fd fb 95 3d 24 cd b7 bd
       -0.14820242 0.0013637946 0.073234536 -0.08974674
000010 61 87 0f 3e
       0.14016487
