modeltrain/cnn_model_3.pth (torch, 84983 bytes, 10 tensors)

conv1.weight f4 [16, 1, 3, 3]
-0.27109388 0.24844804 -0.086095095 0.2637827 0.2825581 -0.22299972 0.031502824 0.15619478
-0.13569072 -0.25154325 0.16627997 -0.16352779 0.07712346 -0.24011084 -0.2226362 -0.18103462
0.24442507 0.036923494 -0.046354353 -0.18627025 0.09251751 0.04893313 -0.29297063 0.30314976
0.27558067 -0.19076619 0.29499093 0.26638335 0.0154555915 0.13808726 0.13436756 0.030143542
0.055665392 0.16100863 -0.034513522 0.2688694 -0.104073554 0.20298731 -0.067886904 -0.2831175
0.15478198 -0.01825288 0.29340455 0.009016979 -0.14801036 -0.08291649 -0.12967743 0.29137936
-0.00048712982 0.12862457 0.24740879 0.27419388 0.04030694 0.071488336 0.17184646 -0.106148876
0.20195296 -0.045448836 0.18860008 -0.21916884 -0.12815167 0.3239338 0.18573177 0.1713819
0.13873507 -0.12868394 0.16917963 0.008485129 -0.17298235 -0.24847142 -0.057077944 0.04464605
0.08830991 -0.24331833 -0.2683029 -0.26758918 0.17333469 0.27290675 0.14998658 -0.24368636
-0.13605243 0.15313283 0.030081864 -0.30141068 -0.23119307 -0.2935506 -0.08061381 -0.035812162
-0.26165053 -0.25952834 0.0794919 0.05141895 0.26106164 -0.13696603 -0.2513733 0.26466775
0.07032532 -0.1355944 0.19654791 -0.14071721 -0.31246468 0.2948842 0.19585645 -0.19434054
-0.23991968 0.020831717 0.32698172 0.04650199 -0.14931755 0.08313233 0.22448052 0.11775027
-0.16487871 0.32793576 0.16002207 -0.028985426 0.27326155 -0.1121103 -0.21687026 0.2218727
0.16833045 -0.3001055 0.06263285 -0.26182684 0.29944733 -0.19517598 -0.058507863 -0.33203292
-0.24190123 -0.053573295 0.09327017 -0.07489221 0.29839742 -0.26284766 -0.07862416 0.08830238
-0.05467212 0.043270446 0.21683215 0.14469804 0.026958054 0.15776874 -0.118738055 -0.038930524
00000000: d1cc 8abe 2a69 7e3e a052 b0bd 870e 873e
00000010: 75ab 903e 0a5a 64be 1b09 013d 86f1 1f3e
00000020: 82f2 0abe 47ca 80be 4c45 2a3e d473 27be
00000030: e8f2 9d3d 9edf 75be befa 63be 2461 39be
00000040: 914a 7a3e 173d 173d 10de 3dbd a1bd 3ebe
00000050: d279 bd3d 1b6e 483d 3f00 96be 7236 9b3e
00000060: e918 8d3e 3658 43be 0d09 973e 6663 883e
00000070: 7339 7d3c bf66 0d3e a697 093e 97ef f63c
00000080: 6501 643d 72df 243e 0d5e 0dbd 40a9 893e
00000090: 8424 d5bd e8db 4f3e 4a08 8bbd c7f4 90be
000000a0: 2b7f 1e3e 1087 95bc 1f39 963e f3bb 133c
000000b0: 0790 17be 1fd0 a9bd 29ca 04be ad2f 953e
000000c0: 7565 ffb9 29b6 033e bb58 7d3e 2463 8c3e
000000d0: e418 253d 7a68 923d 85f8 2f3e 9564 d9bd
000000e0: c2cc 4e3e 8f28 3abd 6120 413e cc6d 60be
000000f0: 313a 03be a7da a53e 7830 3e3e bd7e 2f3e
00000100: 9110 0e3e b9c5 03be 6d3d 2d3e 3605 0b3c
00000110: 4922 31be 4b6f 7ebe 90ca 69bd c7de 363d
00000120: d3db b43d 7128 79be ff5e 89be 7301 89be
00000130: a67e 313e 6fba 8b3e 1596 193e eb88 79be
00000140: 5451 0bbe dace 1c3e 3e6e f63c 8052 9abe
00000150: e0bd 6cbe 444c 96be da18 a5bd c6af 12bd
00000160: 0ff7 85be e6e0 84be a6cc a23d ad9c 523d
00000170: dfa9 853e d340 0cbe 00b4 80be 8882 873e
00000180: b906 903d 42d9 0abe db43 493e 2c18 10be
00000190: 5ffb 9fbe 10fb 963e 988e 483e 3501 47be
000001a0: 81ad 75be 47a7 aa3c 266a a73e df78 3e3d
000001b0: b3e6 18be 4841 aa3d 39de 653e 0e27 f13d
000001c0: f7d5 28be 32e7 a73e d3dc 233e d872 edbc
000001d0: f0e8 8b3e 169a e5bd 3d13 5ebe 9932 633e
000001e0: d15e 2c3e 6ea7 99be a745 803d 2b0e 86be
000001f0: 2951 993e 36dc 47be f1a5 6fbd 3800 aabe
00000200: f5b4 77be ac6f 5bbd 6e04 bf3d 1661 99bd
00000210: 8cc7 983e f893 86be b405 a1bd e1d7 b43d
00000220: dfef 5fbd 5a3c 313d 3f09 5e3e b92b 143e
00000230: 23d7 dc3c 218e 213e f02c f3bd 9d75 1fbd

conv1.bias f4 [16]
0.048758585 0.2345127 0.054395802 0.25064546 -0.006767536 0.0673317 0.040300883 -0.03208547
0.14496888 0.18130969 0.2997292 -0.082838975 0.20072044 0.09506823 -0.2519407 0.053139377
00000000: 15b7 473d 1924 703e 22ce 5e3d 9a54 803e
00000010: 35c2 ddbb 34e5 893d 8a12 253d 0e6c 03bd
00000020: b972 143e 3fa9 393e 1b76 993e 7ba7 a9bd
00000030: a989 4d3e 22b3 c23d 5ffe 80be ada8 593d

conv2.weight f4 [32, 16, 3, 3]
0.046466637 0.013875416 0.030641666 -0.011824537 0.027074154 -0.052467972 -0.05366151 0.04681332
0.031426955 -0.008182027 0.014322253 0.043960694 -0.05423217 -0.051484317 -0.053420648 0.045608636
0.020104893 0.068853386 0.019964699 -0.058218397 0.0046429182 -0.010347074 0.015328159 0.03170024
0.0074515548 0.011251979 0.077028766 -0.00097360206 -0.07664921 -0.081712976 -0.06351009 0.013694969
0.0017315429 -0.0054829214 -0.049859505 -0.07079045 -0.069577016 0.012117964 -0.03695774 -0.075396076
0.030917449 0.037004914 -0.08236063 -0.06028393 -0.08581354 0.05057134 0.05828373 0.014926438
0.054016326 -0.028505633 -0.040904965 0.0723403 -0.08186804 -0.051634915 0.03246135 -0.0012609905
0.012131724 0.039631978 0.011062693 -0.046032585 0.009233099 -0.0220445 -0.051341597 0.083225906
0.011595992 -0.0027807145 0.07723571 0.07035953 -0.0036220823 0.042392302 0.020271597 -0.043368347
0.04767283 0.058184464 -0.021005161 -0.019156016 -0.068860255 0.05574173 -0.071219556 0.043890517
-0.06457986 -0.016814835 0.031641304 0.06691229 0.018828122 0.066460446 -0.07217364 0.042994
0.019430945 0.043249916 0.06408238 0.08466579 -0.008552732 -0.002314322 -0.00919973 0.026460819
0.00090415566 0.02253594 0.055489976 -0.05353459 0.05644295 -0.051968984 0.03413212 -0.01685568
0.0107043795 0.002354556 -0.06423253 -0.089574926 -0.0030250193 0.07314008 0.024034446 -0.018456446
-0.076852076 0.0016057476 0.06711616 0.048723236 -0.019408794 0.05834086 -0.057612788 0.026685426
0.04206657 -0.021274917 -0.0048766914 0.080355 -0.08295163 -0.06261569 0.04104384 -0.057429574
-0.07316151 -0.06742778 0.0006921125 -0.027096014 -0.08493356 0.047559716 0.018535256 0.03199219
0.08967305 -0.014290224 0.03725957 -0.0724068 0.055680577 -0.040612094 0.0116319405 0.00097320013
-0.02360297 0.055889502 -0.06372744 0.048565775 -0.021506017 -0.07121713 -0.060579155 0.06647103
0.068528384 0.0224882 0.05426648 0.0628147 -0.09119875 -0.023588682 -0.015584559 0.06925273
-0.0542654 0.03426802 -0.043699533 0.04399019 -0.033170685 -0.008682486 -0.06364344 -0.049213853
-0.05138294 0.03551169 -0.03147924 -0.033779223 -0.07892319 0.0076928427 0.06974188 0.08783119
-0.035285633 -0.033498347 0.067374565 -0.0767197 -0.07276491 -0.07220629 0.032664675 0.013610383
-0.01685956 0.019098831 0.003856125 0.07929311 0.05994462 -0.026008667 -0.023832265 -0.0441606
0.023667235 -0.07700406 0.039970007 -0.035564758 0.008204709 -0.043355934 -0.049130626 0.036497958
0.03274806 0.025980534 -0.05565422 -0.043889455 -0.055333335 0.06100029 -0.043647707 0.05870078
-0.025349803 0.019274987 0.03553849 -0.021861918 -0.0055521186 -0.03577664 -0.0023089787 0.04868969
-0.06668844 -0.026416251 0.036022235 0.020671401 0.010463528 0.053977586 -0.018342504 -0.063139535
0.06776611 -0.038704876 0.033738434 0.016274896 0.04324465 0.024543127 0.014543731 0.0057744347
0.021979349 0.040160302 0.059754666 -0.008196961 0.031647068 -0.017929535 0.037593804 -0.0008391403
-0.0629378 -0.06292173 0.0129849855 0.05606652 -0.033716787 -0.078682385 -0.024375673 0.044742357
-0.06719789 -0.003094414 -0.07641239 0.04746727 -0.060025122 0.05369139 0.025377747 -0.025902169
00000000: cd53 3e3d b655 633c 3b04 fb3c b4bb 41bc
00000010: 9eca dd3c a8e8 56bd 2ccc 5bbd 53bf 3f3d
00000020: 8db9 003d e90d 06bc e2a7 6a3c 2110 343d
00000030: 8d22 5ebd 38e1 52bd 9ccf 5abd 1fd0 3a3d
00000040: 04b3 a43c 0103 8d3d 028d a33c 6a76 6ebd
00000050: 9f23 983b c686 29bc f522 7b3c 1cd8 013d
00000060: 2c2c f43b 385a 383c 42c1 9d3d 5439 7fba
00000070: 43fa 9cbd 2259 a7bd 9411 82bd dd60 603c
00000080: f0f4 e23a 14aa b3bb 7b39 4cbd 95fa 90bd
00000090: 657e 8ebd 6d8a 463c 0061 17bd 4269 9abd
000000a0: 9746 fd3c 7792 173d b1ac a8bd 48ec 76bd
000000b0: 02bf afbd e523 4f3d ecba 6e3d 058e 743c
000000c0: 3940 5d3d a584 e9bc f78b 27bd 2727 943d
000000d0: 6eaa a7bd 227f 53bd 31f6 043d d247 a5ba
000000e0: 23c4 463c 2455 223d 4c40 353c aa8c 3cbd
000000f0: 6d46 173c ab96 b4bc 914b 52bd 5872 aa3d
00000100: 1efd 3d3c a63c 36bb c22d 9e3d a818 903d
00000110: 7560 6dbb 8da3 2d3d 9f10 a63c 02a3 31bd
00000120: 9644 433d d552 6e3d 0413 acbc 14ed 9cbc
00000130: 9b06 8dbd 7151 643d 8fdb 91bd 8bc6 333d
00000140: 7242 84bd 44bf 89bc 509a 013d 5009 893d
00000150: 6f3d 9a3c 6a1c 883d c6cf 93bd 7a1a 303d
00000160: a52d 9f3c d326 313d 9f3d 833d 4265 ad3d
00000170: c220 0cbc e1ab 17bb 77ba 16bc 5cc4 d83c
00000180: dc04 6d3a 4b9d b83c 7549 633d 1647 5bbd
00000190: b930 673d 6edd 54bd 1fce 0b3d ec14 8abc
000001a0: 6c61 2f3c e54e 1a3b 588c 83bd 0f73 b7bd
000001b0: 673f 46bb 77ca 953d e3e3 c43c f931 97bc
000001c0: 9f64 9dbd f377 d23a 3374 893d 0492 473d
000001d0: 31ff 9ebc d3f6 6e3d 63fb 6bbd 659b da3c
000001e0: ff4d 2c3d bc48 aebc a7cc 9fbb 2a91 a43d
000001f0: 8be2 a9bd a83c 80bd 961d 283d 463b 6bbd
00000200: b4d5 95bd 9317 8abd e26e 353a 76f8 ddbc
00000210: a5f1 adbd facd 423d 40d7 973c 3e0a 033d
00000220: 81a6 b73d 8b21 6abc 7e9d 183d 044a 94bd
00000230: 5111 643d de58 26bd e593 3e3c 5b1e 7f3a
00000240: 045b c1bc 64ec 643d 8883 82bd e8ec 463d
00000250: 632d b0bc 49da 91bd d921 78bd f721 883d
00000260: 9c58 8c3d 2c39 b83c 8746 5e3d fea4 803d
00000270: 69c6 babd 0d3d c1bc 6156 7fbc 60d4 8d3d
00000280: 6545 5ebd a05c 0c3d 48fe 32bd 0f2f 343d
00000290: fcdd 07bd fc40 0ebc 7e57 82bd 7794 49bd
000002a0: eb76 52bd b574 113d 60f0 00bd 155c 0abd
000002b0: 7ba2 a1bd 3e14 fc3b d5d4 8e3d d7e0 b33d
000002c0: ab87 10bd 9035 09bd adfb 893d 381f 9dbd
000002d0: c505 95bd e4e0 93bd 65cb 053d 15fe 5e3c
000002e0: 0f1d 8abc 2775 9c3c 0bb7 7c3b 6d64 a23d
000002f0: 7d88 753d 2110 d5bc e23b c3bc bfe1 34bd
00000300: cae1 c13c 4eb4 9dbd 97b7 233d 5aac 11bd
00000310: 0b6d 063c fe95 31bd 323d 49bd e27e 153d
00000320: d422 063d 21d5 d43c aef5 63bd 6ec5 33bd
00000330: 35a5 62bd 71db 793d f0c7 32bd 3b70 703d
00000340: 64aa cfbc 94e6 9d3c cf90 113d c417 b3bc
00000350: 8cee b5bb 878a 12bd 3c52 17bb d76e 473d
00000360: f393 88bd e566 d8bc 0d8c 133d 1257 a93c
00000370: 386f 2b3c 9a17 5d3d 0543 96bc 4d4f 81bd
00000380: f5c8 8a3d 0189 1ebd 5031 0a3d ee52 853c
00000390: 4d21 313d ab0e c93c d448 6e3c 7837 bd3b
000003a0: 090e b43c 217f 243d 4fc1 743d 8c4c 06bc
000003b0: 5ba0 013d f6e0 92bc f6fb 193d c1f9 5bba
000003c0: 89e5 80bd 1cdd 80bd fabe 543c 02a6 653d
000003d0: 9d1a 0abd 3b24 a1bd 7eaf c7bc c343 373d
000003e0: 0c9f 89bd a7cb 4abb 197e 9cbd 0a6d 423d
000003f0: e7dc 75bd 81eb 5b3d fee4 cf3c c930 d4bc

conv2.bias f4 [32]
0.061759643 -0.05329386 0.03580101 0.0022969267 -0.02201092 0.0014369033 -0.069975324 -0.06967611
-0.08573395 -0.024685686 -0.012754764 -0.019622698 0.043421138 -0.044772997 0.03695621 -0.07329522
0.024554042 -0.06306499 0.06846194 -0.0523946 -0.032733716 -0.009985264 0.06461726 -0.020519648
0.06286488 -0.021388767 -0.07544055 0.0055632186 -0.08116621 -0.044173006 0.0453311 0.02352354
00000000: aef7 7c3d aa4a 5abd 14a4 123d 0988 163b
00000010: 3f50 b4bc 7956 bc3a 394f 8fbd 59b2 8ebd
00000020: 4895 afbd a339 cabc 5cf9 50bc c8bf a0bc
00000030: 5dda 313d e463 37bd 655f 173d ce1b 96bd
00000040: 8f25 c93c 3828 81bd c635 8c3d b89b 56bd
00000050: ca13 06bd 3c99 23bc 0e56 843d d218 a8bc
00000060: 4dbf 803d 7f37 afbc 9380 9abd a94b b63b
00000070: 783a a6bd c1ee 34bd 1aad 393d 70b4 c03c

fc1.weight f4 [96, 128]
-0.054056015 -0.0013182559 0.07132469 0.04593892 -0.024653556 -0.04863565 -0.012392984 0.07093828
-0.028941546 -0.04150271 -0.007173004 -0.050557014 0.01914243 0.035147354 -0.09298329 -0.015753394
0.026020005 -0.018396894 0.040422447 0.03328469 -0.08656456 0.021398723 -0.06407276 0.056456335
0.022228187 0.0025366556 -0.091532305 7.3396695e-05 0.009024378 0.06768495 0.07147549 0.009395152
0.036792897 0.026234958 -0.007721086 0.08074917 0.030296773 -0.058375306 0.015183369 -0.08940638
-0.017987777 -0.0695981 0.017473305 -0.031351913 0.020686539 -0.0787169 0.0005354229 -0.07789595
0.036845796 -0.01984342 -0.07436956 -0.005483698 -0.08694331 -0.00010030618 -0.025411686 -0.031175759
0.03493723 0.04063925 -0.07791373 0.021524692 0.052642934 0.03442823 0.009426156 0.02058997
-0.09249983 0.05313143 -0.06634891 -0.092069864 -0.022959724 -0.014411791 0.016657745 0.012870934
0.06732371 -0.048841253 -0.068494864 0.03383355 0.06639893 -0.026874432 -0.06405815 -0.03448809
0.069652066 0.0025908512 0.03067918 0.054306757 -0.026710121 -0.017401958 -0.05743524 -0.00451213
0.021218289 0.035747044 -0.06038015 0.023465898 0.06390322 0.050001625 -0.006268635 0.07323167
0.02902551 -0.066053495 0.018908104 0.064508006 -0.017598718 0.03612718 -0.05550537 -0.0069535295
-0.0033809203 -0.0861319 0.07477028 0.0149118565 0.043351468 -0.08148313 0.073276214 -0.033160128
-0.07194215 0.024693705 0.032616254 -0.027030718 -0.024607042 0.063811526 -0.044877887 0.06422092
0.026860664 -0.08553632 -0.06746973 -0.024864808 0.035236374 -0.093784705 -0.038493223 0.07838602
0.004649326 -0.021729944 -0.012181282 -0.023544861 0.08601711 0.04166766 -0.03608262 0.0048898193
0.023390107 0.08354162 0.019916698 -0.023028301 0.009294732 -0.04903594 -0.07555731 -0.030905645
-0.008117741 -0.039359264 -0.02093451 -0.02298738 -0.056479473 0.033333626 0.012113251 0.032626003
0.0348107 -0.046226684 0.007825215 -0.030697914 -0.024588613 0.08083545 -0.02241123 0.06367878
-0.00060879864 -0.015225163 -0.029633468 -0.028477209 -0.072962694 0.04570198 -0.00740305 -0.023328533
0.03894433 -0.037110843 0.04472855 0.06358375 -0.0020659503 0.072050825 0.063407004 0.038143426
-0.027311085 -0.038324434 0.06722856 0.019870732 -0.046000987 -0.04641912 0.032957144 -0.009590457
-0.030312758 0.07198183 -0.07296598 -0.079293825 0.02968054 0.019232571 0.03337891 -0.020142272
-0.062343854 -0.05026531 0.04910384 -0.060345978 0.0196267 0.062803894 0.08891553 -0.03712347
-0.0728581 0.028970443 -0.09042635 0.020616233 -0.051939607 -0.052662544 0.011664266 -0.05544204
0.046968352 -0.016866019 0.006176143 0.098969445 -0.00069681235 0.0030170528 -0.050647557 0.018337987
0.05962853 0.08024506 -0.007897401 -0.021492286 -0.016728867 0.07347616 -0.036716394 0.022888713
0.06360439 0.042162023 0.052348234 0.073334455 -0.060249038 0.007307304 0.07705407 0.0029250488
-0.026691176 0.014352456 -0.13282844 -0.05677922 0.058701336 -0.058967765 0.059511498 0.038618978
-0.08735451 0.033355508 -0.046645783 -0.08935609 0.07698664 0.070285246 0.08671334 -0.0016805917
0.030581644 -0.0733907 -0.03792561 -0.013435465 -0.02827544 0.029392723 -0.006176735 -0.04162382
00000000: d769 5dbd 54c9 acba ae12 923d 732a 3c3d
00000010: 41f6 c9bc 2d36 47bd f10b 4bbc 1748 913d
00000020: d216 edbc bffe 29bd 850b ebbb df14 4fbd
00000030: 96d0 9c3c acf6 0f3d 066e bebd 430d 81bc
00000040: e827 d53c 15b5 96bc 0292 253d 8755 083d
00000050: c348 b1bd 604c af3c 9438 83bd c23e 673d
00000060: e317 b63c 053e 263b 4a75 bbbd 8dec 9938
00000070: fcda 133c 689e 8a3d be61 923d 20ee 193c
00000080: 26b4 163d b2ea d63c 2a01 fdbb d25f a53d
00000090: f030 f83c f21a 6fbd aac3 783c b11a b7bd
000000a0: 1a5b 93bc 7389 8ebd 2d24 8f3c dd6a 00bd
000000b0: d176 a93c 5336 a1bd 9f5b 0c3a e987 9fbd
000000c0: 9eeb 163d ab8e a2bc 114f 98bd 98b0 b3bb
000000d0: 560f b2bd 785b d2b8 2b2c d0bc 4e64 ffbc
000000e0: 571a 0f3d 5875 263d 3c91 9fbd 8d54 b03c
000000f0: 1ea0 573d 9e04 0d3d 2a70 1a3c 4cac a83c
00000100: 8d70 bdbd 58a0 593d f0e1 87bd 208f bcbd
00000110: 0816 bcbc 6f1f 6cbc d375 883c 9ce0 523c
00000120: 03e1 893d c40d 48bd 0947 8cbd 0c95 0a3d
00000130: 2afc 873d c527 dcbc eb30 83bd 6243 0dbd
00000140: bea5 8e3d 45cb 293b e752 fb3c c370 5e3d
00000150: 2fcf dabc 8d8e 8ebc 3741 6bbd 7dda 93bb
00000160: fad1 ad3c 7e6b 123d 2d51 77bd 8e3b c03c
00000170: b1df 823d 81ce 4c3d 1f69 cdbb 7cfa 953d
00000180: e8c6 ed3c 0e47 87bd 2be5 9a3c c61c 843d
00000190: 302b 90bc 18fa 133d 9959 63bd 6fda e3bb
000001a0: 6e92 5dbb ec65 b0bd 2921 993d dc50 743c
000001b0: 4f91 313d a1e0 a6bd d711 963d ead2 07bd
000001c0: 6856 93bd 744a ca3c 9f98 053d 866f ddbc
000001d0: b594 c9bc 9eaf 823d e0d1 37bd 4286 833d
000001e0: e50a dc3c ab2d afbd 922d 8abd 48b1 cbbc
000001f0: 0454 103d 3212 c0bd 12ab 1dbd da88 a03d
00000200: 6059 983b ff02 b2bc 0094 47bc 27e1 c0bc
00000210: bd29 b03d b5ab 2a3d 5fcb 13bd c73a a03b
00000220: 9c9c bf3c de17 ab3d 5828 a33c d9a5 bcbc
00000230: ee48 183c e9d9 48bd cabd 9abd d62d fdbc
00000240: 4600 05bc 2e37 21bd d97e abbc 0850 bcbc
00000250: 0557 67bd d788 083d a876 463c d8a2 053d
00000260: aa95 0e3d 3158 3dbd 5535 003c 317a fbbc
00000270: 0f6e c9bc 0e8d a53d c197 b7bc 056a 823d
00000280: c997 1fba f672 79bc e3c1 f2bc 0949 e9bc
00000290: 776d 95bd 0032 3b3d 4995 f2bb 7b1b bfbc
000002a0: 1784 1f3d 8a01 18bd 4935 373d 3238 823d
000002b0: e564 07bb 628f 933d 88db 813d 483c 1c3d
000002c0: 7fbb dfbc 15fa 1cbd 21af 893d f2c7 a23c
000002d0: 886b 3cbd fa21 3ebd 12fe 063d 4b21 1dbc
000002e0: 7652 f8bc 366b 933d 306f 95bd cd64 a2bd
000002f0: 9b24 f33c a08d 9d3c 53b8 083d 6801 a5bc
00000300: 455c 7fbd ffe2 4dbd 1c21 493d 582d 77bd
00000310: 2cc8 a03c 549f 803d 5819 b63d c80e 18bd
00000320: a136 95bd 6c53 ed3c 7331 b9bd 60e3 a83c
00000330: a0be 54bd aeb4 57bd 7a1b 3f3c 3117 63bd
00000340: e361 403d 9b2a 8abc 3e61 ca3b 7eb0 ca3d
00000350: 49aa 36ba bfb9 453b d073 4fbd 8c39 963c
00000360: 0c3d 743d 8657 a43d 1a64 01bc 9710 b0bc
00000370: fa0a 89bc ab7a 963d ee63 16bd 1c81 bb3c
00000380: 0543 823d 16b2 2c3d 1a6b 563d 6030 963d
00000390: b2c7 76bd 1c72 ef3b 86ce 9d3d 2db2 3f3b
000003a0: 74a7 dabc 9026 6b3c 2e04 08be 5491 68bd
000003b0: d070 703d 2f88 71bd 54c2 733d ef2e 1e3d
000003c0: ece6 b2bd c99f 083d a60f 3fbd 5300 b7bd
000003d0: 2cab 9d3d b6f1 8f3d c396 b13d 4d47 dcba
000003e0: 5b86 fa3c dd4d 96bd e257 1bbd 6d20 5cbc
000003f0: e5a1 e7bc 02c9 f03c 3566 cabb bd7d 2abd

fc1.bias f4 [96]
-0.09239716 0.011762968 -0.011068385 -0.061070856 0.053567737 -0.074897416 0.082407504 -0.054137416
0.0004917053 0.06361936 0.048042975 -0.012224792 -0.040978175 -0.08174369 0.0611408 -0.005904663
0.047558796 -0.08832275 0.0054885764 0.08193393 0.01076909 0.1065233 0.03188803 0.07188999
0.029069938 0.057603884 -0.025989618 -0.009372146 0.059979722 0.070179984 -0.03998353 -0.031901393
-0.091361746 0.06797422 0.045431867 -0.034704953 -0.05743815 0.09150512 -0.08661948 -0.024868269
-0.018860115 -0.079803094 -0.07078435 -0.08000985 -0.08894187 -0.08215313 0.089842446 -0.0697698
-0.02763842 -0.021694863 -0.0649922 0.03407771 -0.05995728 -0.07916491 -0.028187187 0.03546738
-0.070267744 0.0007860621 0.012161285 0.033118945 0.06562221 -0.033086818 0.075531036 -0.006958678
-0.080953754 -0.0120254075 -0.057107583 -0.06503247 -0.0670343 -0.062105402 -0.007876103 0.057715453
-0.014579616 -0.07589997 0.020734238 -0.004309012 0.010956081 -0.012646489 -0.060056247 0.009932544
0.01047262 -0.050273832 0.049436636 -0.035634972 0.009568589 0.0647173 -0.027896736 -0.047475178
-0.00088514487 -0.0626731 -0.022681264 0.08208025 -0.019507585 0.0032412617 -0.049095154 0.06552998
00000000: b93a bdbd 77b9 403c 2c58 35bc 6f25 7abd
00000010: d869 5b3d d163 99bd 44c5 a83d 32bf 5dbd
00000020: c9e5 003a de4a 823d b6c8 443d 7e4a 48bc
00000030: bbd8 27bd 3c69 a7bd c76e 7a3d e77b c1bb
00000040: 03cd 423d 8fe2 b4bd 84d9 b33b facc a73d
00000050: d670 303c e328 da3d 069d 023d 0f3b 933d
00000060: 1424 ee3c 0df2 6b3d 2ee8 d4bc a18d 19bc
00000070: 4cad 753d 86ba 8f3d c5c5 23bd 09ab 02bd
00000080: de1b bbbd 1136 8b3d c416 3a3d c826 0ebd
00000090: 4444 6bbd 0967 bb3d 8e65 b1bd 8ab8 cbbc
000000a0: 8780 9abc ce6f a3bd 63f7 90bd 34dc a3bd
000000b0: 2827 b6bd e63f a8bd 51ff b73d 78e3 8ebd
000000c0: f869 e2bc 6db9 b1bc a11a 85bd 1295 0b3d
000000d0: c495 75bd 3621 a2bd d1e8 e6bc 3e46 113d
000000e0: 89e8 8fbd bc0f 4e3a 2040 473c bba7 073d
000000f0: f064 863d 0b86 07bd 04b0 9a3d 9f05 e4bb
00000100: 15cb a5bd 3706 45bc a4e9 69bd be2f 85bd
00000110: 4749 89bd 3c62 7ebd c50a 01bc 0a67 6c3d
00000120: 57df 6ebc 7271 9bbd d9da a93c 9d32 8dbb
00000130: 2281 333c 3833 4fbc 8afd 75bd 1cbc 223c
00000140: 5a95 2b3c efeb 4dbd 127e 4a3d faf5 11bd
00000150: 92c5 1c3c 818a 843d b287 e4bc 5575 42bd
00000160: 1109 68ba c15a 80bd 0fce b9bc b119 a83d
00000170: 5fce 9fbc 596b 543b 0018 49bd 9534 863d

fc2.weight f4 [32, 96]
0.0005532534 0.0014514072 0.051346224 0.07959616 -0.07961699 -0.034638237 -0.034170534 -0.095315754
-0.058125246 0.016993303 -0.05723988 -0.08060346 -0.079419434 -0.08926985 0.028861418 0.047448583
-0.04196822 0.034941513 0.03318088 0.104435526 -0.07005894 -0.036739524 0.102210596 0.02657012
-0.08110432 0.03017247 -0.043308802 0.07574333 0.031216523 0.08938821 -0.09188253 -0.045723066
-0.032609537 -0.062716454 0.087320894 -0.020054048 -0.11041187 0.08432781 0.021665342 0.09135529
0.057294242 -0.016283043 -0.092236765 -0.029123858 0.081316166 -0.098384455 -0.08435256 -0.07159402
0.07247285 0.07340184 -0.0024489274 -0.0023499613 -0.07133246 0.014037194 0.071076535 0.05186718
-0.06378151 -0.09126906 0.016655885 0.0930844 -0.07711067 0.06523697 0.022068528 0.029647995
0.07610652 -0.09831627 -0.038109247 0.09361491 0.07508131 0.06152207 0.078330174 -0.078419454
0.027223654 0.017154582 0.1066962 -0.05975748 0.087733984 -0.029374361 -0.0006060234 -0.05621794
0.08529076 -0.07529461 0.043757137 -0.07227769 0.08525108 0.072541915 0.01547952 -0.05196833
0.0013233703 -0.08546239 -0.094470225 0.08805218 -0.015676433 -0.093219936 0.047712956 -0.02757699
-0.08827584 -0.0018579973 -0.011072227 -0.03197874 -0.043704797 -0.100609064 0.060783327 0.0004737612
-0.040985055 -0.048742443 -0.053827323 -0.098473944 -0.10162268 0.054391228 0.08612381 0.07370551
-0.004707866 -0.04899822 -0.0028227116 -0.040962577 0.05419823 -0.094730444 0.083295114 0.05802625
0.014400586 0.015592113 0.09323976 -0.09222182 0.066820815 -0.07336623 0.043496743 -0.034958538
0.059069507 -0.08106711 -0.10201943 -0.013071481 -0.09760327 0.15929256 0.034396008 0.08854267
-0.04684014 -0.046243895 -0.10057373 0.08074647 0.087684706 0.08370788 -0.042491022 0.07702579
0.07280716 -0.07938366 -0.09326021 -0.08780405 -0.073245026 0.032565292 -0.09047963 0.096142024
0.019643832 0.08680862 -0.086412124 -0.026682349 -0.096200235 0.059439752 0.04111055 -0.0008182529
-0.012620861 -0.10747948 -0.013222513 -0.08021907 -0.06424523 0.08838286 0.06952362 -0.06404295
-0.006614345 0.04578322 0.012134942 -0.012191346 -0.09578543 0.01905366 0.036585778 -0.09616273
0.0705153 0.055551067 -0.04472648 0.09289203 -0.04187821 0.07872281 -0.09544602 -0.04353872
-0.022882642 -0.04955468 0.061106432 0.031920746 -0.05784156 -0.08730245 -0.08532061 0.020192385
-0.04349204 -0.08421978 -0.030497648 0.013861097 -0.00870492 0.051788583 0.09095441 0.03465192
-0.094046004 -0.022929702 0.05931017 0.047712475 -0.069226764 -0.09735132 -0.08852704 0.073088825
-0.011224905 0.041631933 0.006339199 0.012759789 0.051588412 0.006495944 0.013834582 -0.036778986
0.05330903 -0.040192634 -0.10029685 0.092405185 -0.002477847 0.06173811 -0.05356198 -0.07688776
0.07981757 0.07324696 -0.0827594 0.023242244 0.09281854 -0.11383583 -0.05685245 -0.021066712
-0.08515929 0.10749547 0.040646497 -0.04417039 -0.04615916 0.0992091 0.0037273793 0.019542828
-0.052634757 0.09454788 0.039993003 0.035302017 0.0014291556 -0.030093066 0.021930903 -0.09497699
0.06340517 0.064925045 -0.008916318 0.069333114 0.024389196 -0.043101534 0.039701264 -0.014693843
00000000: 3508 113a 253d be3a 6b50 523d 5003 a33d
00000010: 3c0e a3bd d3e0 0dbd 67f6 0bbd e834 c3bd
00000020: bd14 6ebd 8a35 8b3c 5d74 6abd 6d13 a5bd
00000030: a8a6 a2bd 1cd3 b6bd c86e ec3c 7259 423d
00000040: dee6 2bbd d51e 0f3d ade8 073d 4be2 d53d
00000050: 107b 8fbd 2f7c 16bd ca53 d13d 95a9 d93c
00000060: 061a a6bd 412c f73c 9264 31bd 521f 9b3d
00000070: cbb9 ff3c 2a11 b73d e82c bcbd 1c48 3bbd
00000080: 9491 05bd 7c71 80bd 4cd5 b23d 6348 a4bc
00000090: 9e1f e2bd 0fb4 ac3d 847b b13c 7b18 bb3d
000000a0: 5ead 6a3d 0464 85bc a1e6 bcbd 2895 eebc
000000b0: 1789 a63d ca7d c9bd 09c1 acbd e39f 92bd
000000c0: a56c 943d b453 963d 2f7e 20bb cf01 1abb
000000d0: c116 92bd 42fc 653c 9390 913d ae72 543d
000000e0: e19f 82bd 46eb babd ec71 883c 09a3 be3d
000000f0: 33ec 9dbd f69a 853d 0fc9 b43c 5ae0 f23c
00000100: bcdd 9b3d 0a5a c9bd 7118 1cbd 2db9 bf3d
00000110: 3bc4 993d 91fe 7b3d 926b a03d 619a a0bd
00000120: 2404 df3c c487 8c3c 8a83 da3d 42c4 74bd
00000130: e0ad b33d 80a2 f0bc 8bdd 1eba c844 66bd
00000140: ecac ae3d 0f34 9abd af3a 333d 5306 94bd
00000150: 1e98 ae3d db90 943d d09d 7d3c bedc 54bd
00000160: f074 ad3a e806 afbd 9b79 c1bd b454 b43d
00000170: dd6b 80bc 18ea bebd a96e 433d 24e9 e1bc
00000180: f7c9 b4bd 0b88 f3ba 4968 35bc 24fc 02bd
00000190: cd03 33bd 200c cebd f0f7 783d 2763 f839
000001a0: f2df 27bd 28a6 47bd 0a7a 5cbd b5ac c9bd
000001b0: 8d1f d0bd 56c9 5e3d ae61 b03d eaf2 963d
000001c0: 7144 9abb 5cb2 48bd 3efd 38bb 60c8 27bd
000001d0: f7fe 5d3d 0902 c2bd a196 aa3d efac 6d3d
000001e0: 6ff0 6b3c 1076 7f3c 7df4 be3d cbde bcbd
000001f0: 5ad9 883d 0941 96bd a429 323d af30 0fbd
00000200: def2 713d 8306 a6bd 90ef d0bd c429 56bc
00000210: 39e4 c7bd 971d 233e d4e2 0c3d dc55 b53d
00000220: 72db 3fbd 3d6a 3dbd 9af9 cdbd 685e a53d
00000230: 0a94 b33d 096f ab3d 110b 2ebd b3bf 9d3d
00000240: ec1b 953d e693 a2bd 35ff bebd 9cd2 b3bd
00000250: 7d01 96bd 2f63 053d 624d b9bd 1ce6 c43d
00000260: 1aec a03c b8c8 b13d d7f8 b0bd f194 dabc
00000270: a104 c5bd 1977 733d 8963 283d 0680 56ba
00000280: bac7 4ebc 341e dcbd 3da3 58bc e549 a4bd
00000290: 0193 83bd 1302 b53d 6662 8e3d f328 83bd
000002a0: 26bd d8bb 3087 3b3d a3d1 463c 36be 47bc
000002b0: 272b c4bd 6c16 9c3c f8da 153d f7f0 c4bd
000002c0: 536a 903d 8489 633d 1d33 37bd 2d3e be3d
000002d0: 7c88 2bbd 6d39 a13d 3479 c3bd a855 32bd
000002e0: 6174 bbbc d9f9 4abd bd4a 7a3d 54bf 023d
000002f0: 46eb 6cbd a0cb b2bd 92bc aebd 806a a53c
00000300: b624 32bd 6c7b acbd 34d6 f9bc a819 633c
00000310: 159f 0ebc 4420 543d 4e46 ba3d 2cef 0d3d
00000320: 319b c0bd 12d7 bbbc 39ef 723d 286e 433d
00000330: c3c6 8dbd 2160 c7bd aa4d b5bd 98af 953d
00000340: aae8 37bc 3f86 2a3d 0eb9 cf3b 6f0e 513c
00000350: 5f4e 533d eedb d43b 71aa 623c 90a5 16bd
00000360: 925a 5a3d 08a1 24bd 6f68 cdbd ee3e bd3d
00000370: 6063 22bb 1ae1 7c3d cf63 5bbd 5477 9dbd
00000380: 6577 a33d 8102 963d c37d a9bd 8566 be3c
00000390: a617 be3d c222 e9bd 1dde 68bd 1994 acbc
000003a0: fe67 aebd 9626 dc3d f17c 263d 03ec 34bd
000003b0: 6311 3dbd 242e cb3d 0c47 743b 4818 a03c
000003c0: 8b97 57bd 52a2 c13d b4cf 233d d998 103d
000003d0: 8152 bb3a bc85 f6bc 70a8 b33c 4c83 c2bd
000003e0: 92da 813d 6cf7 843d c015 12bc 85fe 8d3d
000003f0: dacb c73c 3c8b 30bd cb9d 223d 72be 70bc

fc2.bias f4 [32]
-0.0007361548 0.0660975 0.08975355 0.092427075 -0.027000742 0.008499793 -0.051986285 -0.06388221
0.014743384 0.062155385 -0.039171092 0.05650122 0.0902785 -0.060440887 -0.017738983 0.04886432
-0.043736126 -0.079820596 0.020357115 0.03910444 0.08748289 -0.09944475 -0.007635028 -0.06498222
-0.005227958 0.06664041 -0.09488616 -0.08386508 0.015597239 0.09943802 -0.038176287 -0.06339317
00000000: 83fa 40ba 205e 873d b6d0 b73d 684a bd3d
00000010: a930 ddbc b742 0b3c 92ef 54bd add4 82bd
00000020: 3c8e 713c a596 7e3d de71 20bd d36d 673d
00000030: efe3 b83d dd90 77bd 5851 91bc f425 483d
00000040: a724 33bd fb78 a3bd f7c3 a63c fa2b 203d
00000050: 3b2a b33d b0a9 cbbd 422f fabb 6615 85bd
00000060: 4a4f abbb c47a 883d ad53 c2bd 74c1 abbd
00000070: 908b 7f3c 29a6 cb3d bd5e 1cbd 47d4 81bd

fc3.weight f4 [4, 32]
-0.047839936 -0.027197378 -0.034128852 0.043121006 0.047387462 -0.009279419 -0.0031169504 0.13516809
0.11733197 -0.09911212 0.14617151 -0.056955602 -0.16646753 0.047745552 0.027137006 -0.1487046
0.05582728 -0.102914594 0.008766917 0.15290958 0.009430386 -0.12912954 -0.02436566 0.13928507
-0.03314769 0.12420855 -0.049252246 -0.061149035 0.027236244 0.15845723 0.13498609 -0.045790974
-0.14938086 0.12717013 -0.00463239 0.03160951 -0.123677 0.031208856 0.07368408 -0.0965121
-0.034801003 0.13684715 0.09336215 0.036008626 -0.018502029 0.08974844 -0.16494304 -0.17432399
0.032583497 0.14250988 0.1602444 0.025901474 0.01949078 0.023263339 0.100514725 0.0031237304
-0.1206589 -0.121579334 0.111686595 0.12510128 -0.12304666 0.13330022 0.0035547016 -0.03614132
0.18166329 -0.0804708 -0.0786216 -0.14132403 0.084929295 -0.15355672 0.005570248 -0.022523439
0.06852608 -0.03297146 -0.113899305 -0.088698715 -0.01816925 -0.17328294 -0.04639035 0.11176859
0.15005837 -0.17260621 -0.033287626 -0.06791464 0.085041024 0.112228505 -0.116984084 -0.09265291
0.11531754 -0.023653127 0.040136125 -0.054596007 -0.0769566 0.15399154 0.11472356 -0.04067543
0.08611531 -0.103011824 -0.032289397 -0.03156898 -0.034492593 0.004952188 -0.120217584 -0.10348367
-0.05946444 -0.1064995 0.052323323 -0.10272162 -0.14568713 -0.15439168 0.10291305 -0.022087594
0.055162888 0.1119389 -0.1201153 -0.13199773 0.15094176 0.11121966 -0.12794656 0.10202362
-0.022466647 -0.011086846 -0.07565999 -0.15286511 -0.040810067 0.110480525 -0.099847496 0.020303736
00000000: cff3 43bd 09cd debc b2ca 0bbd a79f 303d
00000010: 5b19 423d b408 18bc c045 4cbb 8169 0a3e
00000020: be4b f03d 4cfb cabd fcad 153e 474a 69bd
00000030: 7776 2abe d790 433d 6d4e de3c 0546 18be
00000040: 25ab 643d e3c4 d2bd 1da3 0f3c 5494 1c3e
00000050: e881 1a3c 893a 04be 7e9a c7bc bfa0 0e3e
00000060: dfc5 07bd 0d61 fe3d b9bc 49bd 6977 7abd
00000070: 8b1e df3c 9d42 223e cb39 0a3e 518f 3bbd
00000080: 4cf7 18be e338 023e 4ecb 97bb f978 013d
00000090: 5e4a fdbd b7a9 ff3c aee7 963d 23a8 c5bd
000000a0: 7f8b 0ebd a921 0c3e a834 bf3d c87d 133d
000000b0: 9191 97bc 08ce b73d d4e6 28be fd81 32be
000000c0: 4676 053d 1cee 113e 1c17 243e 542f d43c
000000d0: 21ab 9f3c c292 be3c aada cd3d 80b7 4c3b
000000e0: 031c f7bd 96fe f8bd f1bb e43d 8d1a 003e
000000f0: e3ff fbbd da7f 083e fff5 683b ec08 14bd
00000100: f105 3a3e e0cd a4bd 5d04 a1bd 3fb7 10be
00000110: 69ef ad3d f93d 1dbe a086 b63b 1383 b8bc
00000120: 6757 8c3d 150d 07bd 0a44 e9bd aca7 b5bd
00000130: aed7 94bc 1571 31be cf03 3ebd eee6 e43d
00000140: e7a8 193e afbf 30be 9b58 08bd d516 8bbd
00000150: fd29 ae3d 0fd8 e53d 5a95 efbd cfc0 bdbd
00000160: 9a2b ec3d 34c4 c1bc c765 243d 10a0 5fbd
00000170: 6c9b 9dbd f5af 1d3e 30f4 ea3d 489b 26bd
00000180: 395d b03d ddf7 d2bd e341 04bd 7a4e 01bd
00000190: 1b48 0dbd f745 a23b a334 f6bd 3fef d3bd
000001a0: fc90 73bd 691c dabd fb50 563d b65f d2bd
000001b0: 022f 15be da18 1ebe 14c4 d23d 0bf1 b4bc
000001c0: 7bf2 613d 3940 e53d 03ff f5bd 6a2a 07be
000001d0: 7a90 1a3e 22c7 e33d 6c04 03be c2f1 d03d
000001e0: f90b b8bc 9aa5 35bc a0f3 9abd ac88 1cbe
000001f0: 7528 27bd 9d43 e23d d87c ccbd 0554 a63c

fc3.bias f4 [4]
-0.0458233 -0.17316703 0.095933035 -0.15698126
00000000: 36b1 3bbd b352 31be 8a78 c43d b2bf 20be
