junction finland/cnn_model.pth (torch, 84959 bytes, 10 tensors)

conv1.weight f4 [16, 1, 3, 3]
0.15748201 0.1554757 -0.7302191 0.38559827 0.23106061 0.24131712 0.5155904 -0.2208057
0.02740196 0.5102624 -0.27886352 0.015613531 0.4672436 -0.25967392 0.23621152 -0.5263943
-0.5629039 0.10832227 -0.16994934 -0.40138367 0.3847026 0.03006683 0.26674253 0.14435463
0.13979648 -0.03055264 0.5587605 0.021657428 0.25831345 -0.4898142 0.70090955 -0.6578811
0.17936192 0.116944894 -0.27805156 0.4279461 -0.7236103 -0.31265643 -0.2843231 0.09835026
-0.05385123 0.17148557 0.4148912 0.20437032 -0.3185252 -0.23998077 0.30391073 -0.46792626
0.3773356 0.3124808 0.05921601 -0.26203173 0.48688707 -0.32549554 -0.2916676 0.26126105
-0.14165008 -0.22119719 -0.36555135 -0.31516454 0.23465541 0.21064262 -0.67922705 -0.3901199
-0.043138478 -0.7390807 0.27481627 -0.08934473 0.43735382 -0.1935144 0.2964288 0.6346326
-0.4016145 0.39194494 -0.5680502 -0.36866397 -0.31235257 0.42823455 -0.1643021 -0.30403888
-0.2644354 0.6032151 0.118740045 0.35619268 0.33931667 0.31867388 0.25078872 -0.51633227
0.15690209 0.48369327 -0.37834188 -0.123260126 0.5363695 -0.13057944 -0.5340214 -0.11865019
-0.14417072 0.036780898 0.48240897 -0.17974041 -0.6098218 -0.012869313 -0.1100424 -0.63351285
0.13764296 0.009111281 0.51349163 -0.52092826 0.6945256 -0.3922498 -0.018205205 0.23949748
0.13816664 0.48784852 0.30312854 -0.37129858 0.39476532 -0.17382593 0.4554319 0.44421056
-0.50110364 -0.3263026 -0.5798604 0.38084275 0.22899885 0.38952872 0.0681346 -0.5669356
0.11376517 0.27335152 0.3308399 0.10119717 -0.14925458 0.7694692 0.16566424 0.38597253
0.118690185 -0.43932995 0.0632136 -0.2862314 -0.51345927 0.37570527 0.13668394 0.03938538
00000000: f742 213e 0635 1f3e a4ef 3abf 236d c53e
00000010: 279b 6c3e d61b 773e bcfd 033f e41a 62be
00000020: 137a e03c 8fa0 023f 33c7 8ebe e5cf 7f3c
00000030: 8e3a ef3e fbf3 84be 6fe1 713e c7c1 06bf
00000040: 781a 10bf 11d8 dd3d 3307 2ebe 2982 cdbe
00000050: bdf7 c43e b64e f63c 7a92 883e b3d1 133e
00000060: cf26 0f3e 8849 fabc ee0a 0f3f eb6a b13c
00000070: a941 843e edc8 fabe cf6e 333f e56a 28bf
00000080: a7aa 373e ce80 ef3d c65c 8ebe c01b db3e
00000090: 863e 39bf 8114 a0be cc92 91be dc6b c93d
000000a0: 1b93 5cbd ea99 2f3e 9f6c d43e 7446 513e
000000b0: bc15 a3be 85bd 75be 309a 9b3e 0894 efbe
000000c0: 2232 c13e 7cfd 9f3e 7d8c 723d 0629 86be
000000d0: 4349 f93e 5aa7 a6be 7555 95be 02c4 853e
000000e0: b80c 11be 8481 62be 8c29 bbbe 3f5d a1be
000000f0: 8249 703e b3b2 573e d3e1 2dbf ccbd c7be
00000100: f9b1 30bd 6534 3dbf b8b4 8c3e 5ffa b6bd
00000110: d7ec df3e a428 46be 84c5 973e 4877 223f
00000120: 6aa0 cdbe 02ad c83e bd6b 11bf 86c1 bcbe
00000130: adec 9fbe 8f41 db3e cf3e 28be fcaa 9bbe
00000140: 1464 87be 4e6c 1a3f fb2d f33d e35e b63e
00000150: eaba ad3e 3929 a33e 6167 803e 5a2e 04bf
00000160: f1aa 203e a5a6 f73e 07b6 c1be ce6f fcbd
00000170: 834f 093f 9eb6 05be a0b5 08bf dffe f2bd
00000180: 7da1 13be 91a7 163d 4ffe f63e df0d 38be
00000190: 481d 1cbf d0d9 52bc e95d e1bd e62d 22bf
000001a0: 47f2 0c3e 7b47 153c 3074 033f 8e5b 05bf
000001b0: 6ecc 313f f7d4 c8be 1523 95bc d43e 753e
000001c0: 8e7b 0d3e 48c7 f93e aa33 9b3e d91a bebe
000001d0: ae1e ca3e 6dff 31be 5f2e e93e 916f e33e
000001e0: 5448 00bf 2211 a7be bb71 14bf d2fd c23e
000001f0: ad7e 6a3e 4f70 c73e 278a 8b3d b122 11bf
00000200: b7fd e83d bbf4 8b3e d963 a93e 7640 cf3d
00000210: 31d6 18be effb 443f e3a3 293e 319e c53e
00000220: d713 f33d dbef e0be 2276 813d ec8c 92be
00000230: 1172 03bf 715c c03e e0f6 0b3e 9052 213d

conv1.bias f4 [16]
-0.5205609 -0.23276976 -0.20586066 -0.5415084 -0.20171261 -0.37835774 -0.20731713 -0.5138782
-0.12156934 -0.41743216 -0.26034865 -0.4678335 -0.52742654 -0.61226964 -0.09896988 -0.6386825
00000000: 7b43 05bf 325b 6ebe 23cd 52be 4ba0 0abf
00000010: c08d 4ebe 1bb8 c1be f14a 54be 868d 03bf
00000020: 59f9 f8bd abb9 d5be 6b4c 85be df87 efbe
00000030: 6d05 07bf b4bd 1cbf b8b0 cabd b280 23bf

conv2.weight f4 [32, 16, 3, 3]
0.048998535 0.10232387 0.30122575 0.29529512 0.07552942 0.07093575 -0.09021361 0.13719699
0.098802105 0.07666696 -0.18342698 -0.0077812187 0.020238448 0.027740689 -0.13719046 -0.25272608
0.0018971968 0.12555976 0.0023648608 0.0038678758 -0.42656648 0.17332202 -0.13023113 0.10363091
-0.09166447 0.16415164 0.11869307 0.14941297 -0.45309976 0.22157717 -0.2771376 -0.28854647
0.14695916 0.17045806 -0.216318 -0.28454912 0.038653575 0.055473495 -0.31551924 -0.29519477
0.0922259 0.06286693 0.34334472 0.01578472 -0.373194 0.31645605 0.28023842 0.35774344
0.1676495 0.1045923 0.09161601 -0.38336766 0.12939751 0.039764408 0.07640072 0.06912833
0.12226407 -0.09789407 0.08464795 -0.2066359 0.10166618 0.073939316 -0.053351432 -0.15129778
-0.12669483 -0.5040024 0.028289 0.23785509 0.24009147 -0.015581552 -0.059195645 -0.15497904
0.20089246 -0.07679758 0.32755923 -0.08077973 -0.23677626 0.026098022 0.1410395 0.20971172
0.04142432 0.21713711 -0.17548124 -0.41014805 -0.20377868 0.07390175 -0.5127583 -0.19596973
-0.11824789 0.05397281 0.11610148 -0.017858509 0.0383186 -0.03344913 -0.37155408 -0.14845595
0.22496825 0.29028788 0.34299242 0.33478618 -0.2896435 0.02053623 -0.0142700095 0.007685815
0.009601454 0.103452645 0.31101286 -0.14238334 0.19632283 0.08739389 -0.0335287 -0.07372585
0.10943715 -0.046323396 -0.6236406 -0.33048505 0.10126929 0.46769556 0.19079033 0.096828826
0.04947573 0.12962916 -0.23912217 -0.27621397 -0.040290024 0.17568704 0.23862588 0.012014226
-0.23075877 -0.17834921 0.019411683 -0.29970908 0.11686691 -0.34561545 -0.054976296 -0.20928566
-0.1153678 0.08523269 0.05684145 -0.011455269 0.1563887 -0.103260495 0.03180197 -0.29770842
0.09752502 0.0058989516 -0.1755814 -0.24637052 0.015069287 0.046865135 -0.30825052 -0.02742839
0.16118257 0.10700656 0.29331797 -0.20021698 -0.53674096 0.0008001974 0.13978164 0.49482903
-0.18457575 -0.27280506 -0.19955601 0.13741519 -0.3180441 -0.07187773 -0.23865901 0.02538198
0.1975941 0.10090355 -0.104809865 -0.15615198 0.25240865 0.11667457 -0.23283891 0.14608277
0.0652074 0.3075813 0.13160235 0.031228071 -0.09084794 0.38772035 0.17922647 -0.13429718
0.09132285 0.014130028 -0.01479437 -0.029939989 0.010944934 0.09895149 0.011694664 0.23019955
0.23929468 -0.021420829 -0.24918932 -0.13390096 0.28205445 -0.14143677 0.024661414 -0.16559504
0.33209506 -0.08201113 0.014390796 0.23820513 0.22792292 0.073688485 -0.082844324 0.015442507
0.15681015 -0.14984316 -0.17633592 -0.16828398 -0.26732367 0.22884093 0.08578892 -0.0463124
0.22474067 0.0024703613 0.07607943 0.06645109 -0.23721755 -0.093655705 0.6223443 -0.17892534
-0.069506794 -0.1771652 0.019710753 0.14035554 -0.31183246 0.11145553 0.115022555 0.10484404
-0.51185024 -0.026634278 -0.27030382 -0.30788046 -0.113362625 0.112574615 0.2662057 0.28841123
0.23303102 -0.19105129 -0.1049261 0.05099645 -0.12931423 -0.06289718 -0.24056566 -0.33467478
0.0036242304 -0.007091518 0.099101774 -0.16705503 -0.11888564 -0.18486194 -0.22931306 0.11586428
00000000: b0b2 483d 2d8f d13d 433a 9a3e ec30 973e
00000010: 2baf 9a3d c346 913d eac1 b8bd 5e7d 0c3e
00000020: c258 ca3d 9103 9d3d 48d4 3bbe 98f9 febb
00000030: 1acb a53c 7140 e33c a87b 0cbe 5065 81be
00000040: 5cab f83a bd92 003e c8fb 1a3b 307c 7d3b
00000050: ec66 dabe 547b 313e 4f5b 05be 713c d43d
00000060: 95ba bbbd 5e17 283e 5a15 f33d b7ff 183e
00000070: b1fc e7be 20e5 623e fbe4 8dbe 5dbc 93be
00000080: 767c 163e 8f8c 2e3e 7782 5dbe 6cb0 91be
00000090: 3653 1e3d 2d38 633d bd8b a1be c523 97be
000000a0: efe0 bc3d 61c0 803d e1ca af3e f54e 813c
000000b0: 4913 bfbe 8706 a23e 697b 8f3e 262a b73e
000000c0: 4fac 2b3e 7d34 d63d 2da1 bb3d c448 c4be
000000d0: c880 043e 01e0 223d fb77 9c3d 2793 8d3d
000000e0: 9665 fa3d b07c c8bd e85b ad3d 5d98 53be
000000f0: 5c36 d03d 7f6d 973d 0887 5abd ceed 1abe
00000100: 4abc 01be 4d06 01bf 55be e73c 4990 733e
00000110: 8ada 753e c449 7fbc 2277 72bd d3b2 1ebe
00000120: c1b6 4d3e 0d48 9dbd d8b5 a73e d86f a5bd
00000130: 7a75 72be 85cb d53c a96c 103e abbe 563e
00000140: 8cac 293d 3159 5e3e 5bb1 33be edfe d1be
00000150: 5cab 50be cd59 973d 2144 03bf 4aac 48be
00000160: f32b f2bd 9812 5d3d 9dc6 ed3d 024c 92bc
00000170: f7f3 1c3d f401 09bd 563c bebe d604 18be
00000180: 145e 663e 9da0 943e b49c af3e 1869 ab3e
00000190: 274c 94be 993b a83c c2cc 69bc 4ad9 fb3b
000001a0: 6b4f 1d3c fbde d33d 143d 9f3e f0cc 11be
000001b0: da08 493e 91fb b23d 6455 09bd 94fd 96bd
000001c0: 9620 e03d 9abd 3dbd e9a6 1fbf 5635 a9be
000001d0: 4666 cf3d cb75 ef3e 8a5e 433e 314e c63d
000001e0: 10a7 4a3d 82bd 043e 71dc 74be eb6b 8dbe
000001f0: 2707 25bd 4ee7 333e 585a 743e 51d7 443c
00000200: 074c 6cbe 2da1 36be 4005 9f3c 7873 99be
00000210: eb57 ef3d 82f4 b0be d32e 61bd fb4e 56be
00000220: f445 ecbd 7a8e ae3d 95d2 683d e1ae 3bbc
00000230: 5c24 203e 3d7a d3bd c842 023d 3d6d 98be
00000240: 33bb c73d fe4b c13b 9ccb 33be 8e48 7cbe
00000250: 2ce5 763c a8f5 3f3d 03d3 9dbe 81b1 e0bc
00000260: 0b0d 253e 4126 db3d c62d 963e ae05 4dbe
00000270: db67 09bf 57c4 513a eb22 0f3e 3b5a fd3e
00000280: 6d01 3dbe 1bad 8bbe 6958 4cbe 91b6 0c3e
00000290: add6 a2be a234 93bd 0763 74be dfed cf3c
000002a0: 1c56 4a3e 85a6 ce3d 8ea6 d6bd 4ee6 1fbe
000002b0: b53b 813e 14f3 ee3d 536d 6ebe b996 153e
000002c0: 758b 853d 4c7b 9d3e c4c2 063e 03d2 ff3c
000002d0: 7c0e babd 4883 c63e 2587 373e 3385 09be
000002e0: 7907 bb3d a281 673c 1664 72bc b544 f5bc
000002f0: 6152 333c 14a7 ca3d fa9a 3f3c 6eb9 6b3e
00000300: aa09 753e bc7a afbc 7c2b 7fbe 551d 09be
00000310: 7169 903e cdd4 10be bc06 ca3c bf91 29be
00000320: 5d08 aa3e 74f5 a7bd 60c7 6b3c 0cec 733e
00000330: a064 693e fde9 963d 49aa a9bd 9202 7d3c
00000340: d792 203e 7c70 19be 6791 34be a352 2cbe
00000350: a6de 88be 4755 6a3e 1ab2 af3d 12b2 3dbd
00000360: 6b22 663e c9e5 213b 88cf 9b3d 8217 883d
00000370: 28e9 72be 90ce bfbd f551 1f3f 3438 37be
00000380: 9459 8ebd cb6a 35be 7278 a13c 5db9 0f3e
00000390: 81a8 9fbe cc42 e43d f290 eb3d 79b8 d63d
000003a0: 9e08 03bf 2130 dabc 4365 8abe 82a2 9dbe
000003b0: aa2a e8bd 858d e63d 1d4c 883e a3aa 933e
000003c0: af9f 6e3e f3a2 43be 7fe3 d6bd a7e1 503d
000003d0: f36a 04be 3dd0 80bd d856 76be 7e5a abbe
000003e0: 7f84 6d3b f75f e8bb dff5 ca3d 7910 2bbe
000003f0: 507a f3bd 734c 3dbe 0bd1 6abe 404a ed3d

conv2.bias f4 [32]
-0.11865843 0.20310804 -0.11952658 0.13443063 0.11852458 0.20269485 -0.18450972 -0.0781686
0.040860713 0.024474524 0.07496372 -0.13770467 -0.14328426 -0.10360807 0.046139132 -0.1554517
-0.0778197 -0.08840895 -0.07198114 0.0077396426 -0.0115602 -0.112240195 -0.061007183 0.032668598
0.29086217 0.0016961489 -0.048992228 -0.034375858 0.09637774 0.010276216 0.23330706 0.07343373
00000000: 3103 f3bd 8efb 4f3e 5aca f4bd 2fa8 093e
00000010: 04bd f23d 3d8f 4f3e 1ef0 3cbe dc16 a0bd
00000020: 905d 273d cc7e c83c 9486 993d 7402 0dbe
00000030: 1cb9 12be 7830 d4bd 63fc 3c3d bb2e 1fbe
00000040: ef5f 9fbd c00f b5bd d96a 93bd d49c fd3b
00000050: fe66 3dbc 30de e5bd abe2 79bd 82cf 053d
00000060: e3eb 943e 5051 de3a 13ac 48bd b3cd 0cbd
00000070: b161 c53d 935d 283c 0ce8 6e3e 6c64 963d

fc1.weight f4 [96, 128]
-0.26531252 0.145947 -0.16354072 -0.17543781 0.15509413 0.34720302 0.22780648 -0.124637514
0.11446302 0.05225393 0.105862215 0.070118204 -0.25441325 -0.41574407 -0.49555275 0.24369527
-0.12989539 -0.09826914 -0.15117967 -0.052231647 -0.11649393 -0.7450537 0.11394263 0.30662954
0.10401938 -0.00022607528 -0.048746187 0.15620643 0.032917205 0.047920465 0.07376792 -0.0312858
0.2723064 0.055585023 -0.35038695 -0.112342045 0.03754397 -0.036810122 -0.03523122 0.49720833
-0.22697759 0.07954452 0.044519145 0.13434443 -0.19107422 0.24666719 0.26017955 0.1933561
0.09090015 0.06888328 0.01668454 -0.02519133 -0.00045603502 -0.06315006 0.0075705363 0.036277406
-0.16572416 0.18948716 0.1055799 0.10285483 -0.18719551 0.30544552 0.02726958 -0.62502205
-0.16972014 -0.29142234 0.1605546 -0.23431136 -0.29489154 0.4131139 0.04027134 -0.11443828
0.18243949 0.28444913 0.2548449 -0.09795879 0.06835499 -0.008135145 -0.07732982 0.0137604885
-0.4970628 0.0017953499 -0.02273086 0.08821202 -0.03847512 -0.062030364 0.08188573 -0.040915046
0.05268677 0.0737306 0.04934856 0.05425252 -0.07162318 0.07600176 -0.115634784 -0.94083804
0.09729121 0.07019533 -0.18571611 0.532127 -0.19430538 0.032145657 0.21559924 -0.18677624
-0.4307964 0.12579626 0.29716346 0.3787156 -0.033845264 -0.07066446 -0.04496675 -0.023200922
-0.17949331 0.6079946 -0.11577857 0.3869133 -0.07453432 -0.18858753 0.19178128 0.05457857
0.041852124 -0.5378549 0.21670116 -0.033781666 0.06080698 0.015488641 -0.26930857 0.11173
-0.26828945 0.05044015 -0.29256016 -0.22999205 -0.07627563 0.20407827 0.0835589 0.14625849
-0.0080808755 0.032275464 -0.10604261 -0.022607015 0.009546179 0.25961748 -0.08891511 -0.14949007
0.022289446 -0.059110757 -0.03569568 0.46837533 -0.43879667 0.04979124 -0.3891883 -0.40148106
0.023060737 0.37664285 0.027218979 -0.1339061 0.072459586 0.0035183218 0.066299155 -0.018933604
-0.0841474 -0.25581172 -0.1153941 0.12935567 0.02740616 -0.098493256 -0.017114066 0.26786393
-0.14531597 -0.009210568 -0.08656956 -0.088741355 0.1774983 -0.12631632 -0.22177742 0.1584979
0.0020261693 -0.024579337 -0.07811478 -0.077979214 0.028146314 0.038723584 -0.086219124 0.025558136
-0.090460755 0.08025863 0.05261002 0.2232818 -0.22103503 0.31323913 0.2069552 0.07504141
-0.4150749 0.01798589 -0.09318017 -0.28364244 -0.013821935 0.009675199 -0.096653335 -0.08253826
-0.19521451 -0.41953877 0.1172085 0.3606031 0.059081405 0.08423216 0.038573343 -0.011713843
0.42276943 0.03150897 -0.031878464 0.045176715 -0.08904694 -0.010495005 -0.040910274 -0.024274869
-0.00752377 -0.010632511 -0.05324147 -0.04045943 0.09306851 0.25022367 -0.115474 -0.009481095
0.10131549 -0.22457843 0.29835424 -0.29633158 -0.055631664 -0.08481261 -0.14175099 0.42059568
-0.37548795 -0.21339454 0.22432661 -0.13368234 -0.0043656044 -0.018595621 -0.078613065 -0.0038571507
-0.83431584 -0.24719204 -0.2879095 0.30539837 0.2808699 0.26847768 -0.20037581 -0.2517066
0.32466143 0.035051875 0.09880223 0.046978895 0.33400935 0.17072931 -0.16173752 0.28085396
00000000: 0bd7 87be 2173 153e 3877 27be f8a5 33be
00000010: ffd0 1e3e 98c4 b13e 1a46 693e f441 ffbd
00000020: 966b ea3d 3808 563d 4ace d83d 229a 8f3d
00000030: 7442 82be 68dc d4be 17b9 fdbe 418b 793e
00000040: 4c03 05be 5541 c9bd d8ce 1abe daf0 55bd
00000050: 5f94 eebd d7bb 3ebf c15a e93d 8cfe 9c3e
00000060: 1d08 d53d 9f0e 6db9 15aa 47bd 94f4 1f3e
00000070: 31d4 063d 4048 443d a313 973d 8a25 00bd
00000080: bf6b 8b3e 1fad 633d eb65 b3be 9613 e6bd
00000090: b5c7 193d 36c6 16bd 9d4e 10bd 1792 fe3e
000000a0: d06c 68be 3de8 a23d b559 363d 9691 093e
000000b0: f6a8 43be 5396 7c3e 4136 853e 24ff 453e
000000c0: dc29 ba3d ad12 8d3d 04ae 883c 0c5e cebc
000000d0: fc17 efb9 d254 81bd 4312 f83b 9e97 143d
000000e0: 98b3 29be ec08 423e 463a d83d 8ea5 d23d
000000f0: 2eb0 3fbe 5b63 9c3e 7464 df3c 7201 20bf
00000100: 1ecb 2dbe 4f35 95be 6d68 243e 51ef 6fbe
00000110: 06fc 96be aa83 d33e 90f3 243d 9e5e eabd
00000120: 6bd1 3a3e 51a3 913e 087b 823e 9e9e c8bd
00000130: b3fd 8b3d 4549 05bc 195f 9ebd ac73 613c
00000140: 047f febe f251 eb3a 1236 babc 81a8 b43d
00000150: 1698 1dbd 8d13 7ebd b5b3 a73d 8996 27bd
00000160: 15ce 573d 1200 973d b721 4a3d e437 5e3d
00000170: 2caf 92bd d0a6 9b3d eed1 ecbd c3da 70bf
00000180: 9d40 c73d 92c2 8f3d 5d2c 3ebe 7a39 083f
00000190: fdf7 46be 2aab 033d 0cc6 5c3e 4542 3fbe
000001a0: 5991 dcbe bcd0 003e cf25 983e 03e7 c13e
000001b0: 55a1 0abd 87b8 90bd 0e2f 38bd dc0f bebc
000001c0: 18cd 37be 89a5 1b3f 511d edbd 8019 c63e
000001d0: 73a5 98bd 171d 41be 5062 443e c78d 5f3d
000001e0: 226d 2b3d dcb0 09bf e9e6 5d3e a55e 0abd
000001f0: bd10 793d 12c4 7d3c d0e2 89be b3d2 e43d
00000200: 3c5d 89be 559a 4e3d 72ca 95be 0983 6bbe
00000210: 6636 9cbd e5f9 503e ee20 ab3d c9c4 153e
00000220: a665 04bc 4733 043d de2c d9bd 5932 b9bc
00000230: 9467 1c3c 95ec 843e 2019 b6bd ed13 19be
00000240: 5b98 b63c 1f1e 72bd a235 12bd e4ce ef3e
00000250: f5a9 e0be e6f1 4b3d b043 c7be ed8e cdbe
00000260: dfe9 bc3c 55d7 c03e 56fa de3c ae1e 09be
00000270: b165 943d a593 663b dac7 873d a51a 9bbc
00000280: 7955 acbd c1f9 82be be53 ecbd d075 043e
00000290: e282 e03c d5b6 c9bd cc32 8cbc 7625 893e
000002a0: b6cd 14be ece7 16bc 624b b1bd 07be b5bd
000002b0: 1dc2 353e 1159 01be 9f19 63be 464d 223e
000002c0: 7bc9 043b 9b5a c9bc a4fa 9fbd 91b3 9fbd
000002d0: 1993 e63c 9f9c 1e3d a793 b0bd 4c5f d13c
000002e0: 7d43 b9bd a35e a43d 9b7d 573d fca3 643e
000002f0: 0257 62be e160 a03e 10ec 533e 50af 993d
00000300: b384 d4be 2557 933c 3fd5 bebd 9539 91be
00000310: 6675 62bc ba84 1e3c 2ff2 c5bd d209 a9bd
00000320: 50e6 47be c9cd d6be 030b f03d f8a0 b83e
00000330: 58ff 713d e981 ac3d 15ff 1d3d 6beb 3fbc
00000340: 3c75 d83e 8d0f 013d fe92 02bd 380b 393d
00000350: 3e5e b6bd 3ef3 2bbc 8891 27bd 17dc c6bc
00000360: f589 f6bb fc33 2ebc ba13 5abd cab8 25bd
00000370: b49a be3d 511d 803e a27d ecbd 9856 1bbc
00000380: 7f7e cf3d e3f7 65be e3c1 983e c6b8 97be
00000390: 07de 63bd 3cb2 adbd 2c27 11be 5158 d73e
000003a0: f53f c0be 1984 5abe e0b5 653e 06e4 08be
000003b0: 580d 8fbb d855 98bc e3ff a0bd 40c8 7cbb
000003c0: b995 55bf e91f 7dbe e068 93be 2d5d 9c3e
000003d0: 2ece 8f3e e875 893e 512f 4dbe b0df 80be
000003e0: 063a a63e 8e92 0f3d d358 ca3d f16c 403d
000003f0: 4603 ab3e aad3 2e3e 859e 25be 17cc 8f3e

fc1.bias f4 [96]
0.0123912105 -0.007500576 -0.05563738 -0.23078352 -0.10013871 -0.006130061 -0.10022243 -0.118625216
-0.0035986702 -0.049652677 0.008080437 0.18385063 0.008344983 0.19249266 -0.07599866 0.18723159
-0.0748479 -0.14850599 0.035687253 0.040445372 -0.30011907 -0.15841769 0.0030435557 -0.2551593
-0.100061856 -0.080281794 -0.12191178 -0.10244147 -0.06377829 0.04319211 0.13192084 0.123782635
-0.006069096 -0.07641479 0.08365862 -0.12117353 0.14921325 0.09411934 -0.072622 0.020442257
-0.09274597 0.08692025 -0.13870656 0.19908537 -0.2810103 -0.08298777 -0.19616207 -0.02552756
-0.109155685 -0.28701526 -0.12289065 0.26587474 0.029921453 -0.11921474 -0.107237786 -0.11279792
-0.06926668 -0.10435846 0.09293295 -0.1293713 0.056193843 0.025172759 0.12551379 -0.09056806
-0.24169786 -0.0855577 -0.0072037596 -0.114481635 -0.23039545 -0.19055384 -0.3344184 -0.28718212
0.5487856 -0.093992114 -0.040353417 0.18695578 -0.19895726 -0.08049485 -0.031999502 -0.073066615
0.14783573 -0.0655816 -0.06773641 -0.009772504 -0.066246375 0.0007448831 0.051494636 -0.10500881
0.09599428 0.035227027 -0.10832168 -0.05486531 -0.012829483 0.04174872 -0.10349379 0.0115503585
00000000: 8104 4b3c 64c7 f5bb 05e4 63bd 8452 6cbe
00000010: 8615 cdbd aede c8bb 6b41 cdbd c7f1 f2bd
00000020: abd7 6bbb 9b60 4bbd cf63 043c 5743 3c3e
00000030: 65b9 083c cc1c 453e 2fa5 9bbd a3b9 3f3e
00000040: db49 99bd f411 18be cc2c 123d 0caa 253d
00000050: 35a9 99be 3f38 22be 6476 473b 3da4 82be
00000060: 3bed ccbd c86a a4bd e2ac f9bd d5cc d1bd
00000070: 319e 82bd 36ea 303d 4216 073e c081 fd3d
00000080: 44df c6bb 5b7f 9cbd 3655 ab3d d429 f8bd
00000090: 5ccb 183e a4c1 c03d d8ba 94bd 8576 a73c
000000a0: 99f1 bdbd 3e03 b23d 1809 0ebe 09dd 4b3e
000000b0: 95e0 8fbe 7ef5 a9bd b6de 48be 2c1f d1bc
000000c0: 048d dfbd aaf3 92be 18ae fbbd bc20 883e
000000d0: d61d f53c dc26 f4bd 7c9f dbbd 9902 e7bd
000000e0: b0db 8dbd e3b9 d5bd a153 be3d e979 04be
000000f0: 842b 663d 1a37 ce3c b086 003e bf7b b9bd
00000100: a57f 77be e038 afbd 840d ecbb 5975 eabd
00000110: c9ec 6bbe 8c20 43be e338 abbe 8909 93be
00000120: 377d 0c3f f07e c0bd a049 25bd 5671 3f3e
00000130: 74bb 4bbe 7cda a4bd e911 03bd f3a3 95bd
00000140: 4062 173e a54f 86bd 63b9 8abd da1c 20bc
00000150: 2eac 87bd 4244 433a 0aec 523d dc0e d7bd
00000160: a698 c43d 374a 103d c2d7 ddbd 73ba 60bd
00000170: c032 52bc b500 2b3d 8df4 d3bd b73d 3d3c

fc2.weight f4 [32, 96]
0.40098602 0.60348094 -0.17397489 -0.14423057 -0.18893716 -0.5139041 0.020320449 0.06499896
-0.9748639 0.25250977 0.04880671 0.21852091 -0.46176574 0.73648995 0.3647818 0.003900301
0.5064555 -0.44123858 0.40430844 -0.9051178 -0.03639499 -0.6558903 -0.04886808 0.047146846
-1.1640644 -0.07621592 0.10356087 -0.051550347 -0.28221962 0.4300005 0.97934306 -0.6528056
-0.29201055 0.07662147 0.24788328 0.08205085 -0.42200384 -0.44851592 0.1986868 -0.7687884
-0.71310973 -0.2240225 -0.049163785 -0.31363845 0.9597302 0.28504607 -0.33252737 -0.042028632
0.018378517 -0.40117633 -0.9446578 -0.25360492 0.100211464 0.06410822 0.073578864 -0.6151119
0.05033131 -0.028115118 -1.1151141 0.16318329 0.21763833 -1.3867302 0.1572598 0.5982426
0.40606862 0.20336759 -0.29751724 -1.125769 -1.1468618 0.02537021 -1.4845147 -0.43456373
0.10078735 -0.3966451 -0.016107779 -0.28641066 0.42264068 -0.020257184 -0.3290334 -0.037470274
0.37490404 -0.046341505 -0.9068429 -0.19359651 0.41293007 -0.11856566 -0.6308118 -0.034977205
0.04218212 0.12951712 -0.057681475 -0.022162087 0.061778277 -0.255243 0.06323093 -0.6690484
0.03594303 0.27818596 -0.053542074 -0.68022835 -0.04237277 -0.6611888 -0.88893205 0.015178027
-1.0702982 -0.015485159 0.22112367 0.4948053 0.32879543 -0.027456585 0.27327493 0.21193914
0.46017992 -0.5081436 -0.34072906 0.022068674 -0.3109999 -0.64603794 -0.36080384 -0.20791677
0.2665562 -0.09696068 0.034992997 0.2599717 -0.19524105 0.91194075 0.40610397 -0.8722771
0.43177283 -0.065963335 -0.7242531 -0.06269081 -0.46944588 0.70693827 0.8493265 -0.30186325
0.36628976 -0.7383982 0.017478935 0.23882677 0.61109066 -0.68800145 0.69667417 0.017843407
-0.1747511 -0.2378891 0.15759644 -0.09967018 0.23645179 0.048026286 0.08176027 0.5245152
-0.013014168 -0.046409193 -0.6917435 0.69979244 -0.3892031 -0.3392179 -0.5136724 0.2795771
0.02269634 0.16929637 0.003881484 -0.6981572 -0.4524341 0.2964541 -0.81343883 -0.81327754
0.33000332 0.30439594 -0.4401631 0.10535221 -0.6821105 -0.7276315 0.7188631 0.062210813
-0.27624074 0.12917832 -0.3150963 0.012833297 0.03079959 0.18606475 -0.47095713 0.048551764
0.5748333 -0.33561346 -0.052559707 -0.060506903 -0.030911028 -0.6360971 -0.025280602 0.41437727
0.18056603 -0.7967352 -0.21063142 -0.38142782 -1.1678176 -0.11884015 0.57015043 0.048691683
0.40721673 -0.070433944 0.28098214 0.1808205 0.4868345 0.04305519 -0.0025133844 -0.036229484
-0.20528081 -0.19016215 -0.24709275 -0.10750243 0.89244187 0.22427386 0.18412443 -0.5301246
0.39554802 0.13528314 -0.0170061 0.09414212 -0.6622728 -0.04761232 -0.6839644 0.45538017
0.004485041 -0.051334143 -0.013598241 -0.06576514 -0.39328897 -0.43069518 -0.44102943 0.12057673
0.4371071 -0.5309216 -0.009770887 -0.08561934 -0.0702196 -0.3532411 -0.25640887 0.044707462
0.36211646 0.580483 -0.29295376 -0.14401712 -0.45212832 -0.0401834 0.014893144 0.24054508
0.07754676 -0.057266485 0.1459548 -0.43763465 0.8446649 0.21148182 -0.20740627 -0.6997657
00000000: 0a4e cd3e ba7d 1a3f 7926 32be 2eb1 13be
00000010: be78 41be 388f 03bf 1277 a63c 2d1e 853d
00000020: ae90 79bf f648 813e 8be9 473d f2c3 5f3e
00000030: 8f6c ecbe 9b8a 3c3f aec4 ba3e 319c 7f3b
00000040: 11a7 013f 06ea e1be 8401 cf3e cdb5 67bf
00000050: ea12 15bd 6de8 27bf e529 48bd 0d1d 413d
00000060: 1000 95bf 1817 9cbd b917 d43d 7526 53bd
00000070: 177f 90be 0729 dc3e 3ab6 7a3f 451e 27bf
00000080: 6882 95be b8eb 9c3d 1dd5 7d3e 470a a83d
00000090: e310 d8be e1a3 e5be 8d74 4b3e 51cf 44bf
000000a0: 5c8e 36bf 2766 65be f75f 49bd 3895 a0be
000000b0: e1b0 753f 8ff1 913e 0741 aabe 3726 2cbd
000000c0: 8b8e 963c fc66 cdbe 18d5 71bf 81d8 81be
000000d0: ab3b cd3d 2c4b 833d 84b0 963d f977 1dbf
000000e0: 3428 4e3d ad51 e6bc 0fbc 8ebf 8519 273e
000000f0: 95dc 5e3e 6080 b1bf b708 213e 6d26 193f
00000100: 3ae8 cf3e 983f 503e 2e54 98be 3319 90bf
00000110: 5ecc 92bf 30d5 cf3c 9404 bebf 237f debe
00000120: 9969 ce3d 1115 cbbe 76f4 83bc 6ba4 92be
00000130: 5c64 d83e 65f2 a5bc 1177 a8be 6e7a 19bd
00000140: 6cf3 bf3e 97d0 3dbd db26 68bf 2a3e 46be
00000150: 926b d33e 8ed2 f2bd e27c 21bf 4244 0fbd
00000160: 29c7 2c3d 23a0 043e 6943 6cbd 448d b5bc
00000170: 380b 7d3d 36af 82be 387f 813d c246 2bbf
00000180: 0039 133d 646e 8e3e ef4e 5bbd 7223 2ebf
00000190: 128f 2dbd ab43 29bf 0d91 63bf 42ad 783c
000001a0: 88ff 88bf 77b5 7dbc 3e6e 623e 1f57 fd3e
000001b0: e057 a83e a2ec e0bc b1ea 8b3e 9306 593e
000001c0: b49c eb3e b315 02bf 0a74 aebe 5dc9 b43c
000001d0: 613b 9fbe be62 25bf 48bb b8be 22e8 54be
000001e0: 0e7a 883e 5293 c6bd d154 0f3d 031b 853e
000001f0: 45ed 47be f374 693f dcec cf3e 8d4d 5fbf
00000200: 5411 dd3e c917 87bd a768 39bf 0a64 80bd
00000210: 365b f0be e8f9 343f 766d 593f d28d 9abe
00000220: 558a bb3e aa07 3dbf fc2f 8f3c 018f 743e
00000230: 7070 1c3f dd20 30bf 3d59 323f 562c 923c
00000240: f4f1 32be 3399 73be f660 213e e11f ccbd
00000250: 6b20 723e 36b7 443d ee71 a73d a146 063f
00000260: 6039 55bc 9117 3ebd 1a16 31bf 9925 333f
00000270: a145 c7be f8ad adbe 0980 03bf bb24 8f3e
00000280: aded b93c 075c 2d3e 7f60 7e3b 6eba 32bf
00000290: 71a5 e7be d5c8 973e 873d 50bf f532 50bf
000002a0: 32f6 a83e c9d9 9b3e 0f5d e1be e6c2 d73d
000002b0: cb9e 2ebf 0f46 3abf 6a07 383f c4d0 7e3d
000002c0: 6d6f 8dbe 5247 043e 4d54 a1be c042 523c
000002d0: 6c4f fc3c c287 3e3e 4b21 f1be 37de 463d
000002e0: 4628 133f 87d5 abbe d948 57bd 16d6 77bd
000002f0: 2039 fdbc 42d7 22bf 4419 cfbc 4229 d43e
00000300: 4de6 383e d7f6 4bbf c3af 57be 824a c3be
00000310: 0c7b 95bf 7762 f3bd 61f5 113f ee70 473d
00000320: b67e d03e ac3f 90bd e4dc 8f3e 0229 393e
00000330: 5f42 f93e a45a 303d 98b7 24bb 5e65 14bd
00000340: 2235 52be deb9 42be e205 7dbe 3c2a dcbd
00000350: 1277 643f 0ca8 653e 1d8b 3c3e 3fb6 07bf
00000360: 4585 ca3e aa87 0a3e 6050 8bbc 95cd c03d
00000370: b68a 29bf 2305 43bd 4a18 2fbf 9727 e93e
00000380: 40f7 923b c043 52bd 28cb 5ebc e0af 86bd
00000390: 2c5d c9be 1484 dcbe 9cce e1be eff0 f63d
000003a0: 80cc df3e 7aea 07bf 1216 20bc 3159 afbd
000003b0: 4bcf 8fbd 04dc b4be 0648 83be 2c1f 373d
000003c0: 5467 b93e 899a 143f 09fe 95be 3979 13be
000003d0: 5d7d e7be 5997 24bd 6002 743c 7351 763e
000003e0: d6d0 9e3d 4390 6abd 2d75 153e a611 e0be
000003f0: f53b 583f b18e 583e 4f62 54be d823 33bf

fc2.bias f4 [32]
0.09525653 0.41958144 -0.0324479 -0.20665468 0.12149663 -0.11232843 -0.031846147 -0.16001232
0.18468326 0.039039478 -0.097244404 -0.056243267 -0.055059876 -0.06409332 -0.17554817 -0.021795709
0.080075026 -0.06602359 -0.014799066 -0.16663003 -0.05552233 0.14508864 0.0028152252 0.35267714
-0.22109112 0.079674646 0.047510672 0.176047 0.25181958 -0.14225042 -0.13786823 0.1983817
00000000: db15 c33d 61d3 d63e 17e8 04bd 499d 53be
00000010: 3ad3 f83d 730c e6bd 1b71 02bd 45da 23be
00000020: 9c1d 3d3e dce7 1f3d 1328 c7bd 575f 66bd
00000030: 7786 61bd 5c43 83bd e6c2 33be ea8c b2bc
00000040: 60fe a33d 6037 87bd c877 72bc 10a1 2abe
00000050: 626b 63bd 1e92 143e a47f 383b 1992 b43e
00000060: b665 62be 762c a33d 8d9a 423d aa45 343e
00000070: 7fee 803e 18aa 11be 542d 0dbe 9324 4b3e

fc3.weight f4 [4, 32]
-1.8037806 -2.0755665 -1.0847564 0.93754125 -1.5890307 0.9315081 -0.3254095 -2.0865166
-1.272045 -0.8084687 -1.2603056 -0.43327364 1.0603576 0.21231839 0.3147514 -0.037144642
-1.9484392 0.8169453 -1.3879019 -0.84250057 0.9348877 -2.106225 -2.120184 -0.16678186
-0.35933936 0.112649426 -1.1669304 -0.08083871 0.0975209 -1.5539997 -0.6472272 -0.6470637
-1.0528184 -0.21368511 1.622011 -0.4426891 -0.64162016 -0.6045596 -0.953483 0.08735058
-2.0756989 -1.093798 1.5792118 1.368706 -1.4388117 0.6688703 -0.1359836 -0.6982619
0.82462025 -2.2095876 -0.5285503 1.6364337 -0.6281105 0.44124824 -0.35172832 -1.8086542
0.83233833 -1.6539252 -1.5524414 -1.8776084 -0.6650757 0.020876992 -1.2532682 -1.8366407
2.2047179 -0.94846326 -1.1959149 -0.4589741 -1.6620647 -0.46464455 -0.71578324 0.8835342
1.1465962 1.1009109 -0.62710786 -0.5167748 -1.1310192 -1.112386 0.07697501 1.2499206
-0.034631293 0.047926262 1.4205475 -1.9730304 -0.33688897 -1.17689 0.45505565 -1.6899935
0.2646313 0.815229 1.0993576 -0.8765641 -1.4346302 0.99213153 1.4255081 0.4907049
-0.10705594 1.3741302 -1.2678583 -1.1869742 1.529429 -0.67082125 1.3466582 -0.07698025
1.0803814 -0.27908918 -0.966628 -2.014727 0.20518193 -0.7142554 -1.6717037 -2.0194535
0.14747317 -0.11558729 -0.82655823 -1.1935159 -1.11819 0.97253466 0.53722894 -0.44939375
-1.7322246 -0.89923084 0.40167418 1.5437249 0.94345254 -1.0374119 -0.89615905 0.815429
00000000: 48e2 e6bf 15d6 04c0 4cd9 8abf b402 703f
00000010: 5c65 cbbf 5177 6e3f 139c a6be 7d89 05c0
00000020: 5fd2 a2bf cef7 4ebf b251 a1bf 0bd6 ddbe
00000030: ccb9 873f fe69 593e 1827 a13e fb24 18bd
00000040: 7566 f9bf 5423 513f c5a6 b1bf 1eae 57bf
00000050: cd54 6f3f 64cc 06c0 18b1 07c0 ddc8 2abe
00000060: 54fb b7be beb4 e63d fa5d 95bf c48e a5bd
00000070: 0ab9 c73d 76e9 c6bf afb0 25bf f7a5 25bf
00000080: c1c2 86bf 45d0 5abe 0e9e cf3f 25a8 e2be
00000090: 3841 24bf 6bc4 1abf 7617 74bf dce4 b23d
000000a0: 40d8 04c0 9301 8cbf 9d23 ca3f c231 af3f
000000b0: fb2a b8bf 153b 2b3f 493f 0bbe 4bc1 32bf
000000c0: 501a 533f e269 0dc0 134f 07bf a976 d13f
000000d0: dacb 20bf 4aeb e13e bc15 b4be fb81 e7bf
000000e0: 2014 553f d2b3 d3bf 66b6 c6bf 7955 f0bf
000000f0: 6742 2abf 3a06 ab3c 186b a0bf 0b17 ebbf
00000100: 191a 0d40 7dce 72bf bd13 99bf a7fe eabe
00000110: 89be d4bf e4e5 edbe 923d 37bf 4c2f 623f
00000120: aac3 923f a6ea 8c3f 248a 20bf 5a4b 04bf
00000130: 3dc5 90bf aa62 8ebf 13a5 9d3d 66fd 9f3f
00000140: 8bd9 0dbd 544e 443d 80d4 b53f 438c fcbf
00000150: b67c acbe 55a4 96bf 0efd e83e b551 d8bf
00000160: c17d 873e d9b2 503f c0b7 8c3f 8166 60bf
00000170: f6a1 b7bf 55fc 7d3f 0d77 b63f ac3d fb3e
00000180: 2540 dbbd 80e3 af3f 2e49 a2bf c5ee 97bf
00000190: 54c4 c33f f1ba 2bbf 4c5f ac3f d2a7 9dbd
000001a0: f049 8a3f c7e4 8ebe ef74 77bf 4af1 00c0
000001b0: 361b 523e 71d9 36bf 63fa d5bf ba3e 01c0
000001c0: 3503 173e 07b9 ecbd 5299 53bf 21c5 98bf
000001d0: da20 8fbf 08f8 783f d687 093f f016 e6be
000001e0: 89b9 ddbf fe33 66bf 3da8 cd3e c798 c53f
000001f0: 1b86 713f eac9 84bf ae6a 65bf f4bf 503f

fc3.bias f4 [4]
-0.04613018 -0.021131337 -0.1998673 0.21262883
00000000: 00f3 3cbd a01b adbc 03aa 4cbe 5fbb 593e
