junction finland/cnn_model_6.pth (torch, 85239 bytes, 10 tensors)

conv1.weight f4 [16, 1, 3, 3]
0	0x3e58b37c	0.21162218
1	0xba7a8fbd	-0.0009558162
2	0xbe8c6001	-0.27416995
3	0x3db8c341	0.09021617
4	0xbd53d76d	-0.051719118
5	0x3e9d157e	0.3068046
6	0xbd2a4c72	-0.04157681
7	0xbdc726e4	-0.09724215
8	0xbe29ec53	-0.16594057
9	0x3e96c173	0.29444465
10	0x3e731370	0.23737884
11	0xbdffaa78	-0.12483686
12	0xbd9729fd	-0.073810555
13	0x3e16d05d	0.14727922
14	0x3df13db0	0.11779344
15	0xbe2200f8	-0.15820682
16	0x3de90538	0.113779485
17	0xbdfd9191	-0.1238128
18	0x3e6b1fdb	0.2296137
19	0x3ea699c9	0.32539204
20	0xbd18aef4	-0.037276223
21	0xbe1179be	-0.14206597
22	0x3e15af82	0.14617732
23	0x3d2e659b	0.042577367
24	0xbe479855	-0.19491704
25	0xbec1aa05	-0.37825027
26	0xbe470e4b	-0.19439046
27	0xbd83c974	-0.064349085
28	0x3de028cc	0.109452814
29	0xbca67415	-0.020319024
30	0xbd01936b	-0.03163473
31	0x3d929417	0.07157152
32	0x3e8c7a95	0.27437273
33	0x3e002ca5	0.1251703
34	0xbdb5db7b	-0.08879753
35	0xbe69ee89	-0.228449
36	0xbc60802b	-0.013702433
37	0xbe674327	-0.2258421
38	0xbdaa3075	-0.08310024
39	0x3e97ff2f	0.29686877
40	0x3e01de16	0.12682375
41	0xbbf58b4a	-0.007493411
42	0xbdb603fa	-0.08887477
43	0x3dab7a95	0.0837299
44	0x3e3c0d96	0.18364558
45	0x3e7ee871	0.24893357
46	0x3d067851	0.032829586
47	0xbc816177	-0.015793545
48	0xbb64b0b8	-0.0034895372
49	0xbd070bd1	-0.032970253
50	0xbe7be200	-0.24597931
51	0x3e610642	0.21975043
52	0xbe3c945f	-0.18415974
53	0xbe5449fd	-0.2073135
54	0x3db9c27d	0.09070299
55	0x3ea9015b	0.33008847
56	0x3dfc7648	0.12327248
57	0xbe38766b	-0.18013923
58	0x3de584f2	0.11206998
59	0x3df37d0c	0.11889085
60	0xbea41f7c	-0.3205527
61	0xbdd9ec0a	-0.10640724
62	0x3d74df12	0.05978305
63	0x3da2a83a	0.07942243
64	0xbe05dc65	-0.13072355
65	0x3b0a3bfb	0.002109288
66	0x3e702be6	0.23454246
67	0xbcf7dafd	-0.030255789
68	0xbe7abb8b	-0.24485604
69	0xbd7bbe64	-0.061460868
70	0x3da9cd58	0.08291119
71	0x3d946858	0.072464645
72	0xbe8d8281	-0.2763863
73	0xbeaa9bc0	-0.33321953
74	0x3e6efe43	0.2333918
75	0xbe64ec75	-0.22355826
76	0xbe59ca07	-0.21268474
77	0xbcf9273d	-0.030414218
78	0x3e28e622	0.16494039
79	0xbe6d03fa	-0.23146048
80	0x3e774e0e	0.24150869
81	0x3d01c29a	0.031679727
82	0x3e20fb2b	0.15720813
83	0x3e32499b	0.17410891
84	0x3ddf0ac4	0.10890725
85	0xbe41155d	-0.18855806
86	0x3daa8089	0.083252974
87	0xbdc61fd6	-0.09674041
88	0x3d925070	0.071442485
89	0xbe8a84f5	-0.27054563
90	0xbe1b5c73	-0.15171985
91	0x3e2c67b9	0.16836442
92	0xbe86cec5	-0.26329628
93	0xbdcd3519	-0.10019893
94	0x3e07e1c9	0.13269724
95	0x3e5cae64	0.215509
96	0xbe374326	-0.17896709
97	0x3e16e4d0	0.14735723
98	0xbdf6f358	-0.12058133
99	0x3ec6bddf	0.38816735
100	0xbe8ceef0	-0.27526045
101	0xbe4dadae	-0.20085785
102	0x3ea0be2c	0.3139509
103	0x3e220d89	0.15825476
104	0x3e0c62de	0.1370959
105	0x3e225c6f	0.15855573
106	0x3e137643	0.14400582
107	0x3e1b2d85	0.15154083
108	0xbe192816	-0.14956698
109	0x3dcace1a	0.09902592
110	0xbe1c8ea2	-0.15288785
111	0x3d1c301e	0.038131826
112	0x3de13b3a	0.10997625
113	0x3dd09fa7	0.10186701
114	0xbd39e3cc	-0.04538326
115	0x3de939cb	0.11387976
116	0x3cffc7fe	0.031223293
117	0x3e3a5094	0.181948
118	0xbe93fba6	-0.2890293
119	0xbddc86b8	-0.10767883
120	0xbcb82b33	-0.022481536
121	0xbd79bd07	-0.060971286
122	0xbe1ae069	-0.15124668
123	0x3dba97e4	0.09111002
124	0xbe02418a	-0.12720314
125	0x3ddb1e3e	0.106991276
126	0x3e15e576	0.14638314
127	0x3e341cc4	0.17589098
128	0x3e2edca9	0.17076363
129	0x3e597ce6	0.21239051
130	0xbea7e123	-0.32788953
131	0xbda537ca	-0.080672815
132	0xbe9a016c	-0.3007921
133	0x3e391329	0.18073715
134	0xbdb72533	-0.08942642
135	0xbe17b760	-0.14816046
136	0x3e82bc20	0.25534153
137	0xbed4926e	-0.41517967
138	0x3db60fb7	0.08889716
139	0xbcc97823	-0.024593418
140	0xbec5e9cd	-0.38654938
141	0x3e4beca9	0.19914497
142	0xbe308433	-0.1723793
143	0xbea08b7a	-0.31356412

conv1.bias f4 [16]
0	0xbeaacfc2	-0.33361632
1	0xbef1c540	-0.47220802
2	0xbe22390c	-0.15842074
3	0x3d1816b3	0.037131023
4	0xbe34863b	-0.1762933
5	0xbe44fcca	-0.19237056
6	0xbe173367	-0.14765702
7	0xbe81db9f	-0.2536287
8	0xbe0a5606	-0.13509378
9	0xbd7877c5	-0.060661096
10	0x3da67409	0.08127601
11	0x3dd8983e	0.10575913
12	0xbe52b72d	-0.20577689
13	0x3d05859e	0.03259813
14	0x3c4b2e1f	0.012401133
15	0xbba37018	-0.004987728

conv2.weight f4 [32, 16, 3, 3]
0	0xbd223fe3	-0.03961171
1	0x3c0d5aa7	0.00862757
2	0xbd8e42ff	-0.06946372
3	0xbda6b3d3	-0.081397675
4	0x3d1a1888	0.03762105
5	0x3d6406ff	0.055670734
6	0x3dab7b8d	0.08373175
7	0x3cdf66ee	0.02727076
8	0xbcb749de	-0.02237409
9	0xbd8120e8	-0.063051045
10	0xbdd6c655	-0.104870476
11	0x3c89a509	0.016802328
12	0xbd7a7627	-0.061147835
13	0xbc8d20b0	-0.0172275
14	0x3cff7c92	0.03118733
15	0x3dd0ccdc	0.10195324
16	0xbd14dac2	-0.036341436
17	0xbd12342f	-0.035694297
18	0x3d04d580	0.032430172
19	0xbd8c765b	-0.06858512
20	0xbbbb920d	-0.0057241977
21	0xbccd4aca	-0.025060076
22	0x3d1c8ed0	0.038222134
23	0x3b9ba9ab	0.0047504506
24	0x3dfa7982	0.12230207
25	0xbd450ebf	-0.048109766
26	0x3d42ce65	0.047560114
27	0x3d9baa8b	0.07600888
28	0x3c9b5bf8	0.018964753
29	0xbb8837bd	-0.004157035
30	0x3db897d4	0.09013334
31	0x3c9fa320	0.019486964
32	0x3d584821	0.052803162
33	0x3ca01cc1	0.01954496
34	0x3d06961c	0.032858
35	0xbd9ad407	-0.07559972
36	0x3d7bcbff	0.061473843
37	0xbdaa5443	-0.08316853
38	0xbcc182f0	-0.023622006
39	0x3d059060	0.03260839
40	0x3d9a45ba	0.075328305
41	0x3cca5783	0.024699932
42	0xbd0b8aa1	-0.034067754
43	0x3d390f81	0.0451808
44	0xbd50476f	-0.050849374
45	0xbd9170db	-0.071016036
46	0xbdf2756b	-0.11838802
47	0x3b2d0ac5	0.0026404124
48	0xbe116775	-0.14199622
49	0x3aa440c1	0.0012531505
50	0xbc56050f	-0.0130627295
51	0x3ab5ab54	0.0013860264
52	0x3d3c4adf	0.04596984
53	0xbda62d5b	-0.081141196
54	0xbd4a39c0	-0.04937148
55	0x3c83159c	0.016001515
56	0x3d37e6a1	0.04489768
57	0xbd9b5e44	-0.07586339
58	0x3d60d5f2	0.054891534
59	0xbd410245	-0.047121305
60	0x3d94f976	0.072741434
61	0xbde816f5	-0.11332504
62	0x3dc600f9	0.09668154
63	0x3dc2be8c	0.09509
64	0xbce4a967	-0.027912809
65	0x3d5cc90c	0.05390267
66	0xbd5a7715	-0.05333622
67	0x3dbb6db0	0.091517806
68	0x3bc06ffe	0.0058727255
69	0xbde4f65f	-0.11179804
70	0xbc850ee8	-0.01624246
71	0xbd50dc1e	-0.05099117
72	0x3d619ffa	0.055084206
73	0x3d357616	0.04430207
74	0x3d83ac17	0.06429308
75	0x3d2324c1	0.039829973
76	0xbd4d6839	-0.050148223
77	0xbdcdcf18	-0.100492656
78	0xbdd6eebb	-0.10494753
79	0xbd57c72b	-0.052680176
80	0xbd84208d	-0.06451521
81	0xbd6cbdb6	-0.05779811
82	0x3da0a251	0.078434594
83	0x3d44f538	0.04808542
84	0xbd320826	-0.043464802
85	0x3d513c3c	0.051082835
86	0x3bbcbbfb	0.0057597137
87	0x3de9248a	0.113839224
88	0x3d8435e9	0.06455595
89	0xbd1ea3ee	-0.038730554
90	0xba5dff5e	-0.00084685336
91	0xbda9c0cc	-0.08288726
92	0x3cc5b622	0.0241347
93	0xbc56f7aa	-0.013120571
94	0x3cda93ad	0.026681745
95	0xbd815281	-0.063145645
96	0xbd634985	-0.055490036
97	0xbd9cfdf7	-0.076656274
98	0xbb210e9a	-0.0024575354
99	0x3d97e2b1	0.07416285
100	0xbd202bc8	-0.039104253
101	0x3d779517	0.060444918
102	0xbda8fd8f	-0.082514875
103	0xbd2c0814	-0.04199989
104	0xbca300e8	-0.019897893
105	0x3d683916	0.056695066
106	0x3cdafc8d	0.026731754
107	0xbc386c24	-0.0112562515
108	0x3dc5d6e3	0.09660127
109	0x3d0f9fa2	0.035064347
110	0xbd5657c4	-0.052329794
111	0x3d6bd217	0.057573404
112	0x391c6267	0.00014913977
113	0x3d97490c	0.073869795
114	0xbced8f12	-0.028998885
115	0xbdc8a58b	-0.097972
116	0x3aee3a19	0.0018175273
117	0xbd9c78f4	-0.076402575
118	0xbd8cf93e	-0.06883477
119	0xbd4295bd	-0.047506083
120	0xbc874d6a	-0.016516406
121	0xbd6ddfa2	-0.0580746
122	0xbd9361a1	-0.071963556
123	0xbdff69c3	-0.12471344
124	0x3c0e4b04	0.008684877
125	0xbd83de93	-0.06438937
126	0x3cd2c5d1	0.025729092
127	0x3d11d05e	0.035599105
128	0x3daa782e	0.08323704
129	0x3e0dd182	0.13849452
130	0x3ce6b48d	0.028162265
131	0xbddb0625	-0.10694531
132	0x3c90822e	0.0176402
133	0x3d9f0020	0.07763696
134	0x3db20d01	0.086938865
135	0x3c757b04	0.0149829425
136	0xbb110731	-0.002212953
137	0xbd5b8a46	-0.053598665
138	0xbdcf9bbb	-0.10137125
139	0xbcb3a0e0	-0.021927297
140	0xbd2062a7	-0.039156582
141	0x3dcc3d49	0.09972627
142	0x3b6d095e	0.0036168913
143	0xbd8b42c9	-0.06799848
144	0xbdbcc4e0	-0.092172384
145	0x3c058470	0.008149251
146	0xbc1590f6	-0.0091288
147	0xbcfd8736	-0.030948263
148	0xbc169a1f	-0.009192019
149	0xbd63286f	-0.055458482
150	0xbdeb504c	-0.11489925
151	0x3d8d884f	0.069107644
152	0xbdda5cd4	-0.10662237
153	0xbddfa6d3	-0.10920491
154	0xbd3f50ad	-0.046707798
155	0x3ce8ea54	0.028432049
156	0x3dbe5000	0.092926025
157	0x3c885f0d	0.016646886
158	0x3b90b7a7	0.0044164243
159	0xbd9a7682	-0.07542135
160	0x3d9eacf2	0.077478305
161	0x3c3a5534	0.011372853
162	0xbd634711	-0.055487696
163	0xbdc1c798	-0.094618976
164	0x3bad1f3c	0.0052832644
165	0x3a8fd60d	0.0010973826
166	0xbdb48965	-0.088152684
167	0xbd0d30ee	-0.03447049
168	0x3d52f89a	0.051506616
169	0xbca0559b	-0.01957207
170	0x3d62cc2a	0.055370487
171	0xbe01ea31	-0.12686993
172	0xbd219716	-0.039450727
173	0xbca227b6	-0.019794326
174	0xbd4d9511	-0.05019099
175	0xbd7a999e	-0.061181657
176	0x3cf583a9	0.029970007
177	0x3e09b581	0.13448144
178	0xbdec1e5f	-0.1152923
179	0xbdb63c10	-0.08898175
180	0x3d8dc1bd	0.06921718
181	0xbdd1763d	-0.1022763
182	0x3d8c4003	0.06848147
183	0xbd7d067b	-0.06177376
184	0xbd00d322	-0.031451352
185	0x3d92a106	0.07159619
186	0x3d082b3b	0.033244353
187	0xbbf2a7ba	-0.0074052485
188	0xbd2eb886	-0.042656444
189	0x3bb1fa00	0.0054314137
190	0xbd2ca8c6	-0.042153142
191	0xbd763a0f	-0.060113963
192	0x3baeafb1	0.0053310026
193	0xbc62d0fd	-0.013843772
194	0xbc6f1890	-0.0145932585
195	0xbe036082	-0.12829784
196	0x3d1a006c	0.03759806
197	0xbcb02e08	-0.021506324
198	0x3da27f69	0.07934458
199	0xbb97ded1	-0.004634716
200	0x3d42ebc3	0.04758812
201	0xbc91012f	-0.01770076
202	0xbda349de	-0.079730734
203	0x3d3ebb57	0.04656538
204	0x3b87d2ce	0.004145003
205	0xbdec2221	-0.11529947
206	0xbd92c692	-0.071667805
207	0xbd8e122a	-0.06937058
208	0xbd944ad3	-0.07240834
209	0xbd62daa6	-0.0553843
210	0xbd9bee2e	-0.076137885
211	0xbc3b82da	-0.011444772
212	0xbdda18e5	-0.106492795
213	0xbdd0df0d	-0.101987936
214	0x3d0d3730	0.03447646
215	0xbd7fe846	-0.062477373
216	0x3e0323c4	0.12806612
217	0xbd9d2b9c	-0.076743335
218	0x3e0990b6	0.13434109
219	0x3e11eaaa	0.14249673
220	0x3c5f4980	0.013628364
221	0x3d113cb1	0.03545827
222	0x3da185fe	0.07886885
223	0x3d27053d	0.04077648
224	0x3cd8e2ae	0.026475277
225	0xbdbbfe24	-0.09179333
226	0x3c4059bd	0.011740145
227	0xbc905039	-0.017616378
228	0xbcd715ee	-0.026255574
229	0xbdf08a28	-0.11745101
230	0xbd0d67a4	-0.034522668
231	0x3d30925d	0.043108333
232	0xbda2d1e3	-0.07950189
233	0xbc426c1e	-0.011866597
234	0xbcae85a0	-0.021303952
235	0xbe04bd1a	-0.12962762
236	0xbd0323ff	-0.03201675
237	0x3c494968	0.012285568
238	0x3d6e104b	0.058121007
239	0x3dd6f203	0.10495379
240	0x3dcc2785	0.09968475
241	0xbe09e9f6	-0.13468155
242	0x3db71098	0.08938712
243	0xbdd55941	-0.104174145
244	0x3bdc1a0c	0.006716972
245	0xbc9c09d4	-0.019047655
246	0xbe14ba36	-0.14524159
247	0x3d4ee2cc	0.05050926
248	0x3d1c190c	0.038109824
249	0xbb2a4fea	-0.0025987574
250	0x3d35f70c	0.044425055
251	0xbd38aa83	-0.045084488
252	0x3ceb09ec	0.028691255
253	0x3bfae629	0.0076568318
254	0x3d7605e9	0.06006423
255	0x3d615f4a	0.055022515

conv2.bias f4 [32]
0	0xbd644fc9	-0.05574015
1	0xbc9ac0de	-0.018890794
2	0x3cc153b4	0.023599483
3	0xbca6f58c	-0.020380758
4	0xbda67f6d	-0.08129773
5	0x3d19eb1c	0.037577733
6	0xbd07b92d	-0.03313558
7	0xbe2fcb18	-0.17167318
8	0xbd819167	-0.063265614
9	0xbd969c2b	-0.073540054
10	0x3d1f936f	0.038958963
11	0x3c155762	0.009115072
12	0x3e29f7bd	0.16598411
13	0xbd84d5e6	-0.064861104
14	0xbda29781	-0.07939053
15	0xbd4d7872	-0.050163694
16	0xbc4b9db6	-0.012427738
17	0x3dbe7f4e	0.09301625
18	0x3d106bf7	0.035259213
19	0xbc25e0e9	-0.010124424
20	0xbd7db4bb	-0.061939936
21	0xbdcd008f	-0.10009872
22	0x3cc421cb	0.023941895
23	0xbca61802	-0.02027512
24	0x3d3925b7	0.045201983
25	0xbc3221fa	-0.010872358
26	0x3cd4bf39	0.025970088
27	0xbd8deef5	-0.06930343
28	0xbd9c6d33	-0.076380156
29	0xbc83b121	-0.016075673
30	0xbde4d396	-0.11173169
31	0x3dbcfcc3	0.09227898

fc1.weight f4 [96, 128]
0	0x3d7a935a	0.06117568
1	0xbde43b2f	-0.11144101
2	0xbdece58c	-0.1156722
3	0xbe060d65	-0.13091047
4	0x3d367a14	0.044550017
5	0xbd81a898	-0.06330985
6	0xbdbda758	-0.09260434
7	0x3c18b34a	0.00932009
8	0x3c901330	0.017587274
9	0x3d80c2b9	0.062871404
10	0xbd9403f0	-0.072273135
11	0x3cf579b1	0.029965254
12	0xbd9088df	-0.07057356
13	0xbd0ef604	-0.034902588
14	0xbaa3b210	-0.001248898
15	0xbd6a2973	-0.057168435
16	0x3d14b733	0.036307525
17	0xbc92bab7	-0.017911298
18	0xbdc6ec23	-0.09713008
19	0xbd0d2c7e	-0.03446626
20	0xbcfe3030	-0.031028837
21	0xbdbbcec4	-0.09170297
22	0x3c7d9c8d	0.015479219
23	0xbb7ebafb	-0.0038868773
24	0xbdb4ce7a	-0.08828445
25	0xbc98ab0e	-0.018636253
26	0x3d009145	0.03138854
27	0xbdaf81ed	-0.08569703
28	0xbddea423	-0.1087115
29	0xbd248248	-0.04016331
30	0xbdedeedb	-0.11617824
31	0xbd605fc8	-0.054778844
32	0x3d3424e6	0.0439805
33	0xba13d0a9	-0.0005638698
34	0x3c0df91e	0.008665351
35	0x3c2de54a	0.010613749
36	0xbcb43d91	-0.022002013
37	0x3ce90f67	0.028449727
38	0xbe0e8023	-0.13916068
39	0xbc0743eb	-0.008255939
40	0xbd0dad89	-0.034589324
41	0xbd5ed178	-0.054398984
42	0x3bd678f3	0.00654518
43	0xbdcb2935	-0.09919969
44	0xbbace614	-0.005276451
45	0xbd64b2a3	-0.055834424
46	0x3c693306	0.014233356
47	0xbdec5ce3	-0.11541154
48	0x3cf580b0	0.02996859
49	0x3d3f5225	0.0467092
50	0xbd44b2b6	-0.048021995
51	0xbd0c490f	-0.03424936
52	0xbdc096e5	-0.09403781
53	0xbda96053	-0.082703255
54	0xbda3a6f3	-0.079908274
55	0xbc9e21a4	-0.01930315
56	0xbd878548	-0.06617218
57	0x3d37cebc	0.04487489
58	0x3c3a9e04	0.011390213
59	0x3bfe1abd	0.0077546523
60	0x3ce47c70	0.027891368
61	0xbd4a82a5	-0.049441
62	0xbd912160	-0.07086444
63	0xbd91094a	-0.0708185
64	0x3d4dda4e	0.05025702
65	0x3ca9537d	0.020669693
66	0x3cb2ff61	0.02185029
67	0xbd1e7e90	-0.03869492
68	0x38bbacee	8.9490655e-05
69	0xbda44777	-0.08021443
70	0x3d543c4f	0.051815327
71	0x3d6b06e0	0.057379603
72	0xbde3726b	-0.11105808
73	0xbccfd78f	-0.025371341
74	0x3d04875b	0.032355648
75	0xbda4d18a	-0.08047779
76	0xbb2d1c0d	-0.0026414425
77	0x3d7c5ad2	0.06161005
78	0xbd4b747c	-0.049671635
79	0xbdac5e36	-0.08416407
80	0xbd5e3446	-0.05424907
81	0x3d9776b7	0.0739569
82	0x3cd6230a	0.026139755
83	0x3ca34f32	0.019935224
84	0xbddbd4a1	-0.10733915
85	0xbbba603c	-0.0056877416
86	0x3cebc408	0.028779998
87	0x3d3e3571	0.046437684
88	0x3b6a161d	0.0035718747
89	0xbcf80370	-0.030275077
90	0xbda2974d	-0.079390146
91	0x3d4bc60e	0.049749427
92	0xbdafbac0	-0.085805416
93	0x3dac7f4d	0.08422718
94	0xbd5322e5	-0.05154695
95	0xbd109bb2	-0.035304733
96	0xbd15e975	-0.036599595
97	0xbde795bc	-0.113078564
98	0x3c3abf17	0.011398098
99	0xbe075005	-0.13214119
100	0x3b9577d3	0.0045614033
101	0x3d20d70c	0.039267585
102	0x3d2c7880	0.042107105
103	0xbcc00c94	-0.023443498
104	0x3d4e1724	0.050315037
105	0x3d1930a7	0.037399914
106	0xbddd9dd9	-0.10821123
107	0xbc253310	-0.010082975
108	0xbc6a20f5	-0.014290084
109	0xbd9a39e7	-0.07530575
110	0x3d0a21bd	0.03372358
111	0x3bc2a7c7	0.005940411
112	0x3ca3f673	0.020014977
113	0x3da1e6fc	0.07905385
114	0x3c283d66	0.010268545
115	0x3b67ee33	0.003538978
116	0x3d5bff50	0.05371028
117	0xbc64d0a5	-0.01396576
118	0x3c8ff1a5	0.01757128
119	0xbd4b368b	-0.049612563
120	0x3b58f6f8	0.003310619
121	0xbd1273a8	-0.03575483
122	0xbd948cc7	-0.07253414
123	0xbcbfb182	-0.023400072
124	0x3d190a0c	0.037363097
125	0xbc01bb3d	-0.007918176
126	0x3d313c91	0.04327065
127	0x3d283024	0.041061535
128	0x3db8dce9	0.0902651
129	0xbd58c909	-0.052926097
130	0xbd3c7da0	-0.046018243
131	0xbcdc36a7	-0.026881529
132	0xbd7413fb	-0.059589367
133	0xbd5d68bc	-0.05405496
134	0x3b94a328	0.0045360513
135	0xbe03377d	-0.12814136
136	0xbd16e0bc	-0.036835417
137	0x3bf289e2	0.007401691
138	0x3c1b558c	0.009480845
139	0xbdcf5442	-0.10123493
140	0x3d4186aa	0.047247566
141	0xbd93cd1d	-0.07216857
142	0xbd2c4a77	-0.042063203
143	0x3c1ac817	0.009447119
144	0xbd10320e	-0.035203986
145	0xbcea0a25	-0.02856929
146	0x3d6d686f	0.057960924
147	0x3b768f1b	0.0037621919
148	0x3d2e0c4f	0.042492207
149	0xbe2a0593	-0.16603689
150	0x3d906a8a	0.07051571
151	0xbb803ab8	-0.00391325
152	0x3d646f82	0.055770405
153	0xbd97759d	-0.0739548
154	0xbd6323c3	-0.055454027
155	0xbd45b241	-0.0482657
156	0x3c508e89	0.0127292955
157	0xbd320abd	-0.043467272
158	0x3d6d0a75	0.0578713
159	0xbc697a4e	-0.014250351
160	0xbda7b082	-0.08187963
161	0x3cd6e05d	0.026230032
162	0xbdf41f65	-0.119200505
163	0xbce07809	-0.027400987
164	0xbce4d98d	-0.027935768
165	0x3d7c4dd8	0.061597675
166	0x3d36b17e	0.044602863
167	0xbe0e3c18	-0.13890111
168	0x3cf9c077	0.030487282
169	0x3a194405	0.00058466225
170	0xbde0c776	-0.10975544
171	0x3df1bde6	0.118037984
172	0x3db43660	0.08799434
173	0xbd80195f	-0.06254839
174	0x3d8dc465	0.06922225
175	0xbd53c249	-0.051698957
176	0x3cc51b71	0.024060937
177	0x3d482951	0.048867527
178	0xbe1518c1	-0.14560224
179	0x3bd02768	0.006352354
180	0xbd49945f	-0.049213763
181	0x3da5e1bd	0.08099697
182	0xbc980cfd	-0.01856088
183	0xbdcf43eb	-0.10120376
184	0xbdadbc85	-0.08483223
185	0xbd4be1da	-0.049775936
186	0x3cf1ebfb	0.02953147
187	0x3caf4ffd	0.021400446
188	0x3d1d931c	0.038470373
189	0xba579386	-0.0008223582
190	0xbcf34354	-0.02969519
191	0xbcce1a9c	-0.025159173
192	0x3d921b59	0.071341224
193	0xbc8dd858	-0.017315075
194	0xbcaabb98	-0.020841405
195	0xbe194362	-0.14967111
196	0x3d198aa6	0.03748574
197	0xbd672e56	-0.056440674
198	0xbcbe062d	-0.023196304
199	0xbd2b7322	-0.041857846
200	0x3d4af908	0.0495539
201	0x3d88ef26	0.06686239
202	0x3c9a9f0c	0.018874668
203	0xbcc95378	-0.024575934
204	0xbdee32c3	-0.11630776
205	0x3d62c8b4	0.055367187
206	0xbd6b9c4d	-0.057522107
207	0xbe0a0795	-0.13479455
208	0x3ce91670	0.028453082
209	0xbccc7a5e	-0.024960693
210	0x3d2ea0a1	0.042633656
211	0x3d9ae018	0.07562274
212	0x3c9f6844	0.019458897
213	0xbd3a1df5	-0.045438726
214	0x3c3942b5	0.011307408
215	0xbdd7673e	-0.10517739
216	0xbd169559	-0.036763523
217	0x3bde1f59	0.0067786393
218	0x3d08a711	0.033362452
219	0xbdf1ffbc	-0.118163556
220	0xbdc1ec08	-0.094688475
221	0x3d780e6e	0.060560636
222	0x3da389bc	0.07985255
223	0x3da51880	0.08061314
224	0xbdb03d96	-0.086054966
225	0xbd08b800	-0.0333786
226	0xbcc4db89	-0.024030464
227	0xbdf2c1c7	-0.11853366
228	0xbd44f308	-0.048083335
229	0x3cd0aa76	0.025471907
230	0xbd30867f	-0.043097015
231	0xbdfeedfd	-0.124477364
232	0x3a565a87	0.0008176942
233	0xbdcaa410	-0.09894574
234	0xbc53d334	-0.012928773
235	0xbdf3fe55	-0.11913744
236	0xbd031d45	-0.032010335
237	0x3d18c17c	0.037293896
238	0xbc088511	-0.008332507
239	0x3d499ef3	0.04922385
240	0x3d240b22	0.04004968
241	0xbcb356e8	-0.021892026
242	0xbddc02a4	-0.10742691
243	0x3c872274	0.01649592
244	0x3dd7eea6	0.105435655
245	0x3dc675c5	0.096904315
246	0x3b0ed47f	0.0021794138
247	0xbd50be20	-0.050962567
248	0x3dfdec2d	0.123985626
249	0xbb9630e6	-0.004583466
250	0xbd93fd71	-0.072260745
251	0xbce81413	-0.028329885
252	0x3d3704d3	0.044682335
253	0x3df13ff2	0.11779775
254	0xbd1ad439	-0.037800048
255	0x3c85f878	0.01635383

fc1.bias f4 [96]
0	0xbd5db14c	-0.05412416
1	0x3d1112b1	0.035418216
2	0x3b9215b6	0.0044581546
3	0xb9c35a56	-0.00037260604
4	0xbd207727	-0.039176133
5	0xbcc5144a	-0.024057526
6	0xbda39a77	-0.07988446
7	0xbe1410f0	-0.14459586
8	0x3e0759e5	0.13217886
9	0xbd75fc77	-0.060055222
10	0xbd81591e	-0.06315826
11	0xbdffa44f	-0.12482511
12	0xbdec4dc2	-0.115382686
13	0x3d78681e	0.06064617
14	0x3d32d832	0.04366321
15	0xbd7a21ff	-0.061067577
16	0x3cbe2737	0.023212058
17	0xbd590f2f	-0.052992996
18	0xbcbb065b	-0.022830179
19	0x3dcf0c79	0.10109801
20	0x3d53e7b7	0.051734652
21	0x3d13a1e4	0.036043063
22	0xbd93f2f1	-0.07224072
23	0x3cba1233	0.022713756
24	0xbdf089f1	-0.1174506
25	0xbdc8b8d2	-0.09800877
26	0x3d6a8343	0.057254087
27	0xbd60e2fe	-0.054903977
28	0xbd983053	-0.07431092
29	0xbd70c329	-0.05877987
30	0xbb15ca7c	-0.0022856286
31	0x3c04b78a	0.0081004
32	0xbcef3e9b	-0.029204657
33	0x3d331d8c	0.04372935
34	0xbc2777fd	-0.0102214785
35	0x3c994436	0.018709283
36	0x3c78608e	0.015159739
37	0x3d8da66c	0.06916508
38	0x3c4b8842	0.012422623
39	0xbe13f6c5	-0.14449604
40	0xbd76bcf2	-0.060238786
41	0x3e2a4caa	0.16630808
42	0x3c4545a4	0.012040529
43	0x3d171e07	0.03689387
44	0xbd8b13d1	-0.06790889
45	0xbcfd7b5a	-0.030942608
46	0x3d883204	0.06650165
47	0x3dbebf0a	0.093137816
48	0xbd220baa	-0.039561905
49	0xbd806af5	-0.062704004
50	0x3b656023	0.003499993
51	0xbbb195a5	-0.0054194503
52	0xbcf5f931	-0.03002605
53	0x3dd6526e	0.10464941
54	0xbd965c41	-0.07341815
55	0xbdd4f6d3	-0.103986405
56	0xbd819335	-0.06326906
57	0xbc2372be	-0.009976087
58	0x3d49b2c1	0.04924274
59	0xbb2e1fca	-0.002656924
60	0x3e1d1743	0.15340905
61	0xbdee7bc4	-0.116447
62	0xbdfbb4bd	-0.122903325
63	0xbe2bb223	-0.16767173
64	0xbdadfc25	-0.084953584
65	0x3d438c16	0.04774102
66	0xbb15f8b9	-0.0022883846
67	0x3d952fb2	0.07284488
68	0xbd51b205	-0.051195163
69	0x3d24cfa5	0.040237088
70	0xbbaf3aa9	-0.005347569
71	0x3d3ac2e7	0.04559603
72	0xbd0e1a4f	-0.03469306
73	0x3d87cf03	0.06631281
74	0xbb33ece5	-0.0027454433
75	0xbd9ab134	-0.0755333
76	0x3db46ec2	0.08810188
77	0xbd8607ad	-0.06544433
78	0xbc623617	-0.013806841
79	0x3c177c1b	0.009245898
80	0xbd3b85ab	-0.045781773
81	0xbd9f238b	-0.07770451
82	0x3a4ffa47	0.00079337176
83	0x3c89871c	0.016788058
84	0xbde6988b	-0.11259564
85	0xbded89db	-0.115985595
86	0x3dadda7a	0.08488937
87	0x3c187d06	0.009307152
88	0x3e17b273	0.14814167
89	0xbdf6a5a0	-0.12043309
90	0x3d6434e5	0.055714507
91	0xbde5861a	-0.112072185
92	0x3d51d22d	0.05122583
93	0x3d21ea3b	0.03953002
94	0xbd712382	-0.058871754
95	0xbd0d3d97	-0.034482565

fc2.weight f4 [32, 96]
0	0xbc412ec0	-0.011790931
1	0x3c8aa0b5	0.016922334
2	0xbd748f24	-0.059706822
3	0x3dac22a9	0.084050484
4	0xbd8a5818	-0.06755084
5	0x3d166dc3	0.03672577
6	0x3b9c7137	0.0047742384
7	0x3d871248	0.06595284
8	0xbd994516	-0.0748388
9	0x3dc46f06	0.095914885
10	0x3b0a2289	0.0021077713
11	0x3db7cfc0	0.08975172
12	0xbd489662	-0.04897154
13	0x3d0408ee	0.03223508
14	0x3da01d7b	0.07818123
15	0x3c2c9d11	0.010535494
16	0xbcede0e3	-0.029037898
17	0xbd0954ee	-0.03352826
18	0x3d05bf9f	0.032653447
19	0xbcf4e679	-0.029895054
20	0x3cbcfe58	0.0230705
21	0xbdf94ce9	-0.121728726
22	0xbe1a5202	-0.15070346
23	0xbdc67a63	-0.09691312
24	0xbdcfd580	-0.10148144
25	0xbd77787b	-0.060417634
26	0xbd7c27bc	-0.06156133
27	0x3d933a5d	0.07188866
28	0xbbbbbe43	-0.005729468
29	0x3c17a8ab	0.009256522
30	0xbd184589	-0.03717569
31	0xbdebcf63	-0.11514165
32	0x3d85ecd6	0.065393135
33	0x3b881889	0.0041533154
34	0x3d863c4e	0.06554471
35	0x3d392c83	0.045208465
36	0xbc7065b1	-0.014672683
37	0xbcfce49f	-0.030870734
38	0x3d8f77e1	0.07005287
39	0xbba020fe	-0.0048867455
40	0xbd7640a7	-0.06012025
41	0xbe12cadc	-0.14335197
42	0xbb51fc6d	-0.0032041327
43	0x3d73938e	0.05946689
44	0xbccfaa86	-0.025349867
45	0xbdb3b48c	-0.08774671
46	0xbd80948c	-0.06278333
47	0xbd9948fc	-0.07484624
48	0xbe031ed7	-0.12804733
49	0xbc8e0df8	-0.017340645
50	0xbd527a82	-0.051386364
51	0xbd874193	-0.06604304
52	0xbc0117a0	-0.007879168
53	0xbdc6e9c4	-0.09712556
54	0x3c51d952	0.012808161
55	0x3cb170db	0.021660259
56	0xbd8c3f32	-0.06847991
57	0xbd9e606a	-0.07733233
58	0x3c970a97	0.018437667
59	0x3c397689	0.011319765
60	0xbd5fae41	-0.05460954
61	0xbc58569d	-0.013204244
62	0x3d37bfec	0.044860765
63	0x3de99718	0.11405772
64	0xbda20de8	-0.07912809
65	0xbdee8656	-0.11646716
66	0x3c2012b3	0.009770083
67	0xbd4298b7	-0.04750892
68	0x3d54eee3	0.051985633
69	0xbd238b97	-0.039928045
70	0xbdaf5212	-0.085605755
71	0x3d1b1924	0.037865773
72	0x3d185267	0.03718796
73	0xbe21b3af	-0.157912
74	0x3d25143c	0.0403025
75	0xbd2d5f5f	-0.04232728
76	0x3b76fd89	0.003768774
77	0x3d35767c	0.04430245
78	0x3d038345	0.03210761
79	0xbddc454b	-0.10755404
80	0x3cbb7015	0.022880593
81	0x3cf82d20	0.030294955
82	0xbdd5a624	-0.104320794
83	0xbb9a1fe8	-0.0047035106
84	0x3d54728d	0.051867057
85	0x3ca94bce	0.02066603
86	0x3bfa79da	0.0076439204
87	0x3c5d8b66	0.013522005
88	0x3dbe9fc1	0.093078144
89	0x3b551ca0	0.0032518283
90	0xbe04a86a	-0.1295487
91	0xbe37c004	-0.17944342
92	0x3d09c709	0.03363708
93	0xbd83295e	-0.064043745
94	0x3bebfd1c	0.007201804
95	0x3c650080	0.01397717
96	0xbd4fdc37	-0.050747123
97	0x3d4fff96	0.050780855
98	0xbe0c3b26	-0.13694438
99	0x3e16116c	0.14655083
100	0xbcc434fc	-0.023951046
101	0xbcc2a6ad	-0.023761118
102	0xbd1754f8	-0.036946267
103	0xbdc6d931	-0.09709395
104	0xbdad49f7	-0.08461373
105	0xbce08240	-0.027405858
106	0x3d8e0a78	0.069355905
107	0xbd5c57db	-0.053794723
108	0xbd24d575	-0.04024263
109	0x3d845faa	0.06463559
110	0x3d1d3b29	0.038386498
111	0x3cb6cddc	0.022314958
112	0xbae15a1f	-0.0017192996
113	0x3d505074	0.050857976
114	0xbc738942	-0.014864268
115	0x3bdb4cea	0.0066925185
116	0xbd90ad9e	-0.07064365
117	0xbd96eff1	-0.07369984
118	0x3df21756	0.11820857
119	0x3d74934d	0.05971079
120	0xbde49920	-0.11162019
121	0xbbfa7018	-0.007642757
122	0xbd71ec3e	-0.05906319
123	0x3c208242	0.009796681
124	0x3d9c450f	0.076303594
125	0xbccadf17	-0.02476458
126	0x3d0421cd	0.032258797
127	0x3dd47525	0.10373906
128	0xbe1539d3	-0.1457284
129	0xbd181615	-0.037130434
130	0xbc9d286d	-0.019184316
131	0x3dbe7c07	0.09301
132	0xbd8f6e23	-0.07003429
133	0x3c218209	0.009857663
134	0xbd444f53	-0.047927212
135	0x3cf31e1b	0.029677441
136	0xbc791ffb	-0.015205379
137	0xbcb88ddc	-0.022528581
138	0x3de8aa6d	0.11360631
139	0x3dec244f	0.11530363
140	0x3c86007c	0.016357653
141	0x3dcce966	0.10005455
142	0x3cd01712	0.025401626
143	0x3d908601	0.07056809
144	0xbca99902	-0.020702843
145	0xbd2b62a8	-0.041842133
146	0xbd8de168	-0.069277585
147	0xbd8bc569	-0.068247624
148	0x3d080ea0	0.033217072
149	0xbbc59ab9	-0.0060304073
150	0xbd40d234	-0.047075465
151	0xbd653568	-0.055959135
152	0xbdbcbf63	-0.092161916
153	0x3d84574b	0.06461962
154	0xbd807ffe	-0.062744126
155	0x3afbe87c	0.0019219066
156	0x3cf5a823	0.0299874
157	0xbdab2a07	-0.083576255
158	0x3dc9bc95	0.09850422
159	0x3e196dc2	0.14983276
160	0x3cbeb008	0.023277298
161	0xbd13d84c	-0.03609495
162	0x3c3f975b	0.011693801
163	0xbd833d65	-0.064081945
164	0x3d992575	0.074778475
165	0xbcd0acde	-0.025473054
166	0x3ce9f175	0.028557518
167	0x3dc84c44	0.097801715
168	0x3d63c8a7	0.05561128
169	0x3dde4dfd	0.10854719
170	0x3ddf3cef	0.10900294
171	0x3dc3dcbb	0.09563585
172	0x3d84f499	0.06491966
173	0x3cda3333	0.026635742
174	0x3d898689	0.06715114
175	0x3d9d6ceb	0.0768679
176	0xbd2848a7	-0.04108491
177	0xbd4731e4	-0.048631564
178	0xbdb1a074	-0.08673182
179	0x3cc03d85	0.023466835
180	0xbdba677d	-0.0910177
181	0x3db5d076	0.088776514
182	0xbcf53253	-0.029931223
183	0xbce76962	-0.028248493
184	0x3cf76935	0.030201534
185	0x3d9944a6	0.07483797
186	0xbd917352	-0.07102074
187	0xbd1ee597	-0.038793173
188	0xbdef7f29	-0.11694176
189	0x3d8f85f8	0.070079744
190	0xbd4b4b89	-0.049632583
191	0xbdd8ff47	-0.10595565
192	0xbd922642	-0.07136203
193	0x39d0940e	0.0003978316
194	0x3c44a30a	0.012001762
195	0x3df92e1a	0.12166996
196	0xbd18e718	-0.037329763
197	0x3c633cbc	0.013869461
198	0xbe022dbd	-0.1271276
199	0xbd1ba5ac	-0.037999794
200	0x3d8bf216	0.068332836
201	0x3db6db43	0.089285396
202	0x3cfcbaac	0.03085073
203	0x3bab2fbb	0.005224196
204	0xbdc205e8	-0.09473783
205	0x3d61851b	0.05505858
206	0xbbb7d4ff	-0.005610108
207	0x3da5c53a	0.080942586
208	0xbdd701ee	-0.10498415
209	0x3c5050c1	0.012714566
210	0x3d8b8770	0.06812942
211	0x3cc03f9b	0.02346783
212	0xbd0d710d	-0.03453164
213	0x3dbf92c7	0.093541674
214	0x3c128645	0.008943145
215	0xbd59181b	-0.053001504
216	0xbd61c53a	-0.05511973
217	0x3d2c14e3	0.042012107
218	0xbdde468e	-0.10853301
219	0x3cb8ff20	0.02258259
220	0xbd9b3a49	-0.075794764
221	0xbdc3b40d	-0.09555826
222	0x3d9d82e2	0.076909795
223	0xbd6bbca9	-0.057552967
224	0x3d3dbf75	0.046325166
225	0x3dbb0d67	0.09133416
226	0xbc1efe9a	-0.009704256
227	0xbbeb99b5	-0.007189954
228	0xbcab76f8	-0.020930752
229	0xbd240eae	-0.040053062
230	0xbd0515ce	-0.032491498
231	0x3cd29262	0.025704566
232	0x3d6d9567	0.05800381
233	0x3a8d0dd2	0.0010761565
234	0x3c68db56	0.01421245
235	0x3dd8200f	0.1055299
236	0x3baae4ea	0.005215277
237	0x3b938193	0.0045015304
238	0x3dbf80b6	0.093507215
239	0x3c77b28f	0.015118255
240	0xbd7c24ca	-0.061558522
241	0xbccd50fa	-0.025063027
242	0xbdd1d4c7	-0.10245662
243	0xbc73a82c	-0.014871638
244	0x3d07e0e8	0.03317347
245	0xbc3b6b11	-0.011439101
246	0xbb4967f3	-0.0030732125
247	0x3db5ddba	0.088801816
248	0x3d7d9723	0.061911713
249	0x3cbfe637	0.023425205
250	0x3dc622d6	0.09674613
251	0x3b09811d	0.0020981499
252	0xbd8d48db	-0.06898662
253	0x3d5561c8	0.052095205
254	0xbce2047c	-0.027590029
255	0xbd2c69bc	-0.042093024

fc2.bias f4 [32]
0	0xbe1dcae4	-0.15409428
1	0xbcf2676e	-0.029590335
2	0x3c39c90a	0.011339435
3	0x3ca057be	0.019573089
4	0x3de64317	0.11243265
5	0xbccb420a	-0.024811763
6	0x3da2c8b7	0.079484396
7	0x3cd4cb48	0.025975838
8	0xbdea7799	-0.11448593
9	0xbe28765d	-0.16451402
10	0xbd4c3728	-0.04985729
11	0xbe09cc34	-0.13456804
12	0x3e0c8d9a	0.13725892
13	0x3bf7d2ff	0.0075629945
14	0x3d2de6d9	0.04245648
15	0x3ddd6605	0.10810474
16	0x3d61a3b1	0.05508775
17	0x3d03124a	0.031999864
18	0xbd6da024	-0.05801405
19	0xbbf60ced	-0.007508865
20	0x3dbf4e26	0.093410775
21	0x3d8a5860	0.067551374
22	0xbdfba91a	-0.12288113
23	0x3d730109	0.05932716
24	0xbde28a23	-0.11061504
25	0x3e4cf8b8	0.20016754
26	0x3da91a13	0.082569264
27	0xbc8013f3	-0.015634513
28	0xbd096857	-0.03354677
29	0xbd8013d8	-0.06253785
30	0x3d92910f	0.07156574
31	0xbcd86e4a	-0.026419777

fc3.weight f4 [6, 32]
0	0x3df99e68	0.12188417
1	0x3d285650	0.04109794
2	0xbe35c384	-0.17750365
3	0xbd312a80	-0.04325342
4	0xbe1d4e07	-0.15361796
5	0x3c5d14ef	0.0134937605
6	0x3d33d59b	0.043904882
7	0x3db9d9d5	0.09074751
8	0xbde52fe0	-0.11190772
9	0xbd6ad897	-0.057335462
10	0xbd9232d6	-0.071386024
11	0x3e0416e2	0.12899354
12	0x3e5be3f6	0.21473679
13	0x3d91aec9	0.07113416
14	0xbdf03df1	-0.117305644
15	0x3e3b979c	0.18319553
16	0x3cc15c11	0.023603471
17	0x3d4cf61b	0.050039392
18	0x3d495847	0.049156453
19	0xbd01d3dc	-0.031696185
20	0x3d283474	0.04106565
21	0x3d343f66	0.044005774
22	0xbda2470f	-0.079237096
23	0xbe0c69cc	-0.13712233
24	0xbd23c794	-0.039985254
25	0x3e0e6d8c	0.13908976
26	0xbe4926c1	-0.1964369
27	0x3dabd28d	0.08389769
28	0xbe2b8b20	-0.1675229
29	0xbe3973de	-0.18110606
30	0x3da30586	0.07960038
31	0xbe18b678	-0.14913356
32	0x3d6bd367	0.057574656
33	0x3db73f50	0.08947623
34	0xbdb3efc0	-0.08785963
35	0xbe15cd26	-0.14629039
36	0x3d402e7b	0.046919327
37	0xbe286b89	-0.16447271
38	0xbda9d428	-0.08292419
39	0xbd2da021	-0.04238904
40	0xbe4ae790	-0.19814897
41	0x3c405f72	0.011741506
42	0xbd131592	-0.035909243
43	0xbd32cfa1	-0.04365504
44	0xbcdca67c	-0.026934855
45	0x3d1969cb	0.037454408
46	0x3dbd5167	0.09244042
47	0xbe8ac5fd	-0.27104178
48	0xbe1dcf12	-0.15411022
49	0xbdc3fdf2	-0.095699206
50	0xbdb41216	-0.08792512
51	0xbd3efdbd	-0.046628702
52	0xbe33654a	-0.17519107
53	0x3d87b2bf	0.0662589
54	0x3e422765	0.1896034
55	0x3dd7ae0f	0.10531246
56	0x3d081a44	0.033228174
57	0xbe4f1699	-0.20223464
58	0xbda08988	-0.07838732
59	0x3dd70e59	0.105007835
60	0xbd1b2fcd	-0.037887383
61	0x3dc39ff9	0.09551997
62	0xbe0aea4d	-0.13565941
63	0x3a41aa17	0.0007387711
64	0x3c76844a	0.015046189
65	0xbc6019d3	-0.013678032
66	0x3d659d48	0.0560582
67	0xbdefd868	-0.11711198
68	0xbdb73a9a	-0.08946724
69	0x3d4adafd	0.04952525
70	0xbd0466e4	-0.032324687
71	0xbdaa093b	-0.08302542
72	0xbdb1ca91	-0.086812146
73	0x3d1cc9e8	0.03827849
74	0x3e189ded	0.14903994
75	0x3d471185	0.048600692
76	0xbe63e75d	-0.22256227
77	0xbdcee27b	-0.101017915
78	0xbe0c7f26	-0.13720378
79	0x3d07b16b	0.033128183
80	0xbdcc90c2	-0.09988548
81	0x3e48b4c2	0.19600204
82	0x3d6e61d3	0.05819876
83	0x3e0b24c9	0.13588251
84	0x3dea7b9a	0.114493564
85	0xbd89fa74	-0.06737223
86	0x3d7fd97f	0.06246328
87	0x3e0bff92	0.13671711
88	0xbd409f1d	-0.047026742
89	0xbd6e69d9	-0.058206413
90	0xbe1f065c	-0.1552977
91	0x3e011b2d	0.12608023
92	0xbdf3d6d8	-0.119062126
93	0x3d26b6e4	0.04070176
94	0xbe6bf3cd	-0.23042221
95	0xbcb4ecb0	-0.022085518
96	0x3c469ef5	0.012122859
97	0xbe13548f	-0.14387725
98	0x3e0d0183	0.13770108
99	0x3c34fd44	0.011046711
100	0x3d3ac468	0.045597464
101	0x3d9ec083	0.077515624
102	0xbdbc43da	-0.09192629
103	0x3bae3220	0.005316034
104	0x3d2f364a	0.042776383
105	0x3e2c4ab4	0.16825372
106	0x3e171a2d	0.14756079
107	0xbe425405	-0.18977363
108	0xbe273119	-0.16327323
109	0x3d7a0981	0.06104422
110	0x3d86680b	0.06562813
111	0xbe745b66	-0.2386299
112	0xbddee2eb	-0.10883125
113	0xbe3bfb91	-0.18357684
114	0xbb13c1cb	-0.002254593
115	0x3d500965	0.05079021
116	0x3db96dcb	0.090541445
117	0xbe290a3f	-0.16507815
118	0xbc4080d4	-0.011749465
119	0xbd2edbe4	-0.042690173
120	0x3c6f3f55	0.014602502
121	0xbe0baf29	-0.13641037
122	0xbc79b0d2	-0.015239911
123	0xb94c1187	-0.00019461485
124	0x3bc0aaa0	0.005879715
125	0xbe20def5	-0.15710051
126	0xbe34e8dd	-0.17666955
127	0x3d42fdbb	0.047605257
128	0xbe0419a8	-0.12900412
129	0xbd84a05c	-0.064758986
130	0x3dc165df	0.094432585
131	0x3c91fdbb	0.017821183
132	0x3e4923dd	0.19642587
133	0x3d8289a4	0.06373909
134	0xbd9c3caf	-0.07628762
135	0x3d868b8f	0.065695874
136	0xbe15936e	-0.14607021
137	0xbdf02c6c	-0.11727223
138	0x3e07500d	0.1321413
139	0xbda057e2	-0.07829262
140	0xbd7ce29a	-0.06173954
141	0x3c893539	0.016749011
142	0x3e20af41	0.15691854
143	0xbdf0843d	-0.117439725
144	0xbe025eb6	-0.12731442
145	0xbe13c8d4	-0.14432079
146	0x3df69c3b	0.12041517
147	0x3c332ba2	0.010935696
148	0x3cc3bc28	0.02389343
149	0xbc879ec5	-0.0165552
150	0xbca4a276	-0.020096999
151	0x3c73e090	0.014885083
152	0x3e4d8368	0.20069659
153	0xbe3e22dd	-0.18567987
154	0x3d32f95c	0.04369484
155	0x3dca0040	0.09863329
156	0xbd036cf3	-0.032086324
157	0xbe7583b6	-0.23976025
158	0xbddafdc3	-0.106929325
159	0xbca336c0	-0.019923568
160	0xbd8b400b	-0.067993246
161	0x3cfc5036	0.030799966
162	0x3dcfe3e3	0.10150888
163	0x3e026827	0.12735043
164	0x3df020f7	0.117250375
165	0xbdadbf7b	-0.084837876
166	0x3db9c360	0.09070468
167	0xbda2a1c9	-0.07941014
168	0xbd480e8b	-0.048841994
169	0x3cb87c0e	0.022520091
170	0xbd9d7e5e	-0.07690118
171	0xbd5a1f94	-0.05325277
172	0xbd731947	-0.05935028
173	0x3e3dd5be	0.18538567
174	0x3e14d0d6	0.1453279
175	0xbdfcc835	-0.12342874
176	0xbd4ee6f3	-0.05051322
177	0xbd99cbc9	-0.07509572
178	0x3db288f4	0.08717528
179	0x3e0c8fb4	0.13726693
180	0x3dd59d67	0.10430413
181	0x3d9e3c23	0.07726314
182	0xbd1ba32b	-0.037997406
183	0x3ddb8256	0.10718219
184	0x3db47ead	0.08813224
185	0x3d565204	0.05232431
186	0xbd4a058e	-0.049321704
187	0x3c918d70	0.017767638
188	0xbdbb8646	-0.0915647
189	0x3e02a84d	0.12759514
190	0xbcb476c0	-0.02202928
191	0x3dc62374	0.09674731

fc3.bias f4 [6]
0	0xbd2b1447	-0.041767385
1	0x3d0142f1	0.03155798
2	0xbe249acc	-0.16074675
3	0xbd74f393	-0.059802603
4	0xbdc9cc14	-0.09853378
5	0x3da2becb	0.07946547
